src/logs/lightning_logs/version_76/checkpoints/epoch=499-step=2000.ckpt (torch, 8699 bytes, 10 tensors)

model.linear_input.weight f4 [8, 17]
0.504093 0.26902822 -0.97720176 0.713521 0.01775762 -0.48453048 -0.3916612 -0.079407446
0.0021102272 -0.3276783 0.44991943 -0.6980489 0.124885336 0.15461859 0.21464789 -0.105144456
-0.40009952 -0.35655403 -0.47003 0.14342965 0.45461056 0.16207592 -0.37450454 -0.42927575
0.29302257 -0.3045402 -0.19374944 -0.2876255 -0.6169939 -0.15065858 0.51243883 0.5774647
0.1238193 0.21444434 0.37553114 -0.40049878 -0.37557867 0.5416694 -1.0915853 0.98745286
0.56006724 0.25163049 0.36270335 -0.15463056 0.07814073 0.19026995 0.08215263 0.014873737
0.020215668 -0.43683654 0.4280558 -0.3485302 -0.051239077 0.33393773 0.17915715 0.29501057
-0.2974138 -0.56765014 0.14693452 -0.3007197 -0.068424195 0.46212652 0.988626 -0.00015949093
-0.11157425 -0.5592319 0.16654743 -0.42417207 -0.60149306 -0.38859966 1.0064989 -0.5464428
0.55353093 0.17166881 0.24520168 0.24174523 0.09048405 -0.42436182 -0.17673256 1.5041183
-0.34143513 -0.62867236 -0.26841998 -0.11824197 0.26907828 0.3916508 -0.45822728 0.0015374926
0.31292233 -0.35421184 0.031060627 -0.15404606 -0.024908962 0.17593156 0.24639459 -0.22710527
-1.0957106 0.6420464 0.119341806 -0.15582192 0.23584965 -0.11204422 0.28238952 -0.7226587
0.46110713 -0.104281336 -0.681341 -0.28585956 0.14846316 0.3794913 -0.2197712 -0.2396059
0.3809493 -0.54972446 0.50047535 -0.2904134 0.61870414 -0.40009362 -0.12000269 -0.48350412
-0.35813487 0.14777678 -0.44568622 -0.28557932 0.2763484 0.2918861 -0.09467799 -0.07366198
-0.23954727 0.14597502 -0.49643952 -0.22034113 0.26868153 -0.47976002 -0.09605569 -0.21877706
00000000: 3d0c 013f 11be 893e e529 7abf 50a9 363f
00000010: 6e78 913c 6114 f8be d187 c8be 5fa0 a2bd
00000020: bd4b 0a3b 73c5 a7be d75b e63e 55b3 32bf
00000030: e2c3 ff3d 5654 1e3e a8cc 5b3e fa55 d7bd
00000040: d8d9 ccbe 408e b6be c6a7 f0be 39df 123e
00000050: b7c2 e83e 3bf7 253e 0fbf bfbe 08ca dbbe
00000060: 0e07 963e b1ec 9bbe 4166 46be a643 93be
00000070: 50f3 1dbf 3e46 1abe 312f 033f bad4 133f
00000080: f994 fd3d 4c97 5b3e 9e45 c03e 2d0e cdbe
00000090: d94b c0be d9aa 0a3f 11b9 8bbf b6c9 7c3f
000000a0: 9160 0f3f b6d5 803e 41b4 b93e 7957 1ebe
000000b0: 3f08 a03d 20d6 423e a33f a83d f9b0 733c
000000c0: 549b a53c 0aa9 dfbe 212a db3e 8d72 b2be
000000d0: 11e0 51bd e3f9 aa3e f974 373e a00b 973e
000000e0: 9f46 98be 8551 11bf 0176 163e eff7 99be
000000f0: fc21 8cbd d99b ec3e 9816 7d3f 053d 27b9
00000100: 0a81 e4bd d229 0fbf 698b 2a3e 152d d9be
00000110: 73fb 19bf 89f6 c6be f5d4 803f ade3 0bbf
00000120: 34b4 0d3f f3c9 2f3e 2616 7b3e 108c 773e
00000130: b44f b93d f445 d9be 61f9 34be f386 c03f
00000140: 96d0 aebe acf0 20bf 586e 89be d928 f2bd
00000150: a1c4 893e 7486 c83e c49c eabe b185 c93a
00000160: 5b37 a03e 415b b5be db72 fe3c 40be 1dbe
00000170: e10d ccbc 6727 343e dd4e 7c3e 498e 68be
00000180: 3f40 8cbf 275d 243f 7a69 f43d c88f 1fbe
00000190: 9282 713e 7177 e5bd 5c95 903e 2900 39bf
000001a0: 3c16 ec3e 7491 d5bd 5d6c 2ebf 2f5c 92be
000001b0: ba06 183e af4c c23e b40b 61be 405b 75be
000001c0: c90b c33e beba 0cbf 271f 003f 11b1 94be
000001d0: 6563 1e3f 12d9 ccbe f8c3 f5bd da8d f7be
000001e0: 745d b7be cc52 173e fc30 e4be 7437 92be
000001f0: 8a7d 8d3e 1872 953e 89e6 c1bd 18dc 96bd
00000200: e14b 75be 7a7a 153e 522d febe 1ba1 61be
00000210: a090 893e 1ba3 f5be d8b8 c4bd 1807 60be

model.linear_input.bias f4 [8]
-0.12815821 -0.36828834 0.35442743 -0.13306828 -0.21571758 0.18035983 -0.3544112 -0.19904342
00000000: e83b 03be 4a90 bcbe 8377 b53e 0d43 08be
00000010: 12e5 5cbe 3fb0 383e 6375 b5be 0ad2 4bbe

model.linear_1.weight f4 [8, 8]
0.6913108 0.13240927 1.2125121 -1.0646532 -1.7500457 0.7752394 0.18740313 -0.15739049
0.47240862 0.3426501 0.3673163 -0.04300206 -0.16395395 0.46540055 0.15714706 0.25427443
0.019809484 0.44383574 -0.23896384 -0.13370264 0.006645441 0.30608243 0.0014202595 0.4158513
0.32759085 0.032149363 0.0045615216 -0.09165118 0.045070466 0.41306412 0.4059499 0.31660262
-0.9415296 -0.6263227 0.8945596 0.01063506 1.1217054 -0.57689524 -0.67527324 -0.13256553
-0.31462193 -0.18439297 -0.14347807 -0.037078828 -0.07811877 -0.2616087 -0.6021419 0.053796735
0.89572316 -0.4065482 -0.24704516 0.34164414 -0.36020148 -0.70785785 -0.82999015 -0.7625602
0.24747474 -0.05883115 0.46610022 -0.0015400583 0.16206907 -0.33832768 0.3981656 0.028501824
00000000: bff9 303f 4c96 073e 9933 9b3f 8e46 88bf
00000010: 7f01 e0bf 1776 463f 9be6 3f3e f92a 21be
00000020: 8bdf f13e d56f af3e e210 bc3e ee22 30bd
00000030: 8be3 27be fb48 ee3e 29eb 203e 4230 823e
00000040: 8047 a23c 703e e33e f0b2 74be 58e9 08be
00000050: 00c2 d93b d6b6 9c3e 0028 ba3a 76ea d43e
00000060: fdb9 a73e 0daf 033d d178 953b 9db3 bbbd
00000070: cf9b 383d 247d d33e aad8 cf3e bd19 a23e
00000080: 1508 71bf af56 20bf dc01 653f ad3e 2e3c
00000090: 0b94 8f3f 68af 13bf b5de 2cbf 42bf 07be
000000a0: 2016 a1be 83d1 3cbe eaeb 12be f8df 17bd
000000b0: bcfc 9fbd 93f1 85be f925 1abf f759 5c3d
000000c0: 1d4e 653f 1627 d0be 68f9 7cbe fbeb ae3e
000000d0: 546c b8be 2c36 35bf 3c7a 54bf 2537 43bf
000000e0: 056a 7d3e eff8 70bd b0a4 ee3e c8db c9ba
000000f0: 6ff5 253e 4939 adbe 5ddc cb3e a87c e93c

model.linear_1.bias f4 [8]
0.06480669 -0.29210475 -0.15337175 -0.2804483 -0.42076892 0.04355503 0.056320086 0.3167087
00000000: 5fb9 843d c18e 95be 7c0d 1dbe eb96 8fbe
00000010: 066f d7be c266 323d e4af 663d a527 a23e

model.layer_output.weight f4 [1, 8]
-2.497169 0.19188167 -0.2747519 0.19326746 1.9234122 0.4305066 1.4578673 0.11129561
00000000: 9ed1 1fc0 a17c 443e 48ac 8cbe e8e7 453e
00000010: 5f32 f63f 5c6b dc3e 659b ba3f f4ee e33d

momentum_buffer f4 [8, 17]
1.1593406e-05 -0.00012731865 0.00023387246 -3.1023814e-05 -0.00064495334 0.0007941243 -0.0006008634 0.00071901054
-0.0005893578 0.00015630179 0.0005512031 6.555221e-05 0.0003355019 0.00013336842 -0.00041627526 0.0007909624
-0.0006728151 -8.228195e-06 0.00029354697 -0.00030775438 2.1303924e-05 -0.00041694223 0.0003732027 -0.00038166632
0.00035923076 -0.0003289932 6.843244e-05 0.00023812515 6.3449326e-05 0.0002555153 5.632485e-05 -0.00039772512
0.00035766084 -0.0003800965 -0.00012152422 3.0498015e-05 0.00026870283 1.3903259e-05 0.0010413321 -0.0008775588
0.00097475277 -0.00079707603 0.00075882545 -1.3854935e-05 -0.000567294 4.7844667e-05 -0.00024453463 -8.400876e-05
0.00045837538 -0.00060939556 0.00078707223 8.1657236e-05 -0.00018767519 -1.0347656e-05 -1.8199005e-05 -0.0003201808
0.00022201425 -0.00032559223 0.00020922664 -0.00021205246 -6.582679e-05 0.00016151363 -9.4265604e-05 -6.0614948e-05
1.9672152e-06 3.654771e-05 8.2049475e-05 -0.00019841504 6.278038e-05 -0.00012235591 -0.00014589334 7.468546e-06
0.0004212604 -0.00063419796 0.00034091534 -0.0005463842 0.000427857 -0.00023363656 -0.00039968925 -0.00017892114
-0.0004434137 -0.00013410843 0.00055097445 -0.0007204907 0.00051502173 -6.479855e-05 0.0004465597 -0.00033951484
3.788682e-05 -0.00019913583 0.00020349523 -0.0001656274 0.00020787377 -0.00018251446 0.00010365344 0.000121107354
0.000122314 0.00029144663 4.703948e-05 -0.00041855377 0.0002865311 -0.00024428486 -3.66275e-05 0.0005233644
-0.0005173427 3.996277e-05 -0.00041119187 0.00034062337 -0.00039480277 0.00036419707 -0.0003352284 7.396492e-05
0.0002306577 8.7191554e-05 0.0003137647 6.050295e-05 -0.000492065 0.00038637378 -0.00041697954 -1.3298462e-05
0.00031107964 -0.00036211082 3.5197925e-05 -5.2519958e-05 -4.7007612e-05 -3.678248e-05 -2.754718e-05 -3.3670076e-06
-8.7036005e-06 -5.225905e-05 2.8886601e-05 7.101356e-05 -9.846626e-06 -0.0001543832 -5.988982e-05 -4.43985e-06
00000000: 4d81 4237 d780 05b9 a93b 7539 911f 02b8
00000010: 1612 29ba c82c 503a 4383 1dba fb7b 3c3a
00000020: 227f 1aba f1e4 2339 9d7e 103a 1379 8938
00000030: 4ee6 af39 d0d8 0b39 853f dab9 9758 4f3a
00000040: db5f 30ba d40b 0ab7 35e7 9939 185a a1b9
00000050: d4b5 b237 0a99 dab9 6baa c339 631a c8b9
00000060: 2357 bc39 b87c acb9 6383 8f38 3cb1 7939
00000070: 1910 8538 aff6 8539 593e 6c38 c385 d0b9
00000080: 6d84 bb39 b047 c7b9 d2da feb8 fdd5 ff37
00000090: afe0 8c39 0b42 6937 4f7d 883a f90b 66ba
000000a0: 8d86 7f3a def2 50ba eaeb 463a 7e72 68b7
000000b0: 75b6 14ba d2ac 4838 e234 80b9 dc2d b0b8
000000c0: 1a52 f039 d8bf 1fba 8653 4e3a 653f ab38
000000d0: adca 44b9 d89a 2db7 11aa 98b7 f1dd a7b9
000000e0: 7fcc 6839 40b4 aab9 d963 5b39 665a 5eb9
000000f0: 7d0c 8ab8 fc5b 2939 76b0 c5b8 ce3c 7eb8
00000100: 8004 0436 ce4a 1938 fa11 ac38 a20d 50b9
00000110: f6a8 8338 aa4c 00b9 f2fa 18b9 529a fa36
00000120: 9ddc dc39 4e40 26ba e2bc b239 393b 0fba
00000130: ff51 e039 56fc 74b9 628d d1b9 c79c 3bb9
00000140: fb79 e8b9 759f 0cb9 456f 103a 50df 3cba
00000150: 8602 073a 75e4 87b8 3a20 ea39 e900 b2b9
00000160: aae8 1e38 1ecf 50b9 5661 5539 44ac 2db9
00000170: b1f8 5939 5a61 3fb9 8460 d938 04fb fd38
00000180: 6a41 0039 4ecd 9839 424c 4538 5671 dbb9
00000190: 8e39 9639 5c13 80b9 7ba0 19b8 6432 093a
000001a0: 489e 07ba b39d 2738 3d95 d7b9 b295 b239
000001b0: 88fd ceb9 b4f1 be39 98c1 afb9 9d1d 9b38
000001c0: b4dc 7139 9cda b638 c980 a439 8cc4 7d38
000001d0: ecfd 00ba 3692 ca39 0c9e dab9 761c 5fb7
000001e0: 6718 a339 b1d9 bdb9 7ca1 1338 e048 5cb8
000001f0: 0a2a 45b8 e346 1ab8 1e15 e7b7 c0f4 61b6
00000200: ae05 12b7 ba30 5bb8 8151 f237 1ded 9438
00000210: f032 25b7 ede1 21b9 3432 7bb8 05fa 94b6

momentum_buffer f4 [8]
0.00011814726 -2.2435568e-05 0.00017767667 -0.0001163656 -0.00020546897 4.2246236e-05 -3.0605734e-05 -6.432968e-05
00000000: d4c5 f738 0434 bcb7 b84e 3a39 4e09 f4b8
00000010: 2873 57b9 8d31 3138 a85e 00b8 bce8 86b8

momentum_buffer f4 [8, 8]
-0.00035946342 -0.00013643195 -0.00024212041 -9.4999006e-05 0.0004266448 -0.00017098634 -0.00030996458 -0.00013516686
-3.4864452e-06 -2.5317362e-07 8.827898e-06 -4.589798e-07 1.8172206e-06 4.8202746e-06 4.2778693e-06 -4.39482e-06
0.0 0.0 0.0 0.0 0.0 0.0 0.0 0.0
-1.768949e-06 -9.225726e-07 5.1843276e-06 -4.565794e-08 7.7297005e-07 2.146615e-06 3.0728702e-06 -1.8406483e-06
-0.00042281378 0.00039001924 -0.00061862345 -0.0010738594 0.0009977692 -0.0006044266 -0.00014759338 -0.00039973235
-0.00020302647 6.971362e-05 5.295151e-05 -0.00028166242 0.0002917147 -8.011125e-05 5.8783517e-05 -3.3307035e-05
-0.00045064074 0.00029254623 0.00014649188 0.00020661418 0.00035139572 0.00025704483 0.0006298713 0.00025443613
-2.6396578e-05 1.5392743e-05 -4.2857664e-05 -7.024663e-05 5.294732e-05 -4.0888488e-05 -3.6557893e-05 -3.1460728e-05
00000000: 5d76 bcb9 2c0f 0fb9 b4e1 7db9 343a c7b8
00000010: 4caf df39 cc4a 33b9 be82 a2b9 94bb 0db9
00000020: acf8 69b6 ebeb 87b4 881b 1437 b469 f6b4
00000030: 39e7 f335 d8bd a136 9e8a 8f36 3777 93b6
00000040: 0000 0000 0000 0000 0000 0000 0000 0000
00000050: 0000 0000 0000 0000 0000 0000 0000 0000
00000060: a06c edb5 b5a6 77b5 09f5 ad36 7019 44b3
00000070: 197e 4f35 910e 1036 8237 4e36 320c f7b5
00000080: 1bad ddb9 7f7b cc39 1e2b 22ba bec0 8cba
00000090: 94c7 823a 6272 1eba 4cc3 1ab9 2b93 d1b9
000000a0: 81e3 54b9 3733 9238 4018 5e38 17ac 93b9
000000b0: 49f1 9839 6601 a8b8 528e 7638 28b3 0bb8
000000c0: fa43 ecb9 e460 9939 9d9b 1939 92a6 5839
000000d0: 893b b839 f9c3 8639 f31d 253a d765 8539
000000e0: 386e ddb7 aa1f 8137 11c2 33b8 5f51 93b8
000000f0: c013 5e38 ae7f 2bb8 bd55 19b8 b3f4 03b8

momentum_buffer f4 [8]
0.0001271658 5.489163e-06 0.0 3.216945e-06 3.081879e-05 -7.631424e-06 5.571455e-05 1.44975465e-05
00000000: cf57 0539 8d2f b836 0000 0000 b2e2 5736
00000010: 6c43 0138 b708 00b7 0baf 6938 7d3a 7337

momentum_buffer f4 [1, 8]
0.0005472625 7.4291843e-06 0.0 5.31743e-07 0.00062391005 3.432474e-05 -0.0010355789 -0.00014157066
00000000: 2a76 0f3a 3548 f936 0000 0000 1abd 0e35
00000010: e58d 233a e9f7 0f38 43bc 87ba 9672 14b9
