test/model.pt (torch, 6203 bytes, 6 tensors)

weight f4 [10, 9]
00000000: 304d 1bbe 20a1 77be dc82 5e3e 2cd3 813e
00000010: b83e 7b3e 1839 49be 5a3b f1be 5821 97bd
00000020: 6209 8f3e e0e6 93be ac15 613e 6868 46be
00000030: ec37 733e d06f 443d d835 ecbe e88d 913d
00000040: 4ad1 f1be a06d 55be 1c97 66be 70c9 bc3d
00000050: d468 d93e a01b fdbe e4de 2cbe 2cf1 dd3e
00000060: 900b 6abd c286 d13e 5cb5 6e3e c4da fd3e
00000070: 38ce d83e 94d4 bebe 34d9 f23e b86b 3a3e
00000080: d068 1c3d 20b6 f03c 5815 2d3e c834 e33d
00000090: a030 adbd a012 a7bc 7ce3 e1be a09a e1be
000000a0: 4049 94bd ccef a13e 14ad 72be 620f ecbe
000000b0: 0078 a5bc a215 ae3e 821a f7be 2c76 35be
000000c0: e6b2 d9be bcc0 873e 1201 eb3e f40e 28be
000000d0: 8c87 ef3e 5c51 643e 1e48 a8be 94d4 a8be
000000e0: 9ae1 9a3e b283 c6be 7681 c4be 30df f63e
000000f0: 8eb8 dfbe 0430 963e b4a1 0bbe ca9d 833e
00000100: 7a8f febe 142f d5be 0e96 a8be 503d 76be
00000110: ae55 e33e dc7b 933e 40dc 7a3d 9430 dfbe
00000120: f0e9 96bd 8cdb 8f3e 385c eb3e 88b4 bb3e
00000130: b868 a8be 6c1f 413e f05a db3d 82ac a03e
00000140: 469b ac3e de38 d23e fcc4 7fbe 38f1 ae3d
00000150: 9433 c13e ced8 913e 7015 75be 840b 19be
00000160: 244d a0be ba11 c2be
-0.15166163 -0.24182558 0.21729606 0.25356424 0.24535644 -0.19650686 -0.47115594 -0.07379407
0.27936846 -0.2888708 0.21980923 -0.19375765 0.23751801 0.047958195 -0.4613483 0.071071446
-0.47229987 -0.208426 -0.22518581 0.09218109 0.4246279 -0.4943514 -0.16881901 0.43348062
-0.057139933 0.40923125 0.2331137 0.49580967 0.42344832 -0.3727156 0.47431338 0.18205154
0.038185894 0.029383719 0.16902673 0.110940516 -0.0845654 -0.020394623 -0.4411887 -0.44063282
-0.07240534 0.31628263 -0.23698837 -0.46105486 -0.020198822 0.3400088 -0.4826241 -0.1772086
-0.425193 0.26514232 0.45899254 -0.16411954 0.46783102 0.22296661 -0.3286752 -0.32974684
0.30250245 -0.3877235 -0.3838002 0.48217154 -0.43695492 0.29333508 -0.13635904 0.2570632
-0.4971884 -0.4163748 -0.32926983 -0.24046826 0.44401306 0.28805435 0.061245203 -0.4359175
-0.07368839 0.28097188 0.45968795 0.36661172 -0.32892394 0.18859643 0.10710704 0.31381613
0.33712214 0.4105901 -0.24977487 0.085421026 0.37734663 0.2848572 -0.23933959 -0.14945799
-0.31308854 -0.3790415

bias f4 [10]
00000000: 2a06 893e 1c97 71be d6b0 efbe da58 843e
00000010: 42ed af3e eaff f4be 5617 8a3e c006 c3be
00000020: e073 833e a6a4 9c3e
0.26762515 -0.235928 -0.46814603 0.25849038 0.343607 -0.47851497 0.2697093 -0.38091087
0.25674343 0.30594367

weight f4 [10, 10]
00000000: fee5 93be f691 c5be e4bf d1be 5a5c 953e
00000010: 38be 25be eecb c03e 30a4 403e b6e7 cfbe
00000020: 688d 32be f67f c3be 6066 bfbd a43e 9c3e
00000030: e0e2 723d 6819 d93e b844 bf3d 205a 84bc
00000040: 6872 e3bd f0b8 f93e 7cb1 3f3e 16b9 9fbe
00000050: 806e fdbd ece5 573e 14fe 04be d0b8 563e
00000060: 8038 eb3d a055 88be 40a3 5d3d b29b efbe
00000070: 8028 213e 1c77 e43e e0b4 ccbc a874 53be
00000080: 802f f7bb 0285 e53e b650 9b3e d8cf a63e
00000090: 523f a1be 7256 ce3e 5038 04be 60eb 97be
000000a0: 20b1 8c3c 8c1d c43e dcec 17be c47a d53e
000000b0: 1823 0abe 049a cb3e 7269 b5be a80d b93d
000000c0: 10af aa3d dae4 e53e 5229 c93e 183e ed3e
000000d0: e43a 12be 68b1 fa3d e46d 133e c475 6ebe
000000e0: d07b 1ebd 969e aa3e 1ac5 d93e c012 d0bc
000000f0: 6a02 d9be cc3e 6cbe 60e6 69bd 5c00 9e3e
00000100: 7a9e ac3e e053 93bc b056 983d 9062 2a3d
00000110: f8f1 83be e0bc c6bd 9c4d cb3e 98b8 723e
00000120: 0044 21be e8e3 a93d 64e0 ca3e 8c45 2b3e
00000130: 12c7 e03e f0e5 8e3d 6a43 84be e82f 563e
00000140: d8e0 fbbe 7c51 e43e de2a 82be 80c3 b73d
00000150: f25f 943e b07b 0abe 4cf3 fabe 3849 a53e
00000160: 7ee3 f4be 820e 9cbe e04a 813d 40d9 5d3d
00000170: 9843 3e3e 7875 d0bd 40d7 a83c aae0 b7be
00000180: eace c53e 08cd 1dbe fce2 29be f2b9 c2be
-0.28886408 -0.38587922 -0.40966713 0.2917202 -0.16185844 0.37655586 0.18812633 -0.4060647
-0.17436755 -0.38183564 -0.09345698 0.3051654 0.059298396 0.42402196 0.09339279 -0.016156256
-0.11105806 0.4877391 0.18720049 -0.31195897 -0.12374592 0.21083802 -0.12987548 0.20968938
0.11485386 -0.26627827 0.054110765 -0.46798474 0.15738106 0.44622123 -0.024988592 -0.2064997
-0.0075435042 0.4482804 0.30335015 0.32580447 -0.31493622 0.40300328 -0.12912107 -0.29671764
0.017174304 0.38303792 -0.14836448 0.41695225 -0.1348995 0.39765942 -0.3543201 0.09035808
0.08334172 0.44901162 0.39289337 0.46336436 -0.14280277 0.12240869 0.14397389 -0.23287112
-0.038692296 0.33324116 0.4253319 -0.025399566 -0.42384654 -0.2307083 -0.05710447 0.3085965
0.33714658 -0.01798433 0.07438409 0.041597903 -0.25770545 -0.09703994 0.3970765 0.2370323
-0.15748596 0.08295423 0.3962432 0.16725749 0.4390188 0.06977451 -0.25832683 0.20916712
-0.4919498 0.44593418 -0.2542333 0.089728355 0.2897945 -0.13523746 -0.49013746 0.32282424
-0.47829813 -0.3047982 0.063131094 0.054162264 0.18580472 -0.101786554 0.020610452 -0.35913593
0.38634425 -0.15410244 -0.16590494 -0.3803249

bias f4 [10]
00000000: 1e99 953e 8083 0b3e ea27 923e 3c31 57be
00000010: b0e8 82be d82d e6be e4c9 233e 005c 2dba
00000020: 600f 403d b448 3dbe
0.29218382 0.13624382 0.28546077 -0.21014875 -0.2556815 -0.4495685 0.15994984 -0.00066131353
0.046889663 -0.18484765

weight f4 [2, 10]
00000000: 4eb6 babe 8e60 92be 8cbf 6fbe fc06 843e
00000010: aea4 a53e 809b b5bd b8e0 c03e 2e88 9bbe
00000020: 984a 463e a062 b53e e08c 88bc 148d 44be
00000030: ac0a a73e a027 e5bc 3084 cc3e 4085 e2bc
00000040: 1cdc 253e 18b9 0dbe d0eb acbe aace d53e
-0.36467212 -0.2858929 -0.23412913 0.2578658 0.32352203 -0.0886755 0.37671447 -0.30377334
0.19364393 0.35426807 -0.016668737 -0.19194442 0.3262533 -0.027972996 0.399446 -0.02765143
0.16197246 -0.13840139 -0.3377366 0.41759235

bias f4 [2]
00000000: 3cd4 dfbe 2428 05be
-0.4371661 -0.13003594
