src/logs/lightning_logs/version_20/checkpoints/epoch=499-step=2000.ckpt (torch, 8699 bytes, 11 tensors)

model.linear_input.weight f4 [8, 17]
00000000: 6c75 8a3e 831d d5bd 5000 db3e af45 23bf
00000010: 7731 453f 0c67 0c3e 36fc 4dbe ddc4 b5bd
00000020: 37a6 983d 52f4 093d 76d8 273c 291a dc3f
00000030: 20a8 33bf 6ce6 efbe 3404 85be 694c c63e
00000040: f654 823e 43e7 a33f 4c89 aebf 6f9c 513e
00000050: 13eb 69bf d10c 8e3f 5336 95bd 6ee6 01bd
00000060: 8cd2 89be cfb0 86be ba84 c1bd ad25 4e3e
00000070: ff19 2ebf eaee 06be 9686 73bd 62de 5b3e
00000080: 9a7a 05be 0c25 b8be 56ce d93d 4699 383e
00000090: 3cb1 53be 696a 5f3e c879 62be 03b3 eabc
000000a0: 2a51 acbe ff7a e3be 6be9 a13e 1bf4 9bbe
000000b0: 787c c2be 8c86 843d 2f17 83be 7b7b a6be
000000c0: 4608 003e 3590 033e 5322 7b3e 3832 d03b
000000d0: beb0 ac3e d2e3 d5be acf0 b53e f519 b2be
000000e0: 8613 e83d 0ee8 09bd beb4 dd3d 3329 263e
000000f0: a8b3 623b 894c b3be cccf 403f 77db 53bd
00000100: 0f2b 2fbf 498f 963e 6c3c 00bf bb61 95bd
00000110: f159 0f3f 42f1 44bf 7b02 81bd b422 64bf
00000120: 6a2d 673f 6ab4 7b3e 0012 b03e f376 d43d
00000130: 69d3 853b 2ee3 86be 8e5c cabe 6883 983e
00000140: 9cc5 a8bd e430 71be 457e e2bc 1bc0 c03e
00000150: 430c d33e 7d4e 743e 36c7 45be 6890 7fbd
00000160: 4beb c6be 4d85 3a3f ef92 44be 1f74 fa3d
00000170: 4175 393e 3dde 833e 21be 6a3e f0bd 32be
00000180: 73f9 a93e 2555 8c3d e93a 15bf 0954 bfbe
00000190: 86a1 efbe 01e4 d73e c860 283e 9c58 1b3e
000001a0: ae39 9abd 6b93 b63e a7a7 2cbd a067 62be
000001b0: 5f08 b93d efa9 553c 6cc7 9b3c 737e 653e
000001c0: 8f52 83bd c911 803e 1fcc 8fbe 5d6a c33e
000001d0: 4f0a 8b3d e029 8e3e 15fa c0bc 723f 3e3f
000001e0: 9d1a 4ebf 9837 febe 8d73 c93d d92c 1a3f
000001f0: 7a72 65be 2274 53be 15b8 773e 6d67 1b3f
00000200: 3a73 8d3e 9920 093d 711a 98bf 69b9 b53d
00000210: cae8 a63e 2c02 ea3e 0dde 713e 555b ce3e
0.2704271 -0.104060195 0.42773676 -0.63778204 0.770286 0.13711184 -0.20115742 -0.08875439
0.07453578 0.033680268 0.010244479 1.7195483 -0.70178413 -0.46855485 -0.2597977 0.3873017
0.25455445 1.280495 -1.363565 0.20469831 -0.9137432 1.1097661 -0.07285752 -0.031713895
-0.26918447 -0.2630677 -0.09449144 0.2013156 -0.68008417 -0.13177076 -0.059454523 0.21471551
-0.1303505 -0.35965765 0.106350586 0.18027219 -0.20673078 0.21817936 -0.22116768 -0.028649813
-0.33655673 -0.44429776 0.31623396 -0.30459675 -0.37985587 0.06470975 -0.25603625 -0.32516083
0.12503156 0.1284798 0.24524812 0.006353643 0.33728594 -0.41775376 0.3553518 -0.3478543
0.11331849 -0.03366857 0.108254895 0.16226654 0.0034591947 -0.3501933 0.7531707 -0.05172297
-0.6842508 0.29406193 -0.50092196 -0.07294031 0.55996615 -0.7693063 -0.06299301 -0.8911545
0.9030367 0.24580541 0.34388733 0.1037425 0.00408404 -0.263452 -0.3952374 0.29787755
-0.08240816 -0.23553807 -0.0276481 0.37646565 0.41220292 0.23858066 -0.19314274 -0.062393576
-0.3885139 0.7285965 -0.19196676 0.122291796 0.18111135 0.25755492 0.22924091 -0.17455268
0.33198127 0.068521775 -0.58293015 -0.373688 -0.4680292 0.4216614 0.16443169 0.1517052
-0.07530533 0.35659346 -0.042152073 -0.22109842 0.090348 0.013041004 0.01901599 0.22411518
-0.06412231 0.2501357 -0.2808542 0.38167086 0.067890756 0.27766323 -0.023556748 0.7431556
-0.8050936 -0.4965179 0.09836493 0.6022468 -0.2240695 -0.2064977 0.24191315 0.6070469
0.27626973 0.033478353 -1.1883069 0.08873255 0.3259948 0.45704782 0.23619862 0.40304056

model.linear_input.bias f4 [8]
00000000: 5ba4 e03e ceff b5be 3016 203d 791f 1e3d
00000010: 1d94 023e 6ca4 8cbe f1c6 c83e 4b0c 84be
0.43875393 -0.35546726 0.03908366 0.038604233 0.12751813 -0.27469194 0.3921428 -0.2579063

model.linear_1.weight f4 [8, 8]
00000000: 2ec1 35bf a5a1 d5bf e73d 6bbe d342 e43d
00000010: aef5 83bf 8792 5cbe 3c55 06bd 1a42 44bf
00000020: e5bd 013f 88dd bb3f 8c30 1abd de34 04bf
00000030: 47b3 9a3f fb31 133f 6c12 2dbe a1dc 283f
00000040: 8cbd f8be 27eb d93e 8eca f4be 2875 db3d
00000050: df56 e3bc aeb0 b63e 6271 c8bd 4bd3 6cbe
00000060: c60e a93e fe06 123f 6127 c0be b9da 4fbe
00000070: 66a8 ce3e 110b c23d e6e4 eebe 9271 e73e
00000080: 7128 ad3d aa37 093f 50fb e6be 6dda 3d3d
00000090: 28f6 923c c4c3 003f f87a f0bd 49ce da3c
000000a0: bbb3 b43f 27e8 49be 2369 503e 8691 8e3e
000000b0: d64b b33e bafd 063f 6faa 383e 43cc 80bf
000000c0: b650 983f 19a1 2fbe a740 21be eb05 913e
000000d0: 1ddb f03d 538d 003f 1c42 ccbd 769b 5dbf
000000e0: b562 0c3f 6ef5 61be 778a 6ebd a719 943e
000000f0: caf9 ca3e 3c48 0c3e 49d9 60be b2fe 1bbf
-0.70997894 -1.6689955 -0.22972833 0.11145558 -1.030935 -0.21540271 -0.03279613 -0.7666336
0.5068038 1.4676981 -0.037643954 -0.5164317 1.2085961 0.5749814 -0.16901559 0.65961653
-0.48582113 0.4256222 -0.47810787 0.10715705 -0.027751384 0.3568167 -0.09787251 -0.23127477
0.33019084 0.5704192 -0.37530044 -0.2029828 0.40362853 0.09474767 -0.4665901 0.45203835
0.08454979 0.5360056 -0.4511361 0.046350885 0.017939642 0.50298715 -0.117422044 0.026709693
1.4117349 -0.19717465 0.20352606 0.278454 0.35018796 0.52730906 0.18033765 -1.0062336
1.1899631 -0.17151298 -0.15747319 0.28324828 0.117605425 0.50215644 -0.09973547 -0.8656534
0.54838115 -0.2206628 -0.05823752 0.2892582 0.396437 0.1369943 -0.21957888 -0.6093551

model.linear_1.bias f4 [8]
00000000: 8bcc 11be ce1a 393d 8b92 873d 81e4 903d
00000010: 00f1 d53e b350 713d edf6 db3d c565 0f3d
-0.14238183 0.04519158 0.06619748 0.07074834 0.4178543 0.05891485 0.10740457 0.035009164

model.layer_output.weight f4 [1, 8]
00000000: 3329 02c0 202d 04c0 773f d83d bcc2 43bf
00000010: 8563 bebe f415 de3f 7043 b03f c1d5 4a3f
-2.0337646 -2.0652542 0.1055898 -0.76469016 -0.37185302 1.735045 1.377058 0.7923241

best_score f8 []
00000000: e83a ee23 dc11 853f
0.010287971350206829

momentum_buffer f4 [8, 17]
00000000: 21e8 86b9 3221 3439 7bac 8436 3a58 adb8
00000010: c8e9 dfb8 aa2e e238 447c dbb7 8e68 68b8
00000020: 670b b3b8 bca0 aa38 b0a8 a2b8 757e b4b9
00000030: fbdf 6138 59a4 0739 ccad a638 c41b e335
00000040: c89f aeb8 533d fab9 6606 7939 70ec 0639
00000050: e2ab 3539 0ba4 7cb9 af3e 36b8 2459 d4b7
00000060: 62f9 b3b8 0e39 dfb8 7996 cb37 d8f0 f2b7
00000070: 7bcc a738 5ba8 44b9 03da be38 6865 c6b8
00000080: 795d aeb7 4a78 bdb8 7ba5 b6b7 22a9 50b7
00000090: 32bd 2e37 9ea1 2cb8 0d7b a5b7 6691 1b38
000000a0: f21d 17b6 b8b7 b4b7 470c 8bb8 c789 2338
000000b0: d810 6c36 cf07 3db8 6949 8bb7 7c38 7737
000000c0: 4f21 c237 3ea1 9037 5a1e 2cb8 9a0d e738
000000d0: e644 1cb8 205b 03b8 1e6c 4db8 cce5 1138
000000e0: 8101 6a38 b063 1136 f464 2538 e550 5bb7
000000f0: a145 5538 5c4e 8036 59c6 01b9 923c e938
00000100: 88e4 d036 dffe 4838 8801 6537 9375 ea37
00000110: fba2 ccb9 0e4a 4939 3bde 9338 a403 2738
00000120: c1b0 2db9 3e3c 07b6 5b57 ebb7 b543 d1b8
00000130: 4220 a9b8 aa69 3d36 28c9 51b8 b693 44b8
00000140: 88ed 18b9 2897 c038 282f e2b7 91d8 79b7
00000150: 7cde ecb8 4d17 0bb9 dc49 cd38 4ad0 3bb6
00000160: b028 9737 cde1 67b8 ad84 9cb4 085c 62b7
00000170: f6de c9b7 8260 7337 02f5 02b7 5da1 39b8
00000180: c8ad bab8 1eb5 6836 85db 2a38 e471 f336
00000190: ddde 82b7 1c2e b8b7 32b5 5c38 9d98 10b8
000001a0: ec19 05b7 ca98 a8b7 16fe c236 7a85 cd37
000001b0: 48d5 3536 33c6 fb36 b3ae f1b7 c3f4 0438
000001c0: 90c5 f536 18dd 07b8 8e54 e437 71d8 b5b6
000001d0: f487 ae37 0c93 7537 3875 94b6 f714 56b9
000001e0: 34cc 8438 bdaa ce38 906d 2039 9c4d dab8
000001f0: 7e40 bfb8 0049 8fb4 6847 30b8 ab10 22b8
00000200: 2b4a 08b8 c0e9 f137 f9e0 8e39 2b59 49b9
00000210: b362 f7b6 600e f2b8 2ce4 5fb7 e2d9 f2b7
-0.0002573142 0.00017178504 3.953986e-06 -8.265716e-05 -0.00010677014 0.000107852116 -2.61647e-05 -5.5410484e-05
-8.537509e-05 8.136171e-05 -7.7561825e-05 -0.00034426493 5.385278e-05 0.00012935828 7.947869e-05 1.6920899e-06
-8.326728e-05 -0.00047729406 0.00023748874 0.00012867316 0.00017325536 -0.00024093704 -4.345056e-05 -2.5313879e-05
-8.581836e-05 -0.00010644096 2.4269555e-05 -2.89608e-05 8.001268e-05 -0.00018754734 9.100514e-05 -9.460264e-05
-2.0785943e-05 -9.034628e-05 -2.1773149e-05 -1.2437145e-05 1.0415259e-05 -4.1158513e-05 -1.9726833e-05 3.7090293e-05
-2.2518184e-06 -2.1543223e-05 -6.630323e-05 3.8990544e-05 3.5176545e-06 -4.5068384e-05 -1.6604276e-05 1.4735499e-05
2.3142113e-05 1.7241222e-05 -4.1036263e-05 0.00011017472 -3.7257465e-05 -3.13177e-05 -4.89765e-05 3.478471e-05
5.5791348e-05 2.166471e-06 3.9433085e-05 -1.3072252e-05 5.0848004e-05 3.8238195e-06 -0.00012376289 0.00011121588
6.2254876e-06 4.7921083e-05 1.364982e-05 2.7949724e-05 -0.00039031342 0.00019196441 7.0509e-05 3.9819293e-05
-0.00016564412 -2.0151633e-06 -2.8054861e-05 -9.978508e-05 -8.0645565e-05 2.82247e-06 -5.0016824e-05 -4.6867608e-05
-0.00014584337 9.1834285e-05 -2.6963258e-05 -1.489198e-05 -0.00011294798 -0.00013264753 9.788919e-05 -2.7986412e-06
1.801955e-05 -5.5284985e-05 -2.91538e-07 -1.3492077e-05 -2.4064891e-05 1.4506399e-05 -7.805649e-06 -4.425772e-05
-8.9015404e-05 3.4676118e-06 4.0735602e-05 7.255223e-06 -1.5600986e-05 -2.195598e-05 5.262084e-05 -3.4474408e-05
-7.933453e-06 -2.0098309e-05 5.81123e-06 2.450006e-05 2.7095248e-06 7.5034563e-06 -2.881079e-05 3.1699205e-05
7.3245683e-06 -3.2392418e-05 2.7219092e-05 -5.4194174e-06 2.0805724e-05 1.4637375e-05 -4.4243898e-06 -0.0002041644
6.332286e-05 9.854648e-05 0.00015299604 -0.00010409506 -9.119602e-05 -2.668894e-07 -4.2028172e-05 -3.8639333e-05
-3.2494e-05 2.8838287e-05 0.00027251968 -0.00019202071 -7.3726637e-06 -0.00011542137 -1.3344961e-05 -2.8950108e-05

momentum_buffer f4 [8]
00000000: 5813 abb8 ad0f e9b8 729b c7b7 307b 2e38
00000010: c50c 06b9 7e86 1db8 7358 2b37 f465 31b8
-8.1575185e-05 -0.000111132256 -2.3795033e-05 4.159956e-05 -0.00012783993 -3.7556973e-05 1.0212988e-05 -4.229504e-05

momentum_buffer f4 [8, 8]
00000000: 7c49 9039 1ef1 9c39 5b3e bc38 62f5 9e38
00000010: 057a 9f39 db98 6d39 2881 3bb7 848e 3e39
00000020: 4ab3 9f38 eda5 cbb9 a472 e638 4755 f638
00000030: 7a0e 74b9 898c 96b8 f9c1 0f37 c2c0 c0b9
00000040: 02be a436 f6be 5236 a6c7 dcb6 e98e 83b6
00000050: 225e 1637 0c81 0136 245f 3c36 8e58 f836
00000060: defe 3138 f377 36b9 80f9 cf37 a35a c037
00000070: 4bbd 9ab8 80d3 a5b7 dec5 5537 abbe 0ab9
00000080: 7012 27b8 d89f 07b9 24eb 2838 2ce2 9b38
00000090: 4a76 22b8 df14 3338 cfd1 2038 bda9 8d38
000000a0: 3537 8cb9 f63d c838 58dd 9bb7 37c7 deb8
000000b0: cc43 01b8 7445 c6b8 63c4 67b8 b1e2 0a39
000000c0: 5d53 6bb9 794d 8e37 2b15 37b8 2dbc 9db8
000000d0: 0708 13b8 02ff 0fb8 5d40 1eb8 26f5 0239
000000e0: 1a67 03b9 ae08 2138 be85 e6b6 2383 38b8
000000f0: 56fd a6b7 bef2 08b8 c3bf 0cb8 207e 8038
0.0002752057 0.00029934285 8.976153e-05 7.579733e-05 0.00030417755 0.00022659024 -1.117614e-05 0.00018172903
7.615106e-05 -0.00038842802 0.00010988608 0.00011746078 -0.00023275046 -7.178734e-05 8.568627e-06 -0.0003676471
4.9097007e-06 3.1403592e-06 -6.579753e-06 -3.920741e-06 8.962614e-06 1.9297613e-06 2.8069562e-06 7.401285e-06
4.2437452e-05 -0.00017401557 2.4792505e-05 2.293039e-05 -7.378551e-05 -1.976802e-05 1.2741859e-05 -0.00013231735
-3.9833074e-05 -0.0001293415 4.0273313e-05 7.433104e-05 -3.8733975e-05 4.2696363e-05 3.8342372e-05 6.75502e-05
-0.00026744013 9.548284e-05 -1.8580511e-05 -0.000106228916 -3.0819137e-05 -9.4543124e-05 -5.525759e-05 0.00013245155
-0.00022442402 1.6963795e-05 -4.3650314e-05 -7.521394e-05 -3.5055007e-05 -3.433135e-05 -3.773008e-05 0.00012489091
-0.00012531542 3.8393475e-05 -6.870104e-06 -4.399115e-05 -1.990671e-05 -3.2650998e-05 -3.3557193e-05 6.127008e-05

momentum_buffer f4 [8]
00000000: ecb7 ea36 b857 b3b8 50bf 0137 0a8d 1fb7
00000010: edf3 2a38 461a e4b7 53b9 7037 ec31 82b7
6.9951548e-06 -8.551724e-05 7.733543e-06 -9.509977e-06 4.0758332e-05 -2.7191953e-05 1.4348264e-05 -1.5520454e-05

momentum_buffer f4 [1, 8]
00000000: 44e2 1b3a 2614 143a e93b cc36 7e46 8739
00000010: 807f 1339 53f4 bfb9 a38e 9bb9 9736 2fb9
0.0005946497 0.00056487543 6.086648e-06 0.00025801727 0.0001406651 -0.00036612395 -0.00029670176 -0.00016709637
