src/logs/lightning_logs/version_25/checkpoints/epoch=29-step=120.ckpt (torch, 8699 bytes, 11 tensors)

model.linear_input.weight f4 [8, 17]
000000 20 93 9d 3e 55 b7 82 3e c8 78 b7 be 0d 1b 97 3e
       0.3077631 0.25530496 -0.35834336 0.29512826
000010 42 5e 00 bf 5d 05 be 3e 02 c6 31 3e 82 a7 01 be
       -0.50143826 0.37113467 0.1736069 -0.12661555
000020 b5 45 df 3e ff 17 93 3e c2 3c 1b 3e 05 cd bf be
       0.4360787 0.28729245 0.15159896 -0.37461105
000030 6a f6 87 be eb 06 2a be dd 7b af be 45 a4 1c 3e
       -0.26555187 -0.16604201 -0.34274188 0.15297039
000040 94 40 60 3e 93 c0 73 bf 9f e3 ec 3e 0c cd 92 3d
       0.21899635 -0.9521572 0.4626741 0.07168016
000050 c7 c8 31 bf f4 dd e5 3e b9 1c bb bd ea c7 a5 3e
       -0.69446987 0.448959 -0.09136338 0.32379085
000060 11 57 56 3d c3 dc 73 3e cc a6 00 3e db 3d ac be
       0.052329127 0.23814683 0.12563628 -0.33640942
000070 91 1d 59 3f b0 e2 be bd 0f 96 98 be bd 14 b9 3d
       0.8481074 -0.09320581 -0.29801986 0.09037159
000080 37 ca 5f 3d 18 45 ee 3d 29 1b 08 3f 9d ee 31 3e
       0.054636206 0.11634272 0.53166443 0.1737618
000090 b9 5d 19 be a4 d2 bc be bc 25 a3 3c ab 7b c1 be
       -0.14977159 -0.36879456 0.019915454 -0.37789664
0000a0 88 45 19 be 85 8c 01 3f 4c 99 b4 3d ad 5c b7 3e
       -0.1496793 0.5060504 0.088183016 0.35812894
0000b0 52 b4 3b 3e d0 6e 8b bf 0c b5 d2 bd 48 2d b0 3e
       0.18330505 -1.0893192 -0.10288438 0.34409547
0000c0 aa 30 ca 3e 40 fb 3c 3f 70 8c 8e be cf 79 77 3d
       0.39490253 0.7382088 -0.2784152 0.0604189
0000d0 3f 15 8f 3e 93 f4 39 3e 9a 40 44 bf 0c 99 f6 3d
       0.27945897 0.18159704 -0.76661074 0.1204091
0000e0 59 6e f4 3e fc 7d 69 3b f5 23 88 bd 9d 4e 36 3e
       0.4774044 0.003562807 -0.06647483 0.17803426
0000f0 c4 48 41 be b4 55 e5 3e 96 20 1e 3f e1 08 c8 be
       -0.18875414 0.4479195 0.6176847 -0.39069274
000100 81 e0 16 bf ce 5c 74 3c 3f e1 8e 3e 5f 12 9f bd
       -0.58936316 0.0149147045 0.27906224 -0.07767176
000110 e8 ae 80 3e 74 97 87 bb 9b fe 64 3e 32 75 fa 3e
       0.25133443 -0.0041379277 0.2236275 0.48917538
000120 87 82 cb 3d 3e 59 98 be 5f 80 83 3e 8a a6 5e be
       0.099370055 -0.29755586 0.25683877 -0.21743217
000130 98 4b 92 be bf eb 3d bd 61 00 03 be ae e8 be 3e
       -0.28573298 -0.046367403 -0.12793113 0.37286896
000140 5f d1 58 bd 4d 7d 28 3e c3 c5 0a be a4 88 7f 3e
       -0.052934047 0.16454048 -0.13552003 0.24954468
000150 83 c2 48 be e9 3b bb bd 27 39 3c be 46 d9 9d bd
       -0.1960545 -0.09142286 -0.18381177 -0.07707457
000160 60 11 0e 3e d3 10 87 be 69 a6 72 be b7 aa 00 bf
       0.13873816 -0.26380023 -0.23696293 -0.5026049
000170 e1 36 d9 3d 16 0c 1a 3e cd 53 ad 3e b5 d2 64 3e
       0.106061704 0.15043673 0.33852997 0.22346003
000180 91 7f 26 3f 30 6f bb bd 0e 78 1d bf b4 98 06 be
       0.650384 -0.09152067 -0.61511314 -0.13144189
000190 9f dd a6 be 59 e0 db be 00 1b f0 be c8 7b a5 be
       -0.32590958 -0.429446 -0.468956 -0.32321
0001a0 12 e0 8d be c8 44 6e be aa 11 9e 3e 94 a3 90 3e
       -0.27710015 -0.23268425 0.30872852 0.282498
0001b0 6a 7a e1 3d a6 fa 9d be ad 6a 83 bd a3 39 e5 be
       0.11009677 -0.30855292 -0.06416831 -0.44770536
0001c0 78 64 e4 be 13 06 54 be b4 62 8b be 7b 6c e4 3e
       -0.44607902 -0.20705442 -0.27223742 0.44614014
0001d0 6b e9 fc 3e 9c a6 34 3e a9 d6 50 3e 09 cf cb 3e
       0.49396834 0.17641681 0.20394386 0.39806393
0001e0 2e ad 16 bd 4b 68 41 3e 9f 4e 1d 3f 8c 64 5c bd
       -0.03678625 0.18887441 0.6144809 -0.053806826
0001f0 82 fb c7 be 6d ec 41 3e d3 ec 54 3d 06 cd 04 bd
       -0.39059073 0.18937846 0.051983666 -0.032422088
000200 08 66 af bc fd 33 79 3e 32 09 a5 be ff 43 a5 3e
       -0.021410957 0.24336238 -0.32233578 0.3227844
000210 7a 1d eb 3d 68 1a d2 3d d4 54 7b be 15 95 e5 3d
       0.114802316 0.10258943 -0.24544078 0.11210076

model.linear_input.bias f4 [8]
000000 97 8e f9 be 39 8f 56 3e 8d 7b 7d 3d cd 9c 03 3f
       -0.487416 0.20953073 0.061885405 0.51411134
000010 ac e3 a9 be 74 c7 98 3c f7 d5 fb 3e 63 80 5e be
       -0.33181512 0.018649794 0.4918668 -0.21728663

model.linear_1.weight f4 [8, 8]
000000 01 e2 be 3d e1 a8 5f 3d 8f 90 6b 3f 28 cf ac 3e
       0.093204506 0.054604415 0.92017454 0.33751798
000010 50 1d 72 bd ff cf ce be 14 8c d3 3e 35 f3 f8 be
       -0.059109986 -0.40393063 0.4131781 -0.48623052
000020 d6 c1 9a 3d eb 65 bf 3e 78 04 76 3e bc 2e de 3d
       0.075565025 0.37382445 0.24025142 0.108487576
000030 ad ef da 3e fa 94 c8 3e 99 ac a1 3d c3 f8 98 be
       0.42760983 0.3917616 0.078942485 -0.2987729
000040 d8 87 58 be 56 4e 77 3f 9a d5 1b bf ff 83 1c 3f
       -0.2114557 0.96603906 -0.60872805 0.6113891
000050 eb a6 04 be 7c 5b fc bc f1 d9 cd 3c 3b 6a 10 bf
       -0.12954299 -0.030805342 0.025128337 -0.56412095
000060 8e f3 c8 be 8e 0d a3 be 7a 1e 94 be aa 01 8e bd
       -0.39248317 -0.3184628 -0.28929502 -0.06933911
000070 3a b9 00 bf c9 b5 0b 3e ae 2a 36 3e 54 b6 5a be
       -0.50282633 0.13643564 0.17789719 -0.21358615
000080 10 78 8f 3e bb d2 86 3d 00 b9 4e be 3b 25 c6 3e
       0.28021288 0.065831624 -0.2018776 0.3870028
000090 78 d8 d4 bc 9e 38 f9 3e 04 03 5e 3e ec 14 e9 3e
       -0.025982127 0.48676008 0.21680838 0.45523775
0000a0 c6 78 30 be 97 0a 59 3f 6c 99 46 3e 01 81 cf 3e
       -0.17233571 0.84781784 0.19394463 0.4052811
0000b0 2f f7 ba be ef 37 11 3f b8 b2 2d 3e f8 41 86 be
       -0.3651671 0.5672597 0.16962707 -0.26222205
0000c0 a0 4c 7f bd fe 4a 46 3f 7b 91 3a bf 9a 88 4f 3f
       -0.062328935 0.7745818 -0.72878236 0.8106781
0000d0 a2 5e 7e 3e 5a 15 9f 3e 12 77 85 3d f7 3b b1 be
       0.24840787 0.31070977 0.065168515 -0.34616062
0000e0 5f 65 bf bb 14 6a 9f 3e 09 ac 55 3e 30 fa 45 bd
       -0.005840942 0.3113562 0.20866407 -0.0483343
0000f0 2c a0 a7 bc 5e bd a1 3e 77 5d c5 3e 5c 55 66 3d
       -0.020462118 0.31589788 0.3854787 0.05623375

model.linear_1.bias f4 [8]
000000 3a 9e 30 3c e7 6f 05 be 95 ae 07 3e dd 6b 1d be
       0.010779912 -0.13030969 0.13250192 -0.15373178
000010 3d dd 37 be f5 b1 bb be 11 9a ce 3e a9 12 49 be
       -0.1795549 -0.36659208 0.40351918 -0.19636025

model.layer_output.weight f4 [1, 8]
000000 fa 79 89 bf 08 93 81 3e 9a 12 9d 3f ae 8b b5 3e
       -1.0740349 0.25307488 1.2271302 0.3545813
000010 43 e2 8b 3e fa d5 58 3f d5 00 98 3f c3 7e 0e 3e
       0.27321061 0.847015 1.1875254 0.13915543

best_score f8 []
000000 43 28 4a b5 03 78 c5 3f
       0.16772505142245295

momentum_buffer f4 [8, 17]
000000 cc 0f 05 b9 02 c5 dd ba 97 c4 de 3a 1d 3b 84 ba
       -0.00012689753 -0.0016919675 0.0016995844 -0.0010088418
000010 f0 85 bb b9 41 7a a3 3a 19 c0 84 3b b1 a8 88 bb
       -0.0003576721 0.0012472348 0.00405122 -0.0041705
000020 c0 d2 5c 39 58 9a dd ba ab 5d b2 3a 24 7b aa 39
       0.00021059345 -0.001690696 0.0013608237 0.00032516674
000030 d0 da 5b b9 06 0e c2 39 b2 92 1e ba 68 c9 fc 3a
       -0.00020966982 0.00037013012 -0.0006049081 0.0019286098
000040 e5 35 06 bb c8 57 49 3c b8 12 06 bc fd 60 fb 3a
       -0.00204789 0.012288995 -0.008183174 0.0019178685
000050 8c 05 8d 3c 9e 95 b7 bc 55 d1 37 3c 98 60 2c ba
       0.017214559 -0.02241021 0.011219342 -0.0006575673
000060 67 ee da 3b 7b cc a8 bb bc 9f 26 3c 8c bd 83 3a
       0.006681252 -0.005151329 0.01016992 0.0010050996
000070 3b fe 86 bc cc c4 49 3c 83 1a 01 3c 5c 39 17 3b
       -0.016478648 0.012314986 0.007879856 0.002307496
000080 b6 18 b6 3b e0 9a f4 39 4d 43 ce 3c 6b d8 f5 bc
       0.005557145 0.00046654698 0.025178576 -0.030010423
000090 26 b9 80 3c 76 66 e2 3c 38 99 fe bb 39 38 13 bc
       0.015713286 0.027636748 -0.00776973 -0.0089855725
0000a0 62 aa 4c 3c a0 12 d3 ba 30 59 25 bc 6a 41 8d bb
       0.012491794 -0.0016103573 -0.010092065 -0.0043107765
0000b0 fa 20 cf 3c 0d e1 7f 3c ed a0 39 bb 8a ff 37 3c
       0.02528428 0.015617621 -0.002832468 0.011230359
0000c0 43 30 57 bc a0 db a5 3c 29 6f 19 bc 84 37 8c 3c
       -0.013134065 0.020246327 -0.009364882 0.017116316
0000d0 8c 9f 48 bc c4 72 51 bb be 7f a5 3c 80 33 98 bc
       -0.01224507 -0.0031959275 0.020202514 -0.018579245
0000e0 a0 4e 5a 38 c0 1b e4 3b 37 36 ad bb 38 74 08 bc
       5.2048475e-05 0.006961316 -0.005286004 -0.00832849
0000f0 6c c9 ae 3b 9c 04 99 3b 6e a5 8e bc aa a6 52 3c
       0.00533407 0.004669739 -0.017412867 0.012857119
000100 04 e9 97 3b ac 13 d1 3a 2a 46 56 3c 5f d3 3a bc
       0.004635932 0.0015951297 0.013078252 -0.011402934
000110 b6 34 80 bb 56 4c d3 3a e0 fc e6 ba 5a 08 cf bb
       -0.0039125336 0.0016120772 -0.001762297 -0.0063181343
000120 2a 45 65 ba 50 20 4d 3b 5a 18 26 3b 05 2d d8 bb
       -0.0008745963 0.0031299777 0.0025344105 -0.0065971636
000130 ac 8c b5 b8 3a 75 4c ba fc 77 51 bb a6 ba 8a bb
       -8.656955e-05 -0.00077994505 -0.0031962385 -0.004233676
000140 14 f9 5a 3a 73 ee 05 bb 94 c7 b4 3a 0f 38 7e 3a
       0.00083531556 -0.0020436316 0.0013792389 0.00096976844
000150 d8 e7 a4 bb 5a 66 42 bc d4 3d 93 3b 89 e4 ea 3b
       -0.0050325207 -0.011865223 0.0044934545 0.007168357
000160 9e 29 41 bc 3a a2 cb ba b4 48 57 3c 57 45 f2 ba
       -0.0117897075 -0.0015536018 0.013139892 -0.00184838
000170 c4 9b d7 3a b3 e6 c6 3a ae 81 db 3b df f2 09 bc
       0.001644962 0.0015174955 0.0066988086 -0.008419721
000180 b7 60 0d bc 3b 6f c0 3b 16 37 44 3b ba 3b e7 b9
       -0.008629016 0.0058726347 0.002994006 -0.00044104253
000190 b0 2e 02 bc f6 b2 fd 3b c4 9b 53 3c c2 87 69 bc
       -0.0079457015 0.007742281 0.012915555 -0.014253559
0001a0 c7 a2 82 3b 84 76 81 3c 4d 54 f6 bb f8 ba b8 bb
       0.0039866897 0.015803583 -0.0075173737 -0.005637523
0001b0 39 a0 f3 3b 70 d5 9c bb 40 85 c8 bb 2d bc 0d b8
       0.0074348715 -0.004786186 -0.0061194003 -3.3792272e-05
0001c0 c1 35 10 3c be d5 0a bb d0 10 5b 3b 4a d7 9a 3b
       0.008801878 -0.002118453 0.003342677 0.0047253715
0001d0 12 54 58 bb 88 eb 1b 3c 44 0c e1 bb 35 0f b3 bc
       -0.0033009094 0.009516604 -0.0068679173 -0.021857837
0001e0 33 b6 80 3c 5a 86 fd 3a 1c af d2 bc c1 59 71 3c
       0.01571188 0.0019342408 -0.025718264 0.014730872
0001f0 85 06 de 3b a8 e4 63 bb 90 80 40 ba 84 73 23 3c
       0.0067756795 -0.003477374 -0.0007343376 0.009976272
000200 28 5a 45 bb 2e 1e 37 bc 17 5f a4 3b a8 e9 dd bb
       -0.0030113552 -0.011176629 0.0050162184 -0.0067722388
000210 06 d6 94 bb 62 bc 08 3b 35 b6 73 bc 03 b5 2e 3c
       -0.004542115 0.0020864238 -0.0148749845 0.010663274

momentum_buffer f4 [8]
000000 e8 26 fa b8 5f 62 c5 3b 16 48 32 3c 3c 96 db 3a
       -0.00011928176 0.0060236896 0.010881444 0.0016753147
000010 d9 20 85 bb f4 4b 55 b9 94 95 2d 3b 63 02 8a bb
       -0.0040627536 -0.00020341558 0.002648686 -0.0042117103

momentum_buffer f4 [8, 8]
000000 9f 2f 2b 3c 6a 11 a2 bd 2c 6b d6 3c 62 63 c3 bc
       0.0104483655 -0.07913478 0.02617415 -0.0238511
000010 a3 fc 3b 3d c1 63 60 3b 5a 71 b6 bc a0 21 1e 3d
       0.04589523 0.0034239145 -0.022270847 0.038606286
000020 9c 6a 51 ba d9 00 89 bb 6b a3 b0 b9 83 a3 f3 39
       -0.00079886033 -0.0041810093 -0.00033691092 0.00046470398
000030 2b 23 ac 3a b0 0c c1 ba 38 63 3e bb 94 a6 b8 3a
       0.001313304 -0.0014728513 -0.0029050838 0.001408773
000040 88 04 21 3c e6 22 cc bc 7f 93 5c 3c 3d a9 2d bc
       0.0098277405 -0.024918985 0.0134629 -0.010599432
000050 a6 b2 92 3a c5 2b 9f 3b 6b 10 38 bc 5c 54 78 3c
       0.0011192157 0.0048575127 -0.011234383 0.015156832
000060 47 e4 8a bb 97 0e 86 39 b5 dc a0 3a e7 44 b1 bb
       -0.0042386386 0.00025569342 0.0012272807 -0.005409825
000070 04 0e ae 3b cd 06 35 3b cc dc 67 bb 39 52 84 3b
       0.0053117294 0.0027622462 -0.0035379408 0.004038122
000080 ba fd c5 3a c3 81 91 39 4d 1e 17 39 d5 11 16 bb
       0.0015105524 0.00027753235 0.0001441177 -0.0022898812
000090 da 1f a1 ba 3e c6 e2 bb 40 76 3f 3b 11 8d 32 3b
       -0.0012292818 -0.006920605 0.002921477 0.0027244727
0000a0 ba b0 ea 3a 3f ee 85 bc 42 4c 2f 3b b7 cc 8f bb
       0.0017905452 -0.016348956 0.0026748334 -0.0043884176
0000b0 cf c7 05 bb b8 08 6d bb ff 68 93 bb 40 62 98 3b
       -0.0020413285 -0.0036168527 -0.0044986005 0.004650384
0000c0 dc 37 32 3c 92 87 82 bc 35 f6 91 3c 7f b4 90 bc
       0.010877576 -0.015933786 0.017817596 -0.017664192
0000d0 0d 4a 85 3a 64 39 34 bc b5 2a ca 3b 20 74 88 3a
       0.0010169164 -0.011000011 0.006169642 0.0010410585
0000e0 d4 15 82 39 03 0b 9a bb 52 e2 7f bb db 59 5b bb
       0.00024811795 -0.0047010197 -0.003904481 -0.0033470306
0000f0 cc a4 13 3b c0 bd 62 ba 57 52 ce 3a 9c 91 55 3b
       0.0022528647 -0.0008649491 0.0015741092 0.003258801

momentum_buffer f4 [8]
000000 96 d1 b5 3b 75 5a 18 3b 9e d0 da 3b 1e ac 08 bb
       0.005548666 0.0023247276 0.006677701 -0.0020854543
000010 4f 9d 8d 3a 4c 40 f1 3b 6c 6d 23 bc 0c 16 23 b9
       0.0010804328 0.007362401 -0.009974819 -0.00015553104

momentum_buffer f4 [1, 8]
000000 1e 24 0e 3c 0b 51 2e bc ac 46 23 bd 1e 0b a4 bb
       0.008675603 -0.010639439 -0.03986232 -0.005006208
000010 2f 5e fe bb f1 ca cf bc 08 a3 24 bd 92 b4 46 bc
       -0.0077626924 -0.025365325 -0.04019454 -0.012128012
