src/logs/lightning_logs/version_27/checkpoints/epoch=30-step=124.ckpt (torch, 8699 bytes, 11 tensors)

model.linear_input.weight f4 [8, 17]
-0.10480508 -0.535463 -0.2022957 0.64849406 0.18533416 0.12020613 -0.5324528 0.6051714
-0.50471836 -0.06746602 0.4030105 -1.0372657 0.12127933 0.4497844 0.10732697 0.2571863
-0.37331107 0.7130873 -0.45159185 -0.23649864 0.7080768 0.13801324 -0.20778582 0.08626229
-0.38756236 0.43936557 0.10171473 0.13649482 -0.84016097 -0.03351622 0.39766115 0.51524174
-0.37189242 -0.37661272 0.32192522 0.18291888 -0.40617865 -0.05167014 0.35909784 0.13638261
0.16625619 0.01672913 -0.33222786 -0.019134436 -0.17464332 -0.54297704 -0.30299073 0.1994677
0.06945726 -0.49448597 0.13466872 0.23951484 -0.33600265 0.56310135 0.071088985 0.2558514
-0.17228818 0.024226096 -0.59087193 -0.4327885 -0.24609758 -0.07647994 0.6532789 -0.5706949
-0.54237133 0.37707984 0.17812023 0.5138519 0.45822784 -0.33849004 0.04672678 0.5834876
-0.4275407 -0.2779804 0.09249142 -0.15089743 0.18889597 -0.13388798 -0.11496251 -0.87632626
0.03206838 0.24342428 -0.33179837 0.02109908 0.2877059 0.41346765 0.07119891 -0.42443132
0.5383138 0.024894748 -0.032807764 0.44863454 -0.04874224 -0.00265854 0.25083283 -0.0393966
0.004412582 0.0473195 -0.0019227121 0.17079657 0.43826306 0.2207567 0.33824146 -0.09351768
0.38053292 0.045021236 0.42856807 -0.27874783 -0.07649408 0.11931979 0.40188485 0.13308714
-0.2631197 0.3025361 -0.4277791 -0.19287506 -0.25470728 0.097795 0.48300642 -0.04916731
-0.015984148 0.02813124 -0.0345874 0.0817867 0.2545501 0.44803846 0.12398905 -0.2381662
0.39267457 -0.36008218 -0.28603196 0.5570237 0.51906735 0.43261504 -0.14401017 -0.38110283
00000000: 0ca4 d6bd 1a14 09bf 9b26 4fbe b503 263f
00000010: 3dc8 3d3e a22e f63d d44e 08bf 83ec 1a3f
00000020: 3935 01bf a02b 8abd 6457 ce3e 1fc5 84bf
00000030: 4c61 f83d 244a e63e 3ece db3d ecad 833e
00000040: a122 bfbe e48c 363f 0c37 e7be b32c 72be
00000050: 8544 353f 5853 0d3e cec5 54be 49aa b03d
00000060: 936e c6be 86f4 e03e d04f d03d 4cc5 0b3e
00000070: ca14 57bf 4e48 09bd 3e9a cb3e e2e6 033f
00000080: af68 bebe 62d3 c0be 62d3 a43e 164f 3b3e
00000090: a6f6 cfbe 12a4 53bd acdb b73e e2a7 0b3e
000000a0: 103f 2a3e 870b 893c c519 aabe d2bf 9cbc
000000b0: b3d5 32be 8b00 0bbf 9a21 9bbe 4341 4c3e
000000c0: 9c3f 8e3d 442d fdbe 99e6 093e 6143 753e
000000d0: 8a08 acbe 6927 103f 1a97 913d f4fe 823e
000000e0: 506c 30be ce75 c63c 6243 17bf 7496 ddbe
000000f0: 0101 7cbe 84a1 9cbd 493d 273f 1019 12bf
00000100: d9d8 0abf 9c10 c13e 2665 363e cc8b 033f
00000110: d79c ea3e 914e adbe 9464 3f3d 715f 153f
00000120: 9de6 dabe 7253 8ebe 246c bd3d db84 1abe
00000130: f26d 413e ee19 09be 7771 ebbd eb56 60bf
00000140: 225a 033d 3744 793e 7ae1 a9be fad7 ac3c
00000150: 304e 933e 08b2 d33e bcd0 913d 104f d9be
00000160: efce 093f 12f0 cb3c 6f61 06bd 6db3 e53e
00000170: f1a5 47bd e63a 2ebb 296d 803e 545e 21bd
00000180: 6c97 903b 18d2 413d 8303 fcba 4ce5 2e3e
00000190: 0464 e03e 0b0e 623e fc2d ad3e 3386 bfbd
000001a0: 36d5 c23e 3068 383d 466d db3e 09b8 8ebe
000001b0: eea8 9cbd ef5d f43d dac3 cd3e ff47 083e
000001c0: a0b7 86be 03e6 9a3e dd05 dbbe 0a81 45be
000001d0: fe68 82be bf48 c83d 9e4c f73e a963 49bd
000001e0: 30f1 82bc 7c73 e63c 84ab 0dbd c97f a73d
000001f0: 6454 823e 4c65 e53e f9ed fd3d d7e1 73be
00000200: a40c c93e b15c b8be c872 92be 1b99 0e3f
00000210: 99e1 043f b87f dd3e 6777 13be e91f c3be

model.linear_input.bias f4 [8]
0.15210919 -0.4245069 -0.24256921 -0.043954026 -0.15915354 0.12565006 0.32860017 0.37186047
00000000: 83c2 1b3e f858 d9be 1064 78be 2309 34bd
00000010: 25f9 22be 69aa 003e 483e a83e 7f64 be3e

model.linear_1.weight f4 [8, 8]
0.25962266 -0.4540201 0.2782427 -0.40483317 0.18327077 -0.42106402 -0.14977454 -0.009340262
0.42826295 0.24017705 -0.19030802 0.30129173 0.10511882 -0.3023046 -0.2874831 -0.15317334
0.12967636 -0.2768953 -0.36693174 -0.66144335 0.45511338 0.34270138 -0.5528775 0.23959619
0.54778934 0.043977678 0.029466828 -0.12329099 0.14803752 0.4555347 -0.19043489 0.52859175
0.50198734 -0.26020974 -0.38314041 -0.001024812 -0.07182597 -0.49401158 -0.15388605 -0.039972916
-1.0178969 -1.1533296 -0.48824504 0.36548978 -0.89493173 0.09634484 0.3736852 -0.10886922
-0.50527084 -0.55774045 0.011584754 -0.026308848 -0.4360607 -0.32025 -0.09967964 0.14873858
0.51076597 0.574836 0.18016618 -0.30551112 0.1055641 0.37116912 0.24963102 0.51179504
00000000: 43ed 843e 5375 e8be d475 8e3e 4b46 cfbe
00000010: 55ab 3b3e b495 d7be 7f5e 19be e607 19bc
00000020: 4845 db3e f9f0 753e 1be0 42be e942 9a3e
00000030: 8948 d73d abc7 9abe fc30 93be 79d9 1cbe
00000040: e1c9 043e 39c5 8dbe 7ade bbbe 5a54 29bf
00000050: 9f04 e93e 8e76 af3e 6189 0dbf b458 753e
00000060: ec3b 0c3f f021 343d 6b64 f13c fd7f fcbd
00000070: 2697 173e d83b e93e 5d01 43be ca51 073f
00000080: 3e82 003f 363a 85be fb2a c4be fc52 86ba
00000090: 7f19 93bd 16ef fcbe 4e94 1dbe a4ba 23bd
000000a0: 724a 82bf 4ea0 93bf 41fb f9be 7a21 bb3e
000000b0: 3f1a 65bf 7250 c53d ab53 bf3e d3f6 debd
000000c0: 6e59 01bf 14c8 0ebf fbcd 3d3c a785 d7bc
000000d0: 5943 dfbe cff7 a3be d724 ccbd ed4e 183e
000000e0: 8fc1 023f 7428 133f 7c7d 383e f46b 9cbe
000000f0: fe31 d83d e109 be3e 469f 7f3e 0005 033f

model.linear_1.bias f4 [8]
0.06872776 -0.3799 -0.12414633 0.12994556 -0.38525656 -0.20104964 0.46692953 0.44914538
00000000: 24c1 8c3d 4182 c2be 6e40 febd 7310 053e
00000010: 5940 c5be f5df 4dbe 6311 ef3e 62f6 e53e

model.layer_output.weight f4 [1, 8]
-0.4082283 0.32088256 -0.61688524 -0.6553361 -0.64407945 1.8020403 0.7345906 -1.0412037
00000000: 4d03 d1be b84a a43e 31ec 1dbf 1bc4 27bf
00000010: 64e2 24bf 42a9 e63f 210e 3c3f 2a46 85bf

best_score f8 []
0.1627692708590098
00000000: 1f0d 919b 9fd5 c43f

momentum_buffer f4 [8, 17]
-0.007938869 0.005983391 -0.0018404564 -0.0064268108 0.008673771 -0.0060428847 -0.0034956597 -0.00030026594
0.0032491763 -0.009443582 0.0023984804 0.013368344 -0.011132693 -0.009707063 0.0036754855 0.0023431345
-0.006139068 -0.007235886 0.008645166 -0.0060880245 -0.0065160627 -0.0008947302 0.0027320501 -0.006946538
0.0022677917 -0.001008786 -0.0063755177 0.002705561 0.013225314 -0.0065306993 -0.0052684685 -0.006104887
-0.0002420033 -0.0044367397 -0.002652084 0.0061118114 -0.006105614 -0.0013356855 -0.0011895351 -0.00012066603
-0.0050877025 0.002441816 -0.0039432268 -0.0026881318 0.0039854706 0.0053595128 -0.0020030113 -0.0038183702
-0.0021840176 -0.00036669648 -0.0022791913 0.0022480628 0.009564459 -0.010875715 0.0024182752 -0.006556771
0.0050753 0.0018319059 -0.00089509983 -0.0013027535 0.0045379447 -0.0022983835 -0.0051850365 0.0056772176
0.0034652448 -0.0030206188 -0.00067905826 0.0016158656 -0.0039017678 -0.004496645 0.008184021 -0.007101273
0.009145842 -0.0022589597 -0.0014174874 0.0012031011 0.0025425004 -0.006518885 0.0037619923 0.00885797
-0.0063950676 -0.005724953 0.003047662 0.0011465494 -0.001360939 -0.0030282622 -0.007781058 0.0073970547
-0.00024529835 -0.0032867538 0.00011978629 -0.0041886987 0.0007764321 0.0011439929 -0.0009973331 -0.0035589247
0.0025664184 -0.0026726846 0.0026109105 -0.0059169107 -0.0018138355 -0.0015984303 -0.00033093378 0.007612574
-0.009908058 0.0027237823 -0.0067533287 0.0014031267 -0.0022018282 -0.0004245892 -0.0021209845 0.0023381638
-0.002843597 -0.002611113 0.002321893 0.0018541985 -0.004191395 -0.00090733217 -0.0017190839 -0.0036443826
-0.0035243 0.0032101893 0.0011897988 -0.0019514277 -0.0031968644 -0.004741907 0.00078341103 -0.00041598157
-0.0027207911 -0.0008217212 0.0052538863 -0.005157758 -0.0009269502 -0.0031276727 -0.00070162467 -0.0032568704
00000000: 0812 02bc 5210 c43b 783b f1ba ff97 d2bb
00000010: 6f1c 0e3c 6403 c6bb 7017 65bb 036d 9db9
00000020: 22f0 543b 41b9 1abc d32f 1d3b e606 5b3c
00000030: e665 36bc 600a 1fbc 6ae0 703b 468f 193b
00000040: 3c2a c9bb 031b edbb 74a4 0d3c 0d7e c7bb
00000050: b284 d5bb 548c 6aba 320c 333b c99f e3bb
00000060: 3b9f 143b 3e39 84ba b8e9 d0bb c84f 313b
00000070: fdae 583c 7aff d5bb 1ea3 acbb 810b c8bb
00000080: 44c2 7db9 1262 91bb 96ce 2dbb 9745 c83b
00000090: 9a11 c8bb 2b12 afba 2dea 9bba 150e fdb8
000000a0: beb6 a6bb e006 203b 2f36 81bb 5e2b 30bb
000000b0: 8d98 823b da9e af3b f444 03bb 9f3d 7abb
000000c0: bc21 0fbb 2b41 c0b9 7c5e 15bb 3c54 133b
000000d0: 40b4 1c3c 0e30 32bc ed7b 1e3b 2fda d6bb
000000e0: b44e a63b 901c f03a 22a5 6aba 27c1 aaba
000000f0: 0ab3 943b 7aa0 16bb 3de7 a9bb f407 ba3b
00000100: 2919 633b 93f5 45bb d402 32ba 74cb d33a
00000110: cdb4 7fbb 9858 93bb 4616 063c ccb1 e8bb
00000120: 71d8 153c 0e0b 14bb fcca b9ba 60b1 9d3a
00000130: 14a0 263b 5f9c d5bb c28b 763b 0521 113c
00000140: b78d d1bb 6398 bbbb 49bb 473b d047 963a
00000150: 8961 b2ba cf75 46bb 3ff8 febb fe62 f23b
00000160: 639b 80b9 9466 57bb c635 fb38 5a41 89bb
00000170: 7a89 4b3a 08f2 953a f2b8 82ba d93c 69bb
00000180: 5b31 283b 3528 2fbb cf1b 2b3b a5e2 c1bb
00000190: 38be edba 6c82 d1ba 2e81 adb9 e672 f93b
000001a0: 6855 22bc 7c81 323b 074b ddbb 1fe9 b73a
000001b0: 8c4c 10bb 669b deb9 3700 0bbb e13b 193b
000001c0: a45b 3abb 351f 2bbb e62a 183b 9408 f33a
000001d0: f857 89bb 08da 6dba e252 e1ba 98d6 6ebb
000001e0: f1f7 66bb 0a62 523b 06f3 9b3a 0cc7 ffba
000001f0: 7c82 51bb 0062 9bbb d35d 4d3a 1a18 dab9
00000200: 4d4f 32bb c768 57ba cb28 ac3b 6902 a9bb
00000210: 93fe 72ba a4f9 4cbb 3ced 37ba 3871 55bb

momentum_buffer f4 [8]
-0.0037959279 -0.0046787453 -0.0026458858 0.00093680597 -0.00021439325 -0.0034122663 -0.0026264172 -0.0039584944
00000000: 1ac5 78bb 2950 99bb 9966 2dbb fc93 753a
00000010: c0ce 60b9 54a0 5fbb f81f 2cbb 42b6 81bb

momentum_buffer f4 [8, 8]
0.0014740818 0.003371968 0.00050405884 0.009175885 -0.0056926794 0.00013809135 0.0025038768 -0.003907309
2.9018698e-05 -1.4558179e-05 -1.8643275e-05 1.2811862e-05 -2.1099848e-05 4.0491595e-06 1.458391e-05 9.256346e-06
0.0021607631 0.006125612 -0.008665443 0.019566396 0.005040928 -0.00733863 0.014868383 0.001393373
-0.0029675188 -0.002927517 -0.002406035 0.0025207144 -0.0022802285 -0.0032516145 0.0009917655 -0.0059630107
-0.008277031 0.0032292185 0.0026367977 0.0018750028 -0.004370858 0.0062808795 0.0013583535 0.0013671427
0.0089950785 0.01643891 0.0039704223 -0.008509557 0.016790064 0.0054096896 -0.0023921216 0.010100964
0.008556436 0.00094898464 -0.0007143297 -0.0024910348 0.0064400462 0.002045517 -0.0033224444 0.0001983167
-0.0014451168 -0.005125678 -0.0029593743 0.00031873694 -0.0030640913 -0.0066684764 -0.0029284782 -0.011551801
00000000: fa35 c13a 3cfc 5c3b d122 043a 7356 163c
00000010: a889 babb 9dcc 1039 1518 243b e208 80bb
00000020: 2e6d f337 e73e 74b7 2164 9cb7 87f2 5637
00000030: 94ff b0b7 04de 8736 6bad 7437 b44b 1b37
00000040: 979b 0d3b 5cb9 c83b 81f9 0dbc b549 a03c
00000050: 5e2e a53b e478 f0bb 859a 733c d7a1 b63a
00000060: b47a 42bb 96db 3fbb 92ae 1dbb 9232 253b
00000070: e36f 15bb 0a19 55bb 21fe 813a 5c65 c3bb
00000080: 629c 07bc 4ca1 533b 20ce 2c3b a7c2 f53a
00000090: 6a39 8fbb d6cf cd3b c80a b23a b231 b33a
000000a0: 1860 133c e5aa 863c 511a 823b ab6b 0bbc
000000b0: 518b 893c c443 b13b 24c5 1cbb 847e 253c
000000c0: 4b30 0c3c 48c5 783a db41 3bba a140 23bb
000000d0: 0607 d33b 150e 063b 5ebd 59bb 3cf3 4f39
000000e0: 136a bdba 4ef5 a7bb 10f2 41bb 261c a739
000000f0: ecce 48bb 3c83 dabb b6eb 3fbb c443 3dbc

momentum_buffer f4 [8]
-0.00045225388 2.0157353e-05 0.0022014496 -0.0024325335 0.0014893917 -0.00022807607 0.0003825305 -0.0065728365
00000000: 7d1c edb9 9617 a937 3246 103b 246b 1fbb
00000010: b137 c33a b427 6fb9 608e c839 f360 d7bb

momentum_buffer f4 [1, 8]
0.015362273 1.9544584e-07 0.03171729 0.011613749 0.015071266 -0.027361939 -0.010427558 0.01595696
00000000: 0bb2 7b3c bedb 5134 fde9 013d 9847 3e3c
00000010: 79ed 763c 2526 e0bc 59d8 2abc 2cb8 823c
