src/logs/lightning_logs/version_70/checkpoints/epoch=99-step=400.ckpt (torch, 8254 bytes, 10 tensors)

model.linear_input.weight f4 [8, 17]
000000 22 78 49 be bd 9a 1d be c2 05 96 be d3 3b a0 bd
       -0.19674733 -0.15391059 -0.29301268 -0.078239106
000010 d4 58 58 3e 5e 33 6f be 7d fc 38 be a5 4a 3d 3e
       0.21127635 -0.23359439 -0.18065067 0.18485506
000020 7e 79 15 3f 10 82 ce 3c f1 fa 98 3c 17 77 a4 3e
       0.5838851 0.025208503 0.018674346 0.32122108
000030 48 ac 46 bd 6a 37 3e bf 81 87 db 3e 41 0b 08 3f
       -0.048504144 -0.74303305 0.4287682 0.5314217
000040 5b e7 a0 be 97 ea 71 bc bb 47 ee 3e 3a 5c 26 bf
       -0.3142651 -0.014765403 0.465391 -0.64984477
000050 c6 17 07 3f f6 e7 b0 3e 41 5f 1d bf f5 f2 03 3f
       0.5277065 0.34551972 -0.6147347 0.515426
000060 15 3b 0b 3f d0 1d 0f 3f 05 a9 6c 3d d2 6e 1f bf
       0.5438703 0.55904865 0.057778377 -0.62278473
000070 16 0c 59 be a7 eb 4a bd 3d 98 6d be 59 3d 9c 3e
       -0.21196017 -0.04954114 -0.23202606 0.30515555
000080 5e 8f ff 3e 73 ec e6 be 42 0e 82 be 90 0e 34 3e
       0.49914068 -0.4510227 -0.25401503 0.1758368
000090 8e d6 9d be 85 04 84 3e 62 69 8e 3e 05 25 f6 be
       -0.30827755 0.25784698 0.27814776 -0.4807512
0000a0 8f 3a 0f 3e 79 21 a0 be d5 9f b1 be b3 96 eb be
       0.13987182 -0.31275538 -0.34692255 -0.46013412
0000b0 0c 0e 32 be 9f 16 e7 3d 59 82 83 bc 9e 73 34 3e
       -0.17388171 0.112836115 -0.016053366 0.1762223
0000c0 54 de b1 be f1 66 f6 39 c9 23 b8 be 2a 7d bd 3e
       -0.34739935 0.00046997474 -0.35964802 0.37009555
0000d0 4c 23 83 3e 2c 78 c4 3e c3 fb b8 be ca 5c 2c bd
       0.25612867 0.38372934 -0.3612958 -0.042080678
0000e0 fd bd 07 bf f8 13 bd be e3 af 87 3e e0 10 7a 3e
       -0.53024274 -0.36929297 0.26501378 0.244205
0000f0 d1 b1 b5 bd 61 f2 57 bf e7 8c 1e 3f e3 63 62 3e
       -0.088718064 -0.84354216 0.6193375 0.22108416
000100 95 15 00 bf 03 ca d7 3e 7e d9 1d be 80 3d 06 3e
       -0.5003293 0.4214631 -0.15414998 0.13109398
000110 dc 94 bd 3e 99 d0 7c 3d 10 15 da be 0f cd 03 3f
       0.37027633 0.06172237 -0.42594194 0.5148477
000120 04 1f b9 be 38 69 9c be 95 8a d9 be c7 6c cd be
       -0.36156476 -0.30549026 -0.42488542 -0.40122053
000130 c7 2d 6a 3e 70 05 bd bd 06 2b 2a bf 28 3f 90 3e
       0.22869025 -0.09229553 -0.664719 0.28173184
000140 b2 81 08 bd af b8 83 3e da c5 4b 3d a4 86 e0 3e
       -0.033326812 0.2572684 0.049749233 0.43852723
000150 89 dd 05 bf 11 25 76 3f 8c e9 0d bf 95 58 58 bd
       -0.5229116 0.9615031 -0.5543449 -0.052818853
000160 b5 0b 19 3f 95 91 f7 be 3e bc 34 bf 46 13 04 3e
       0.5978349 -0.48353258 -0.70599735 0.12897977
000170 16 9a 1b 3f c6 8c c9 be b3 24 ce 3c fc 17 31 3e
       0.6078199 -0.39365214 0.025163984 0.17294306
000180 04 fe a8 bf 30 66 f3 3e a9 11 4a 3f e2 08 44 3f
       -1.320252 0.475389 0.789332 0.76576054
000190 a9 8e df bd 13 50 af 3c 76 df c7 3e ad 83 6f bd
       -0.10915882 0.021400487 0.39037675 -0.058475185
0001a0 c2 a1 37 3e 28 6f 33 3e db 17 79 be 25 62 bf 3b
       0.179328 0.17522871 -0.24325506 0.005840557
0001b0 8f 1b 03 3f ef fc 5a be 25 3d 13 bf 70 9c 76 be
       0.51213926 -0.21385549 -0.57515174 -0.24083114
0001c0 55 71 f4 3d 8c 65 2b bd 32 58 2d 3e 63 e6 6d 3f
       0.11935679 -0.04184489 0.16928175 0.9292967
0001d0 2c 0e 61 be 02 9b c6 be 87 ad de 3e d4 ad 38 3e
       -0.21978062 -0.38790137 0.43491766 0.1803506
0001e0 52 e4 04 bf 65 69 a6 bd ec d8 ce 3e f0 32 0f bf
       -0.5191089 -0.08125571 0.40399873 -0.559371
0001f0 e5 93 85 3c d6 7e e2 bd 60 9a 50 3e 97 31 82 bd
       0.016305873 -0.11059348 0.2037139 -0.06357115
000200 b5 41 0f 3c 47 aa 72 be 8d c9 0a bf 08 d7 d7 3e
       0.008743693 -0.23697768 -0.5421379 0.42156243
000210 8a b8 a7 3e 11 58 a1 3e 4a 47 bc 3e 92 f3 b1 be
       0.3275798 0.31512502 0.3677314 -0.34756142

model.linear_input.bias f4 [8]
000000 e1 be d2 3e 0e c2 1d 3f 67 6a c7 be 20 0f ce 3e
       0.41161254 0.6162423 -0.38948366 0.40245914
000010 78 86 d0 bc 88 b1 7f 3e 8a f0 8c 3e b4 2a e4 bc
       -0.025454745 0.24970067 0.27527267 -0.027852394

model.linear_1.weight f4 [8, 8]
000000 1b 0c d8 be 5a b2 ad 3d 1d 9d 66 be 8d e5 0f 3e
       -0.42196736 0.084812835 -0.22520871 0.1405241
000010 00 48 55 3d 9f 77 82 3e f4 40 64 be 9e 9b a7 bd
       0.052070618 0.2548189 -0.22290403 -0.081839785
000020 22 c1 fc bd e4 97 c8 3e 6a ee 0d bf ee ba ec bd
       -0.12341525 0.39178383 -0.55441916 -0.115590915
000030 23 2c 16 bd 5c 6b 80 3f 3c cf 04 3f 3f fb ed 3e
       -0.036663186 1.0032763 0.51878715 0.46480748
000040 aa c1 0f 3f eb ef 01 3f d6 aa 77 be 50 47 47 3f
       0.5615488 0.5075671 -0.24186262 0.7784319
000050 18 55 9a 3e d5 60 72 bf 94 77 37 bf f3 ce bc bd
       0.30143046 -0.94679004 -0.71666837 -0.0921916
000060 48 30 11 3d e8 05 43 bf b9 b5 2a bf 77 87 21 3e
       0.035446435 -0.7618089 -0.66683537 0.15774332
000070 50 5f fb bd c6 7e 97 be 95 f6 86 be c9 53 b1 3e
       -0.12274039 -0.29588908 -0.26360002 0.34634236
000080 61 12 3b bf 36 a4 8e bf a6 5d 44 3e 42 22 50 bf
       -0.7307492 -1.1143863 0.19176349 -0.81302273
000090 e9 3a 2e bf ee 67 89 bd 32 aa 33 3f 54 d2 00 be
       -0.6805864 -0.06709276 0.7018157 -0.12580234
0000a0 03 5f 33 3c bf 77 9a 3e 35 45 97 be 01 5b 26 be
       0.0109479455 0.30169484 -0.29544988 -0.16245653
0000b0 87 df 4b bd fb 8e 76 3f 70 18 8f 3e 5c b7 c0 3e
       -0.04977372 0.9631192 0.27948332 0.37639892
0000c0 63 ec 3d be ba 87 1e 3f 94 a9 7b 3e 50 fa c3 3e
       -0.18547206 0.6192585 0.24576408 0.3827691
0000d0 4e c2 74 3e 78 de 94 3e c0 1d bf bd d9 4e 88 bd
       0.23902246 0.2907598 -0.09331846 -0.06655664
0000e0 9e 5a da 3e 56 82 59 3d 8e 63 a7 be b5 23 44 3d
       0.4264726 0.053102814 -0.32693142 0.047885615
0000f0 3f e9 2d bf f4 a2 a2 bf 65 d2 08 be 67 a2 46 bf
       -0.6793403 -1.2705979 -0.13361509 -0.77591556

model.linear_1.bias f4 [8]
000000 1e 01 4d be 77 b9 b0 3e 7b 4e bc 3c c1 fc ef bd
       -0.20019957 0.34516498 0.022986641 -0.11718131
000010 2c 14 4c 3e 15 3a f6 3e 85 b0 da bd 04 9d e6 3e
       0.1992957 0.48091188 -0.106782 0.45041668

model.layer_output.weight f4 [1, 8]
000000 22 a1 03 be 60 52 a3 bf 28 48 b9 3f 72 08 57 3f
       -0.12854436 -1.2759514 1.4475145 0.8399726
000010 5a 64 d8 3f 92 54 96 bf 13 63 cb 3e 08 8e c8 3f
       1.6905625 -1.1744559 0.39724025 1.5668344

momentum_buffer f4 [8, 17]
000000 33 08 11 3a 56 f5 ab ba 47 d9 5c bb 3d f7 52 ba
       0.0005532533 -0.001311938 -0.0033698843 -0.00080477056
000010 f4 8f 62 bb ad bd 0b 39 d0 82 e5 ba 7d d0 1b bb
       -0.0034570666 0.00013326733 -0.0017510299 -0.0023775392
000020 56 4b 81 bb c8 03 62 ba e4 16 32 3a a3 3a ae ba
       -0.0039457483 -0.0008621779 0.0006793572 -0.0013292622
000030 3f 5f 95 b9 1f 23 a5 3a 3b 5a 77 bb b6 df b3 ba
       -0.00028490458 0.0012598968 -0.003774299 -0.0013723287
000040 0c a2 34 bb ca 48 39 b9 4c b7 bc bb 13 36 8f bb
       -0.0027562408 -0.00017670091 -0.0057591554 -0.00437046
000050 f0 a5 15 bb 3b c9 29 bc 8a 5b 19 3b e3 09 b8 bb
       -0.0022834502 -0.0103629185 0.0023400509 -0.005616413
000060 c2 ad 99 bb dc e5 8a bb 52 8f c7 bb 0e 88 bd 37
       -0.004689903 -0.004238827 -0.006090083 2.2593911e-05
000070 93 1b a9 39 56 76 a7 b9 ff 2c 45 bb 7c 3b ef bb
       0.00032254736 -0.0003194089 -0.0030086634 -0.0073007923
000080 16 c9 d4 ba af 42 0e bc 2c 80 76 3a d4 9d 7f bb
       -0.0016234245 -0.008682891 0.00094032544 -0.0039003985
000090 29 88 b6 3b 3e b2 a5 3a 6f 9f c4 ba 22 89 3a 3b
       0.005570431 0.0012641621 -0.0015001128 0.0028463085
0000a0 3d a3 51 3b c1 42 1a ba f5 69 e7 3a 65 19 9b 3a
       0.0031988167 -0.0005884581 0.0017655479 0.001183313
0000b0 0a 79 b1 b9 57 10 08 39 44 ef bd 3a ef 42 45 bb
       -0.00033850252 0.00012976058 0.0014490862 -0.003009971
0000c0 6a 6e 84 3b e1 5d 70 3a 26 f6 dd 3a d0 cd 6e 3a
       0.0040414827 0.00091692625 0.001693432 0.0009109648
0000d0 3a 04 cc ba d2 42 9d bb 9c b5 44 ba 96 2f b2 bb
       -0.0015565224 -0.0047992254 -0.00075038685 -0.0054378016
0000e0 0b e1 42 3a 0b 8e 3f bb 46 46 25 bb f6 a0 91 bb
       0.0007434047 -0.0029228951 -0.0025218888 -0.004444237
0000f0 8d 48 2f bb 55 6c db 3a ac 17 b3 ba cf a1 84 39
       -0.0026746124 0.001674066 -0.0013663671 0.0002529756
000100 d4 19 a6 3a d1 74 b7 bb 41 13 97 ba 59 a5 8c bb
       0.0012672492 -0.0055986424 -0.0011526124 -0.004292172
000110 8a bd 17 b9 65 b2 81 ba 5e eb 86 bb 87 96 49 ba
       -0.00014471091 -0.0009895085 -0.0041174134 -0.0007689972
000120 b4 74 93 bb d3 a1 91 37 71 84 4f bb 55 a7 08 bb
       -0.004499996 1.7360702e-05 -0.0031664635 -0.002085169
000130 16 82 14 bb ef 5a 8e bb 58 18 b2 3a 34 8f f3 39
       -0.0022660545 -0.004344336 0.0013587577 0.00046455266
000140 fa 67 13 3a 73 33 07 ba 6a d5 bc bb f5 33 57 ba
       0.00056230987 -0.0005157508 -0.0057627456 -0.00082093413
000150 64 2f 91 bb b9 01 74 bb 19 c7 db 3a a8 12 87 bb
       -0.004430698 -0.0037232472 0.001676771 -0.004122097
000160 0a 64 18 bb 04 39 e6 b9 48 18 5f bb 05 3a ca bb
       -0.0023252987 -0.00043911499 -0.0034041572 -0.0061714672
000170 00 54 42 36 ee a4 33 3b 54 69 00 bc 23 86 8c ba
       2.8957147e-06 0.0027411538 -0.007837612 -0.0010721128
000180 d2 40 9e 3b b0 58 97 ba e0 56 8b bb 84 35 b7 bb
       0.0048295045 -0.0011546817 -0.0042522997 -0.0055910964
000190 60 5c 9c b8 4f b0 c7 bb e7 2a b3 ba 54 8e 8c 3a
       -7.455866e-05 -0.0060940157 -0.0013669402 0.001072357
0001a0 f8 14 53 3b a7 37 22 38 72 b2 5c 3b 0e a5 fb b9
       0.0032208543 3.867564e-05 0.0033675698 -0.00047997426
0001b0 ec 25 57 3a 38 fd 09 3b fe b7 88 3b 47 66 17 3a
       0.000820725 0.002105547 0.004172324 0.00057754334
0001c0 be 05 ef ba 8b 37 00 3b 65 30 0b ba 16 c8 03 bb
       -0.0018235964 0.0019564356 -0.00053096405 -0.0020108274
0001d0 54 23 66 3b b4 0e 72 3a ff 42 03 3b 32 93 de ba
       0.0035116272 0.00092337583 0.0020028946 -0.0016981123
0001e0 a2 40 80 3b 3e 9e af bb 64 67 89 ba a0 9c 42 3a
       0.003913955 -0.00535944 -0.0010483083 0.00074238516
0001f0 46 f8 39 bb 9f 75 80 bb dc 99 4b 3a ea 16 91 39
       -0.0028376742 -0.0039202715 0.0007766762 0.00027673627
000200 4e 38 86 bb cb 23 31 3a eb 2b eb 3a b8 62 ff b9
       -0.0040960675 0.0006757348 0.0017942166 -0.0004871094
000210 1d 5f 64 3a 1a 63 ae bb 78 72 f2 b9 7e b6 2f bb
       0.0008711683 -0.0053218724 -0.00046243123 -0.0026811655

momentum_buffer f4 [8]
000000 f4 48 87 bb d3 db 28 bc 8d 12 2b 3b 2a 6a b2 bb
       -0.0041285697 -0.010306316 0.0026103586 -0.0054447846
000010 e3 15 ac bb c6 21 ca bb b4 c6 3f 3b ce 04 4e bb
       -0.0052516325 -0.006168577 0.0029262723 -0.003143597

momentum_buffer f4 [8, 8]
000000 f8 a1 8c 36 fc 86 97 38 00 24 69 39 86 8b 2a b9
       4.191181e-06 7.225384e-05 0.00022234023 -0.0001626444
000010 01 99 03 39 0f 60 8d b9 b1 78 e5 b8 5b 8d 05 b9
       0.00012550132 -0.00026965185 -0.000109420514 -0.00012736527
000020 0a 4f 40 39 84 bd 11 ba 08 77 98 3b 66 4e b1 b9
       0.00018339991 -0.0005559551 0.0046528615 -0.00033818482
000030 e1 d5 70 3b ff 03 d1 bb 57 38 5a bb 34 f0 bf ba
       0.0036748576 -0.00637865 -0.0033297741 -0.001464373
000040 a4 11 c3 bb c2 8c 6d bb ca 6e eb 39 b9 6d c0 bb
       -0.0059530307 -0.0036247228 0.00044905237 -0.005872455
000050 6a f0 d6 3a 02 89 3b 3b 24 4f 99 3b 52 8c 1d 3b
       0.0016398553 0.0028615599 0.0046786238 0.0024039936
000060 9d 5d 75 ba a7 0c b9 3b b5 1a a1 3b c4 68 c7 ba
       -0.0009359958 0.00564726 0.004916514 -0.0015213718
000070 b7 e6 d7 39 a9 3c 82 3a 6f ae 9e 3a 27 3c 74 bb
       0.00041179892 0.0009936291 0.0012106429 -0.00372673
000080 48 94 7d 3b 10 e1 12 3c d3 ad 1e bc e0 3e ca 3b
       0.003869312 0.008964792 -0.009684998 0.006172046
000090 57 2c be bb 04 b3 89 3b 11 ad c9 3a ed 40 ed ba
       -0.0058036256 0.0042022485 0.0015386661 -0.0018101014
0000a0 d4 15 31 39 9c 49 06 ba c1 67 8c 3b 43 4f a3 b9
       0.00016888167 -0.0005122663 0.0042848294 -0.00031148837
0000b0 a0 ca 5d 3b 8a 79 c0 bb b8 f5 48 bb a2 b8 b0 ba
       0.0033842698 -0.0058738636 -0.0030664038 -0.0013482759
0000c0 f8 47 7f 3a fd a2 6f bb aa b7 07 ba 9f 95 0a ba
       0.0009738202 -0.0036565654 -0.00051772094 -0.00052865775
0000d0 e8 52 de 3a 7e 45 01 3a 46 d8 ff ba 3f 4c 64 3b
       0.0016961964 0.00049313146 -0.001951941 0.0034835485
0000e0 27 3d c1 b9 8c f8 6e ba 2f 16 5d bb c6 00 2c 3a
       -0.0003685739 -0.0009116016 -0.0033735146 0.00065613945
0000f0 09 ba 01 bb 19 a3 96 3b df 82 77 3a 75 26 e4 3a
       -0.0019794723 0.0045970795 0.00094418036 0.0017406481

momentum_buffer f4 [8]
000000 0d d1 82 b8 d3 c3 26 bb 61 59 ed b9 c2 f4 b4 39
       -6.237822e-05 -0.002544631 -0.00045270755 0.00034514634
000010 1d 56 d5 3b 3f 95 19 bb 68 25 c2 ba 94 fe 2b 3a
       0.0065105096 -0.0023434905 -0.0014812173 0.00065610674

momentum_buffer f4 [1, 8]
000000 9e bb 29 3a 74 a2 21 3c 82 16 31 bc 74 81 41 bc
       0.00064747955 0.009865392 -0.010808589 -0.011810649
000010 04 fe 00 bc 96 d0 06 3c f1 3a ae bb a9 96 44 bb
       -0.007873062 0.008228442 -0.005317085 -0.0029997027
