src/logs/lightning_logs/version_7/checkpoints/epoch=82-step=332.ckpt (torch, 8699 bytes, 11 tensors)

model.linear_input.weight f4 [8, 17]
00000000: 4454 d4be 0a3d 1b3f fd57 333d ea42 823f
00000010: 94a0 17bf 09c2 bdbc 3646 07bd 9d98 8e3e
00000020: 9f80 543e b898 be3d ed20 4abe 3f0f d2be
00000030: 4b22 683e 7b7f a4be 392b 62bd 228d 04be
00000040: 2c25 463d 470e 84be 6434 4b3f 5c05 3f3f
00000050: 8684 fc3d 7caf 3abe 2aef 86bd 9aaf 153e
00000060: 463f 983e 96db 9c3e 7a3b 363e 58a1 093f
00000070: d57e b73d e382 06bf d372 fcbe 2a0a e1be
00000080: 9c40 2cbf e208 473f c9bf 8d3f 9a6e 8cbf
00000090: 29d2 32bd 5729 22bf 065b 9e3f a565 f2bc
000000a0: 81dd 2b3e 324e 433a 2758 f83d 2878 ac3e
000000b0: e5fc 1b3d 6767 933f 9354 84be e4fe 81be
000000c0: ea2e 9c3d 8ebc 023d 4e69 283e b404 34bf
000000d0: 7e0a 683f 0867 07bd f191 633f 7113 82bf
000000e0: 1373 99be 21cd f03e f845 3d3e 1615 96bd
000000f0: 8671 833e 41f9 813e 9aea 2e3d bf1b 05bf
00000100: 6b06 953c 9095 703e 624b 3cbe 5099 6dbe
00000110: 0186 88be 6597 703e 5ff3 e8be b8ab fd3e
00000120: 26ef 41bf fe3d fcbc 4d5c 96bd c111 1b3e
00000130: 20b5 f4bd fc5b 813e bc47 1ebe 3afc 123f
00000140: ffc9 b63e bf9e de3c cd07 e5be 14bb cc3e
00000150: c6b0 d3be 084a c83e 4933 d0bc b181 953e
00000160: 930e 923e f3d7 db3d 7692 41be 1473 90be
00000170: b29f eb3e 4bab 1a3f c5ad d5be 1d48 c63e
00000180: bf05 c2bd 0579 1ebe 3f78 f2be 677a 84be
00000190: 9383 0bbe b9aa 84be f701 5c3f 3bb7 66be
000001a0: b15c 303e de72 283e a222 d03d 4369 68be
000001b0: a460 fcbe 05a2 063d 886b 52be d09a 873e
000001c0: 17ec 3fbe 3053 9bbf af72 683e 769f f43d
000001d0: 4bfd b03e cf71 4abe 01cf 253d d07b ec3d
000001e0: ad69 38be 7b74 5d3e 45e5 0abe 2fe8 72be
000001f0: 900a c5bc 0580 b5be edd8 803e ae4d f53e
00000200: bc47 81bd 48d8 9d3d 513d 383f d0c4 eebe
00000210: e657 05bf e670 d8be 598c b43e e834 653e
-0.4147054 0.60640013 0.043785084 1.017667 -0.592294 -0.023163812 -0.033025943 0.2785081
0.2075219 0.093064725 -0.19739123 -0.41027257 0.22669332 -0.3212851 -0.055217 -0.12944463
0.048375294 -0.25792143 0.79376817 0.7461755 0.12329964 -0.18231004 -0.06588586 0.14617768
0.29735774 0.3063628 0.17796126 0.53761816 0.08959738 -0.5254347 -0.49306354 -0.43953067
-0.67286086 0.7774793 1.1074153 -1.0971253 -0.043657456 -0.6334433 1.2371528 -0.029589484
0.16783716 0.00074503117 0.12126189 0.33685422 0.038082976 1.1515931 -0.25845775 -0.2538978
0.07626136 0.0319181 0.1644642 -0.70319676 0.9064101 -0.033057243 0.88894564 -1.0162183
-0.29970607 0.470315 0.18483722 -0.073282406 0.2567255 0.25385478 0.042704202 -0.5199546
0.018191537 0.23494554 -0.18388131 -0.23203015 -0.26664737 0.23495252 -0.45498177 0.49545074
-0.75755537 -0.030791279 -0.07341824 0.15143491 -0.11948609 0.2526549 -0.15457052 0.5741612
0.35700986 0.027175305 -0.44732514 0.3998648 -0.41345805 0.3911898 -0.02541508 0.2920051
0.28526744 0.107345484 -0.18903527 -0.28212798 0.46020275 0.6041762 -0.41734138 0.38726893
-0.09473752 -0.15475853 -0.47357365 -0.25874636 -0.1362441 -0.259115 0.859405 -0.22530834
0.17222859 0.16450068 0.10162856 -0.22696404 -0.4929248 0.032869358 -0.20548832 0.264853
-0.18742405 -1.2134762 0.22699998 0.11944477 0.34568247 -0.19769977 0.040480617 0.11547053
-0.18009062 0.21626465 -0.13564022 -0.23721384 -0.024052888 -0.35449234 0.251655 0.47910827
-0.0631251 0.07707268 0.7196856 -0.4663453 -0.5208725 -0.42273635 0.35263327 0.22383463

model.linear_input.bias f4 [8]
00000000: ce41 3a3e 1cf8 563e 13d2 e13e 5b14 4e3e
00000010: d553 743e e3f8 fe3e 0595 f0bc cdc9 80bd
0.18189165 0.20993084 0.44105586 0.20124952 0.23860104 0.4979926 -0.029367933 -0.062884904

model.linear_1.weight f4 [8, 8]
00000000: 71d2 c03e 7ac9 1d3f 6a3d 23bf dcbd e63d
00000010: 8286 183d e390 7e3e a7d6 c93e 783b 00be
00000020: 9878 80bc c052 f83e b9b7 02bf c7ec 3abe
00000030: 74d4 573e abf4 f63d bffe 513e 76b6 d13e
00000040: b448 4d3f 26c3 0f3f 3485 b4bf 7760 0d3f
00000050: 91ef 3b3e 357f 27be bdf1 833e 1a58 07be
00000060: 18c1 c0be 84b1 0a3d 86eb 4cbf f309 e13e
00000070: 098d 66be 951f ba3e f286 7bbd 8db4 c6be
00000080: f435 593e 329a 8b3e 39e9 3c3f 73bc 933d
00000090: aecb 463f 8064 013f 084c cd3d 1e9e 2d3f
000000a0: c0b8 b1be a3d2 723f 74e0 103f c144 573d
000000b0: 614b 82be 2ab5 e7be 2222 52bf 3eea c23e
000000c0: edae 59bf 1b1c 85be 70f4 bb3e c781 4abf
000000d0: 3f55 83be a181 22bd 1871 f33e 3baf 433e
000000e0: 5669 19bf 0dd5 bbbe dab5 823f b9b7 a6bf
000000f0: d3bf 59bf d0e1 0dbd 4f9c 603f f9ad 25be
0.37660554 0.61635554 -0.63765585 0.112666816 0.03723765 0.24859957 0.3942158 -0.12522686
-0.015682504 0.48500633 -0.5106159 -0.18254386 0.21077138 0.120583855 0.20507334 0.4095952
0.8018906 0.5615715 -1.410315 0.5522532 0.18353106 -0.1635712 0.2577037 -0.13217202
-0.3764732 0.0338607 -0.8004688 0.43952903 -0.22514738 0.3635222 -0.06140799 -0.38809624
0.21211988 0.2726608 0.7379337 0.07213678 0.7765454 0.50543976 0.100242674 0.6781939
-0.34711266 0.94852656 0.5659249 0.052555803 -0.25448135 -0.45255405 -0.8208333 0.38069338
-0.8503254 -0.25998005 0.3670993 -0.79104275 -0.25650975 -0.039674405 0.4754722 0.19109814
-0.59926355 -0.36685982 1.0211747 -1.3024818 -0.85058326 -0.03463918 0.8773851 -0.16179647

model.linear_1.bias f4 [8]
00000000: 12cb bfbe 2ccb aa3e e261 043d 8f20 c33e
00000010: 1f9f 343f a7f8 453d 3188 db3e 398a 1bbe
-0.37459618 0.33358133 0.03231991 0.38110778 0.705553 0.048332836 0.42877343 -0.15189447

model.layer_output.weight f4 [1, 8]
00000000: f3a2 31bf d508 46be 0cc4 d3bf c72f 35bf
00000010: 738e a83f 0262 ac3f fd3a 8cbf 76da fbbf
-0.69389266 -0.19339307 -1.6544204 -0.7077603 1.3168472 1.346741 -1.0955502 -1.9676044

best_score f8 []
00000000: 5211 f226 d4b7 b33f
0.0770237536508536

momentum_buffer f4 [8, 17]
00000000: 2b07 ac3a e6ce acba dc9b 2eb9 6262 9fba
00000010: 2d9c b63a fd53 b7b9 74da 28b9 35f4 3fb7
00000020: 6e09 adb9 f2b5 3939 48e6 a3b7 353a ab3a
00000030: d713 15ba 6126 f1b9 9807 ecb9 14b4 10ba
00000040: 50fb c639 0927 573a f546 81ba ac60 e4b9
00000050: 38c6 4cba 09dd 423a 08ae 13ba cfbf 43ba
00000060: 56a2 1839 2c04 3939 7d76 b5b9 043a e2b9
00000070: 390e 0dba 0615 acb9 ffa5 d138 1c33 2d39
00000080: ca4d 5aba 54da 7239 3946 21bb ccf3 a53a
00000090: 6bbc 9dba 33ff ce3a c1c0 57bb 9aa5 33ba
000000a0: 48d5 a2ba cc7f 97ba bce0 3f3a d425 d9ba
000000b0: a01f c1ba c1bb aebb c3b1 543a 0a97 373a
000000c0: 8c75 ba3a dff0 22ba a2dc e8ba f6bd cd3a
000000d0: 4705 d8ba 28ca 263a ca80 f3ba 3650 133b
000000e0: 02f1 2f39 4de2 1d3a c86c 3ab8 4341 a0b9
000000f0: 389c c538 9ca8 493a cb4d 293a f0bd abb6
00000100: d770 5439 0aae 95b9 b3b3 4e39 241d bd39
00000110: 4dd2 7139 faab b4ba 020d e239 a55e c3ba
00000120: dc59 bd39 f466 d839 4548 76b9 9c95 fcb9
00000130: d199 b7b9 b929 17ba 0d67 5c39 22c2 61ba
00000140: 3e17 f6b7 cfa3 2a39 6042 3b37 c4d2 93b9
00000150: fce6 e3b9 9e5f ccb8 f9ea bab7 3a5f ff38
00000160: 4d7b dbb9 ea27 df38 86c2 a439 26c5 6e39
00000170: b7a2 6cb9 e7cc 89b9 4a1c 27b9 436c de39
00000180: 4be7 ed38 b953 86b9 245f 5c38 dc7c c138
00000190: 078a 19b9 74ac 1b39 d178 f1b9 783a 393a
000001a0: df48 41b9 ad42 2d3a e7a3 47ba 4634 2a39
000001b0: 7991 a0b9 27e9 c039 2239 c2b9 366f ff39
000001c0: fbf2 66b8 b070 103b 02ed 67ba 4c8e 52ba
000001d0: 3537 eeb9 bc61 07ba 918d 173a c5e6 2bba
000001e0: ee9e 16ba 8e9b b7b8 fc57 d6b9 91b2 76ba
000001f0: f856 0638 c692 5fba b8cc f3b9 4cce a238
00000200: dd45 62ba 128d 0bba a3bf 10bb 9141 3139
00000210: 8e5b 9539 7c0e e539 742b 0eba b14d 4bba
0.0013124695 -0.0013184219 -0.00016651995 -0.0012160058 0.0013932042 -0.00034967056 -0.00016103109 -1.1441346e-05
-0.00033004157 0.00017710755 -1.9538347e-05 0.0013063612 -0.00056868553 -0.00045995697 -0.00045019086 -0.0005519998
0.00037952745 0.0008207416 -0.0009863066 -0.00043559575 -0.00078115193 0.00074334495 -0.00056335377 -0.00074672414
0.00014556324 0.00017644529 -0.0003461129 -0.00043149304 -0.00053808425 -0.0003282206 9.996816e-05 0.00016517605
-0.00083276315 0.00023160252 -0.0024608506 0.0012661158 -0.0012034302 0.0015792608 -0.0032921287 -0.00068529847
-0.0012423182 -0.0011558472 0.000731956 -0.001656706 -0.0014734156 -0.0053324406 0.0008113647 0.00070034026
0.0014225706 -0.0006215702 -0.0017765949 0.0015696872 -0.0016481065 0.0006362521 -0.0018577811 0.002247823
0.00016779083 0.0006022796 -4.4447166e-05 -0.00030566202 9.42279e-05 0.0007692666 0.00064584304 -5.1183088e-06
0.00020259932 -0.00028549164 0.00019712634 0.000360706 0.00023061894 -0.0013784163 0.0004311577 -0.0014905526
0.0003611584 0.00041275437 -0.0002348731 -0.00048176653 -0.00035019082 -0.000576641 0.00021019224 -0.0008611997
-2.9336308e-05 0.00016273487 1.1161523e-05 -0.00028195058 -0.0004346891 -9.745288e-05 -2.2282346e-05 0.00012177085
-0.000418628 0.00010640903 0.0003142545 0.00022770892 -0.0002256733 -0.0002628334 -0.000159369 0.000424238
0.00011344122 -0.0002562085 5.2540694e-05 9.226214e-05 -0.00014642636 0.00014846196 -0.00046057117 0.00070659025
-0.00018433061 0.0006609362 -0.0007615671 0.00016231937 -0.00030625964 0.00036794806 -0.0003704513 0.0004872025
-5.5062566e-05 0.0022039823 -0.00088472676 -0.0008032068 -0.0004543603 -0.0005164405 0.0005781288 -0.00065575197
-0.0005745728 -8.755094e-05 -0.00040882814 -0.0009410764 3.2029086e-05 -0.0008528646 -0.000465011 7.763188e-05
-0.0008631626 -0.00053234503 -0.002208688 0.00016904461 0.00028487708 0.00043689075 -0.0005423345 -0.00077554124

momentum_buffer f4 [8]
00000000: b2d9 34b9 3897 1dba 8a2a 1dbb 803b 123a
00000010: e1dc 3bba 4c9b 0836 b55e 8138 91bc acba
-0.00017247236 -0.0006011608 -0.0023981654 0.0005578324 -0.00071663974 2.0355974e-06 6.16884e-05 -0.0013178756

momentum_buffer f4 [8, 8]
00000000: 0a18 feb9 51c0 2a3a c406 093b 61c1 05b9
00000010: 0ef8 9b38 322b f839 fe1a 2dba 2703 1f3a
00000020: 8ec4 88b7 3883 6239 a498 133a 30e2 b738
00000030: fb39 4239 0759 9937 0804 aeb9 be35 b138
00000040: 6b7f 06bb b0cc 793a 8b64 983b 3a43 08bb
00000050: 345b ecb9 71e8 a439 f605 91ba 8a0a 213b
00000060: 308a 89ba e11f 9e3a d2f3 263b bbc2 eeb9
00000070: c493 1eba 2287 1a39 28aa 84ba db82 de39
00000080: 08d2 99b9 9680 a9ba ebdf 55bb 7088 45ba
00000090: d73f dfba 6cf9 62ba 696e 003b 2428 94ba
000000a0: 58b5 4c3a 0da7 b7ba 6a57 2cbb 64e9 b0b9
000000b0: 5ea5 6dba 80ae 3fb7 86c6 253b 7e58 b5ba
000000c0: 829f 653a 31db 383a d113 04bb 8879 983a
000000d0: 86cb 823a a89e 32b7 9749 74ba afe8 143a
000000e0: 53b9 163b eb07 963a 3cf6 31bb 802f 3d3b
000000f0: a803 b23a 1481 49b9 7ccd ceb9 503e 9939
-0.00048464566 0.0006513643 0.0020908574 -0.00012755908 7.43718e-05 0.0004733443 -0.00066034484 0.00060658384
-1.6303991e-05 0.00021601922 0.000563035 8.768251e-05 0.00018522881 1.8280478e-05 -0.0003319087 8.450028e-05
-0.0020522724 0.0009529097 0.0046506575 -0.0020792023 -0.0004508138 0.000314537 -0.0011064399 0.0024572932
-0.0010493454 0.0012063944 0.0025474918 -0.00045539983 -0.00060492405 0.00014736925 -0.0010121511 0.00042440635
-0.0002933892 -0.0012931998 -0.0032634686 -0.00075352844 -0.0017032576 -0.00086583826 0.001959706 -0.0011303467
0.0007809005 -0.0014011577 -0.002629722 -0.00033743226 -0.0009065474 -1.1425116e-05 0.002529533 -0.0013835577
0.0008759425 0.0007051705 -0.0020153413 0.0011632899 0.0009978868 -1.0646567e-05 -0.0009318827 0.00056804245
0.0022998645 0.0011446452 -0.0027154824 0.0028867424 0.0013581412 -0.00019216939 -0.0003944448 0.0002922886

momentum_buffer f4 [8]
00000000: 1b2c f639 5558 a739 c56c ccb9 5e7e 263a
00000010: 1ca2 c5ba b84f 2bba 60b0 3cb7 1c6c feb9
0.00046953638 0.00031918535 -0.00038990952 0.00063512276 -0.001507822 -0.00065350113 -1.1246739e-05 -0.00048527203

momentum_buffer f4 [1, 8]
00000000: 6089 0f3b 0cbf e339 e58f bd3b dace 073b
00000010: 6900 9cbb 2ccd 85bb 6661 3e3b 1330 a33b
0.002190195 0.00043439155 0.005784976 0.0020722658 -0.004760791 -0.0040832963 0.0029049753 0.004980096
