src/logs/lightning_logs/version_28/checkpoints/epoch=33-step=136.ckpt (torch, 8699 bytes, 11 tensors)

model.linear_input.weight f4 [8, 17]
00000000: d886 d53e ada6 50be 37da 1ebf 1990 99bb
00000010: 25df ddbe 3259 253f adf4 8f3d 31ce 67ba
00000020: 1820 823e f3fe 7dbe 1df0 69bd d110 55bf
00000030: 385f 72be 5bc8 ff3e 8965 7a3e 0eda 0a3f
00000040: b3e6 8fbe 7ab2 c6be 3229 dfbe 6d72 fa3e
00000050: f358 fa3e bc8a 923e 90d6 86ba e766 9ebe
00000060: 83f2 063e 65cb a9bd 1a19 e5bd 924d bf3e
00000070: c8b7 b53e 5f89 d6be fb74 0d3e 4de7 81be
00000080: 0e8e ee3e a843 df3e a54d 2a3d f517 d63c
00000090: a5f6 6dbe 64cf e5be 54b6 9bbe ddd2 eb3d
000000a0: be21 5b3e 6c6b c3be 62ac 463e 496e ea3c
000000b0: 032d 2dbe 333c 163f 41c0 0abf 1d02 57bf
000000c0: 3ea6 02bf 4659 a13e 3fbf 9cbe 434a d5bc
000000d0: e8e1 12bf 82d3 d7bd 7b19 e73e 498c 063e
000000e0: 000b a9be 6fa8 93bd 6ab9 80bd f9ee 5ebe
000000f0: 0448 783c 5f90 b4be 0e71 21bf 3cf8 a7be
00000100: 23c2 183f d13c 663e b3f3 8cba 383d 4bbe
00000110: 41cc f23e 7df8 f5be 41df ccbe b415 243f
00000120: 38b8 a5be 41d6 a0be 648f f9be e40c 323d
00000130: 778b 3bbe d1e5 fb3d 9ef8 83be eab6 96bf
00000140: 417f 083f afa3 6d3c 0b65 f33e 6457 833e
00000150: bdad 36be 8cba d4be a64d 713e c0ba 303f
00000160: 9563 01bf b3b7 edbd 45be 513e 2f02 f03c
00000170: 2b03 9fbe 741f c83e fe12 a13e 90c8 de3d
00000180: 2cfd 263c 3958 bfbe c406 30bf 9f38 a83e
00000190: e503 e43e 680d 60be 7a03 78be 680c a43e
000001a0: 13a9 19be f819 9fbd fdc5 923e b13a 79be
000001b0: c5f7 4fbe 8d9d 37be 74cb e03e ab46 68be
000001c0: 9872 cd3e 233b 9dbe ef10 01bf a527 58be
000001d0: 3ab1 6bbe a8d3 d9be fdee 9dbd 26f8 cd3d
000001e0: 04f8 afbd 63f9 96be 67b4 153f 2aa5 243e
000001f0: 0bbb 813e 8ac5 cf3e f0b0 dcbe 614b 41bd
00000200: bfc4 02be 6451 043f 0b5b 0cbf 147a b83e
00000210: 6e1c fb3e 11cf 74be 2ca2 233f 7f65 913e
0.4170444 -0.20376082 -0.6205172 -0.004686367 -0.43334308 0.64589226 0.0702909 -0.00088426756
0.2541511 -0.24804287 -0.057113755 -0.83228785 -0.23669136 0.49957547 0.24452795 0.54238975
-0.28105697 -0.38808042 -0.43586117 0.48915425 0.48895988 0.2862147 -0.0010287333 -0.30937883
0.13178448 -0.082907476 -0.11186428 0.3736387 0.35491776 -0.4190168 0.13814156 -0.2537178
0.46592754 0.43606305 0.041577954 0.02613447 -0.23238619 -0.4488479 -0.30412543 0.11514828
0.2139959 -0.38167894 0.19401696 0.028617041 -0.16911702 0.58685607 -0.54199606 -0.839876
-0.51034915 0.31513423 -0.3061466 -0.026036387 -0.57375956 -0.10538389 0.45136628 0.13139452
-0.33016205 -0.072098605 -0.06285365 -0.21770848 0.015153889 -0.35266396 -0.6306313 -0.32806575
0.5967123 0.22484137 -0.001075378 -0.19847572 0.47421458 -0.48041144 -0.4001408 0.64095616
-0.3236711 -0.31413463 -0.4874221 0.043469325 -0.1831492 0.122996934 -0.25775617 -1.1774571
0.53319174 0.014504357 0.47538027 0.2565261 -0.17839713 -0.41548574 0.23564777 0.6903496
-0.50542575 -0.116073035 0.20482738 0.029297916 -0.31057104 0.39086497 0.31459802 0.10878098
0.010192197 -0.37371996 -0.68760324 0.32855698 0.4453422 -0.21880114 -0.24220076 0.32040715
-0.15005903 -0.07768625 0.28666678 -0.24338795 -0.2030936 -0.17931195 0.43905222 -0.22683208
0.4012649 -0.3070918 -0.50416464 -0.21108873 -0.23016825 -0.42544293 -0.07711599 0.10057096
-0.08592227 -0.29487142 0.584784 0.1607863 0.25338015 0.40580398 -0.43103743 -0.047191028
-0.12770365 0.5168669 -0.5482642 0.36030638 0.49045128 -0.23907115 0.6391933 0.28397748

model.linear_input.bias f4 [8]
00000000: e1b9 9abd 04b8 083f 1e5f d7bd c15e d0be
00000010: a9b9 86bb 1f90 97bd c5a6 38bd 4792 15be
-0.07554985 0.53405786 -0.10516189 -0.40697291 -0.004111488 -0.07400536 -0.04508092 -0.14606582

model.linear_1.weight f4 [8, 8]
00000000: f986 953e 9119 dfbe 0897 eebd a9d5 9dbe
00000010: bb53 923e 5b04 f0bd 3da8 823e c39b 01bf
00000020: 90cf 943d 84e0 e73d 8243 b83e 17e7 803e
00000030: d09c 9cbe b563 703e cd08 14bf 1a62 aabe
00000040: e3ed 08bf f08a 213f 89c7 b9be d44d e83e
00000050: aba7 ea3e 33b5 de3e d4b0 8b3e f124 b03e
00000060: a518 203f 184f c93e 9536 37bf 3726 973e
00000070: 7b69 003f 6741 a3be f533 88be f17d 3f3f
00000080: cec4 663f 524e b9be 77a0 d7be 433a 973d
00000090: 53a4 4e3f 188a 1bbf 8603 37be 35a7 483f
000000a0: 825c f43d 14b5 5dbb f5b8 433e 0ce0 b53e
000000b0: e0b7 883e 51af 29be 0caf a5be b8fa 93be
000000c0: 4773 1ebe 9752 773d 5109 e13e efc1 44be
000000d0: a3b1 3c3e 0f8c 6d3e 0370 823e 3c37 b3be
000000e0: 18fc c2be f983 c03e d14f 003f 9b67 55bf
000000f0: f540 75bf 03a9 8b3e 8849 40bd 70ce d83c
0.29204538 -0.43574193 -0.11649901 -0.30827072 0.28579506 -0.11719581 0.2551898 -0.506283
0.07266152 0.1132212 0.35989004 0.25176308 -0.30588388 0.23475535 -0.5782593 -0.3327797
-0.53487986 0.63102627 -0.36285046 0.45371878 0.45831046 0.4349762 0.27283347 0.34403184
0.62537605 0.39318156 -0.7156766 0.29521343 0.5016095 -0.31885836 -0.2660214 0.74801546
0.9014405 -0.36192566 -0.42114612 0.073841594 0.8071949 -0.6075759 -0.17872438 0.7838014
0.11931707 -0.0033829855 0.19113524 0.35522497 0.26702785 -0.16570784 -0.32360113 -0.2890222
-0.15473662 0.0603815 0.4395242 -0.19214605 0.18427138 0.2319796 0.25476083 -0.35003078
-0.38082957 0.37600687 0.5012179 -0.83361214 -0.9580224 0.27277383 -0.046945125 0.026465625

model.linear_1.bias f4 [8]
00000000: 0a32 2cbd d64c d33e 6f80 eabe 8ade d4bd
00000010: d8be 8d3e 60b1 9ebe f94e ffbd 9afa 743d
-0.04203991 0.4126956 -0.45801112 -0.103940085 0.27684665 -0.309947 -0.12466235 0.059809305

model.layer_output.weight f4 [1, 8]
00000000: 3cf0 cf3d 01d4 d13e 2270 55bf 97db a1bf
00000010: 214f b9bf ee5d d33e b83d 7fbe 1dc3 9e3f
0.10153243 0.4098206 -0.83374226 -1.2645139 -1.4477273 0.412826 -0.24925888 1.2403294

best_score f8 []
00000000: ad7d e533 42b5 c53f
0.16959407361990256

momentum_buffer f4 [8, 17]
00000000: a0bd 28bc b0eb b7bc 7038 b63c 6066 bebb
00000010: 5614 cf3c cb8c f5bc 784a dfba ce3a 10bc
00000020: fe4e 98ba 747c 27bc 7323 663a 4bcb c93b
00000030: f0f7 79ba 165c 2ebc 5e1c a6bb ee63 863a
00000040: 9af0 3cbc 2e75 a33b e296 8a3c 1584 7dbc
00000050: b2d1 0b3b a5dd 75bc c126 9e3c 08de fe37
00000060: b3c9 d13b e549 1c3b 0796 863b fe34 79b8
00000070: 2550 363b b044 96bb 353b 993b f253 693b
00000080: 204f 23bb 0e38 123c 68ff 583b f0bf 8bbb
00000090: 6cac a93b 2798 193b 8e00 833b dac0 0abb
000000a0: d0ff e13b 2927 2fbb aa1e 3dba 08e9 873b
000000b0: 1e38 513a 4898 3dbc 3776 003c e25b 733b
000000c0: 6902 8b3b 05f1 9a3b 5c26 04ba 06c3 103a
000000d0: ce97 7e3c d555 85bc 23d3 4d3a 8f47 f2bb
000000e0: da7d d23b 987f 0ebc f077 0b3c c4a2 2d38
000000f0: 804f c4ba 18a5 a63a a514 303c fcb7 12bc
00000100: 6720 c8ba ad08 ecb9 0227 67bb 6508 5b3b
00000110: 4d54 c6bb d90b cfba 6187 69bb b763 91bb
00000120: b30b c4ba 5774 acbb c36c 56bc 42fa f73a
00000130: 22d5 83bb 435d cbbb 4844 7dba d119 6a3c
00000140: 9988 09bc f7cf e6bb b796 24bc d994 90bb
00000150: 2246 debb 75c3 ed3b 5fa9 8a3c bdac 86bc
00000160: 2b27 853b 1162 82bc c685 a03c 66f5 6c3a
00000170: 5317 e03b 7031 193a 13c2 e23b 10b7 7939
00000180: 619d 55bb 0954 a6b9 b840 e23b 33a9 903b
00000190: b397 7ab9 5dc5 023c 2334 2d3b f83a e33b
000001a0: 9137 11bc e921 963a 4f33 6dbc 0522 663c
000001b0: c423 10bb 95ef 3e3b 8a6a 9ab9 fae9 4d3b
000001c0: dad0 0bbb 0be5 07ba fda6 8eb9 0e0d 6a3b
000001d0: 1a73 07bb 0c62 23bb db2d 523b 20df d6bb
000001e0: 5cdb 46bc 886d 0e3c b85a c0bb ac4f 973b
000001f0: e057 0fbc 6ba3 aabb 5e17 9dbb cb73 27bb
00000200: 6f74 bcbb da31 deba fa96 033c 71f1 82bb
00000210: f462 c0bb 2eca 05bc 4c6b 10bb 2885 ffbb
-0.010299116 -0.022451252 0.022243708 -0.005810544 0.025278252 -0.029974362 -0.0017035743 -0.008803083
-0.0011620221 -0.010222543 0.0008779086 0.0061582676 -0.0009535542 -0.010642072 -0.0050692996 0.001025317
-0.011531973 0.004988334 0.01691765 -0.015473385 0.0021334705 -0.015006457 0.019305589 3.038255e-05
0.0064022182 0.0023847756 0.00410724 -5.941558e-05 0.0027818766 -0.004585825 0.0046762475 0.0035603014
-0.0024918988 0.008924497 0.0033111218 -0.004264824 0.005178025 0.0023436637 0.003997869 -0.0021172077
0.0068969503 -0.0026726222 -0.0007214347 0.0041476525 0.00079810794 -0.011571951 0.007840685 0.0037133624
0.0042422307 0.004728439 -0.00050411164 0.0005522225 0.015539123 -0.01627628 0.0007851591 -0.0073937844
0.006423694 -0.008697413 0.008512482 4.1398e-05 -0.0014977306 0.0012713997 0.01074711 -0.008954998
-0.0015268446 -0.00045019892 -0.0035271053 0.0033421752 -0.00605253 -0.0015796378 -0.003563367 -0.0044369358
-0.00149571 -0.005262892 -0.013087454 0.0018919187 -0.00402321 -0.006206186 -0.0009661359 0.014288382
-0.008394384 -0.0070438343 -0.010045699 -0.0044122753 -0.006783263 0.0072559663 0.016926466 -0.01643979
0.004063507 -0.015915902 0.019595038 0.0009039253 0.006838718 0.00058438536 0.006920108 0.00023814687
-0.0032595026 -0.00031724598 0.0069046877 0.0044147014 -0.0002389837 0.007981625 0.002642878 0.00693452
-0.008863346 0.0011454198 -0.014477565 0.014046197 -0.0021993974 0.0029134501 -0.00029452547 0.0031419978
-0.0021334202 -0.00051839714 -0.00027208767 0.0035713348 -0.002066797 -0.0024930267 0.003207079 -0.0065573603
-0.01213726 0.0086931065 -0.0058701895 0.004617652 -0.008748978 -0.005207469 -0.0047940454 -0.0025551196
-0.0057511847 -0.0016952113 0.008031601 -0.003996067 -0.005871171 -0.008165879 -0.002203661 -0.007797856

momentum_buffer f4 [8]
00000000: 1d24 2cbc 91c8 d23b 346c 8a3b dce9 41b9
00000010: 776d 37bc fab5 fd3b 4a2f 3b3a 65dd 23bc
-0.010506657 0.006432601 0.0042243246 -0.00018493034 -0.011195532 0.0077426406 0.00071405305 -0.010001515

momentum_buffer f4 [8, 8]
00000000: 1fbe e838 fe7d 34b9 7280 5838 346b b9b9
00000010: 26c1 be39 263f 87b9 8976 58ba 4871 ba39
00000020: a7ba ecbb 447c 813b 408e 65bb 2212 323b
00000030: be83 e93a 61e1 0e39 2b95 4a3b eef4 353a
00000040: c093 b93c 9fd2 64bc 941a 3b3c 6180 49bc
00000050: e0cd c1ba a096 20bc 1786 7dbb bac5 8abb
00000060: a004 c7bb 159a 8e3b 1a3b 7f3b 88b1 45bc
00000070: dff4 9abc 23b6 543b 4606 ea3b f258 f5bb
00000080: 8056 08bd 90bc 513c ad53 303c 9dbb c63c
00000090: e2c7 283a 18d0 3c3c a3f9 713b 377c 28bc
000000a0: 366a b9b6 8cf3 fab5 82c8 06b5 a143 2eb6
000000b0: eaee 4bb7 535c 2e37 f883 5735 8707 37b7
000000c0: bd16 47b7 963c 2538 1703 93b5 47cf 9cb7
000000d0: f762 89b7 0254 4a37 200c 54b7 8d22 6ab6
000000e0: 683e 933a d893 d03a 5862 c7bb 4c98 2e3c
000000f0: 28bc 243c a8ff aa3b 9887 fabb c54f 203c
0.00011098035 -0.00017213073 5.1618037e-05 -0.00035365822 0.0003638353 -0.00025796256 -0.0008257409 0.00035561086
-0.007224399 0.003951581 -0.0035027415 0.0027171453 0.0017815751 0.00013626135 0.0030911665 0.00069410994
0.02265346 -0.013966232 0.011419911 -0.012298674 -0.0014786087 -0.009801537 -0.003868466 -0.0042349966
-0.0060735494 0.004351864 0.003894514 -0.0120662525 -0.018915592 0.0032457195 0.007141861 -0.0074874097
-0.033285618 0.012801304 0.010762137 0.024259383 0.0006438476 0.011524223 0.0036922477 -0.010283521
-5.525794e-06 -1.8697333e-06 -5.021067e-07 -2.5967386e-06 -1.2155369e-05 1.0392704e-05 8.028578e-07 -1.0909403e-05
-1.18666185e-05 3.939549e-05 -1.0953253e-06 -1.869317e-05 -1.6377757e-05 1.2059698e-05 -1.2639008e-05 -3.4888828e-06
0.0011233808 0.0015913201 -0.0060847215 0.010656428 0.010054626 0.005218465 -0.0076455586 0.009784644

momentum_buffer f4 [8]
00000000: 43b2 6938 0fad 953a 0215 9fba 9acf 863b
00000010: 845d 80bc b990 4136 1161 9637 f215 eab9
5.5717548e-05 0.0011419373 -0.0012136998 0.0041141035 -0.015669592 2.884348e-06 1.7926594e-05 -0.00044648309

momentum_buffer f4 [1, 8]
00000000: 26c1 f5b9 87d1 d2bb bfc2 3e3d e4dc aa3c
00000010: a056 1e3d 7dbf 39b7 3e00 43b7 6e7d 7cbc
-0.00046873948 -0.006433669 0.046572443 0.020857282 0.03865683 -1.1071444e-05 -1.1622962e-05 -0.015410764
