src/logs/lightning_logs/version_72/checkpoints/epoch=73-step=296.ckpt (torch, 8699 bytes, 10 tensors)

model.linear_input.weight f4 [8, 17]
00000000: 18bb 843e b650 13be 94e6 0ebf 4c2f c3be
00000010: c6c4 60bd 0c6b 52be c60b 72bd 2f56 7f3e
00000020: 1260 f03d 6cec 26be 1bbd a23e cc76 75bf
00000030: afba 2c3f eac5 213f 7671 6a3f d7ab 5c3d
00000040: f9dc b03e d511 a83e 3b9a 723e f9ef 843e
00000050: b770 623e 982c 43be ecec 8cbc 1f9f cf3d
00000060: f2f9 ac3e 3679 6e3d 8c2d db3e 1b03 0bbe
00000070: fb58 b23e 028b c43e 5f84 a13e 0847 103e
00000080: a525 45bc 67d7 2c3e e08b 39bf 908f 773f
00000090: 02ad 0cbe f97e c5bf de3e 79bc 1b52 6c3f
000000a0: 1dbf 1ebe 9abe 09bd 62fb 11ba a17d ac3c
000000b0: 4280 8cbe 9911 123c 6617 3fba 43d5 883e
000000c0: d1d3 363e 216b c03e e309 ea3e 75e3 583f
000000d0: 44bc ebbe 7773 21bf 4a63 043f b888 54bf
000000e0: e9ae e93d c5d8 84be 92ca c7be 1628 c43c
000000f0: 0747 83bd 7477 66be fc13 1dbf 243d 05be
00000100: 34df e0bd 4577 0e3d 7352 f63e 3ea3 a2be
00000110: 64eb e83d 7c03 2cbf d0a2 4e3f 2e63 9a3f
00000120: 1655 9b3e 1bf8 7cbf 41cb 83be 33ed 493e
00000130: d749 8ebd 576a 463e a629 a0be a311 03bf
00000140: b27b 623e 8e8a ee3e 3e4b 8a3c 6e70 c3be
00000150: b8a4 c03d 8f29 48be a27c 993e 4b7e e43e
00000160: 6c05 adbe 243d d43e 64c9 a1be 54d0 9f3e
00000170: 52d0 19bc 958c 9dbe 6fdc 2d3e ed1f 393e
00000180: 43fa 64bf bf96 253f 557f 423e b2ff ff3e
00000190: 3a69 cebe 2e95 393e ba3c 10bf 8933 babe
000001a0: 999e 803f 5803 79bd 4a4b 1f3f 642f 43bf
000001b0: f660 f6be bf2f bdbe 1a84 4a3d 9ab3 aebe
000001c0: 6691 8e3e ff09 203f 2725 eebe e94b 13bf
000001d0: 2516 11be 18e4 c23e 4e18 9e3e ab6b a8be
000001e0: 65d3 46bf 8a2c 1e3f 74ca e9bd dbda 473f
000001f0: e092 c1be bebb 67be b8bb 0b3e 18df d33e
00000200: f2bb d53d 2229 4ebd cc3c 12be 4855 d73e
00000210: 9e40 0abf 6d28 87be a7b6 bb3d de5e 0a3f
0.2592399 -0.14386258 -0.55820584 -0.38122022 -0.054875158 -0.20548648 -0.05909326 0.2493522
0.11737074 -0.16301125 0.317849 -0.95884395 0.67472357 0.6319262 0.9157938 0.053874817
0.3454359 0.32826105 0.23691647 0.25964335 0.2211331 -0.1905998 -0.017202817 0.10137772
0.33784443 0.058221065 0.42808187 -0.13575403 0.34833512 0.38387305 0.31546304 0.14089596
-0.012032901 0.16879044 -0.7247906 0.96703434 -0.13737872 -1.5429374 -0.015212743 0.92312783
-0.15502591 -0.033629037 -0.000556877 0.021055998 -0.27441603 0.008915328 -0.00072895584 0.26725206
0.17854239 0.37581733 0.45710668 0.8472207 -0.46042073 -0.6306681 0.51714003 -0.83021116
0.114103146 -0.25946632 -0.39021736 0.023944896 -0.06410032 -0.22506505 -0.6135862 -0.13011605
-0.109800726 0.034781713 0.4810978 -0.3176517 0.11373022 -0.67192817 0.8071718 1.2061517
0.30338353 -0.9881608 -0.25741008 0.1971939 -0.069476776 0.19376503 -0.31281775 -0.51198786
0.22117499 0.46590084 0.016881581 -0.38171715 0.094064176 -0.19547103 0.299779 0.44627604
-0.337932 0.41452897 -0.3159896 0.3121363 -0.009388046 -0.30771318 0.1697862 0.18078585
-0.8944437 0.64683145 0.18993886 0.49999768 -0.40314656 0.18123314 -0.5634266 -0.36367443
1.00484 -0.060794204 0.62224257 -0.7624419 -0.4812085 -0.3695049 0.049442388 -0.341214
0.27845305 0.6251525 -0.4651272 -0.57537705 -0.14168604 0.38064647 0.30877918 -0.32894644
-0.7766631 0.6178671 -0.11415568 0.7806832 -0.3780737 -0.22630212 0.13645828 0.41381145
0.10436238 -0.050332196 -0.14281005 0.42057252 -0.5400485 -0.2639803 0.091656975 0.54051006

model.linear_input.bias f4 [8]
00000000: a730 8dbe 1f0d f53e 91e4 9abb 438e 97be
00000010: ef57 23be 6c23 c23e 75bc bfbe 9908 7ebd
-0.2757618 0.47861573 -0.0047269543 -0.29600725 -0.15951513 0.3791765 -0.3744847 -0.062019918

model.linear_1.weight f4 [8, 8]
00000000: 9e42 07bf 5733 153f 9613 2ebf 2747 5e3f
00000010: f78f 343e 5fa5 35bf 6c8b 89be 118f 683e
00000020: a88b ba3e e495 e1be 0659 a13e e3a4 2a3e
00000030: 25dc 1bbe 1138 afbe a329 083f 1496 98bd
00000040: ebea 523f 3539 723d 2860 45be 72cc 12be
00000050: 47fc 2c3f 60b2 643f 4779 d73e cd9e 9d3f
00000060: d8d2 85bc 440d b6be 639d 203f 21da d8be
00000070: 0d4f c3be 6edf da3e 671b 243e 7769 543e
00000080: 1673 80be 0b76 0f3f 88d4 35bf 50ca dc3d
00000090: fbdd e53d b3d3 fbbe 7f24 863d d8bb b3bd
000000a0: f4fb fe3e cb75 02be a833 433f 76a5 113f
000000b0: 2643 3bbf 8777 dfbb f697 9fbf 78d3 f4be
000000c0: e709 583f 4cfb c43d 6c10 423f c6e6 173f
000000d0: f4f5 3cbf 3ef0 493d 7057 71bf c9a8 3dbf
000000e0: e773 31bf 3c1d 8a3e 0969 9d3f a857 56bf
000000f0: 927c a5bf 622e 89be 8a1e 533e 96ec 563e
-0.52836025 0.58281463 -0.67998636 0.8682732 0.17633043 -0.7095546 -0.26864183 0.22710826
0.36434674 -0.4405967 0.31513232 0.16664462 -0.15220697 -0.34222463 0.5318853 -0.074505
0.82389706 0.059136588 -0.19274962 -0.14335802 0.67572445 0.8933468 0.42084715 1.2314087
-0.01633589 -0.35556996 0.62740153 -0.4235392 -0.38146248 0.42748588 0.16026078 0.20743357
-0.25087804 0.56039494 -0.7102742 0.107807755 0.1122398 -0.4918495 0.0654993 -0.08776063
0.498016 -0.12740247 0.76250696 0.568931 -0.73149335 -0.0068196687 -1.246825 -0.47817588
0.8439011 0.096182436 0.7580631 0.5933651 -0.73812795 0.04930138 -0.94274044 -0.7408567
-0.6931748 0.2697543 1.2297679 -0.837275 -1.2928641 -0.267932 0.20617118 0.20988688

model.linear_1.bias f4 [8]
00000000: 6e12 083e 944b 973e 8fae 193e a410 923e
00000010: e649 b5be bb57 8ebe 3fc3 eebe 6c53 113f
0.1328828 0.2954985 0.15007995 0.2852832 -0.35407943 -0.27801308 -0.46633336 0.56767917

model.layer_output.weight f4 [1, 8]
00000000: 17f9 a13f 309d 823e 2a28 cfbf c321 1c3f
00000010: 58ec 323f 42a0 dabf 36a6 e3bf 4ac8 0240
1.2654141 0.2551055 -1.6184132 0.60989016 0.6989188 -1.7080157 -1.7785099 2.0434747

momentum_buffer f4 [8, 17]
00000000: bf20 3639 515c cfb9 9a76 283a bf6e 0239
00000010: 74cb 03b8 56e3 ab39 7d7c bc39 2093 8038
00000020: 6871 ed39 cfec c238 a716 03b9 5a8f 6a3a
00000030: ca45 20ba e91f 67b9 1a9e bb39 4387 79b9
00000040: 73b2 2c3a 01af ecb9 2f39 cc39 40f4 43b9
00000050: 01cd d2b9 33ef 8039 8248 c2b8 dfec 8fb9
00000060: f6ce d737 2a2b 1fb9 a9ca e338 0b9a 57b9
00000070: 0049 bdb9 e330 3739 da75 80b8 90eb a1b5
00000080: 278a 75b7 3b87 75b9 f226 633a 6607 99ba
00000090: 3ea5 6239 1eb4 893a 7eeb 1aba 49bb 0eba
000000a0: 4b96 ef39 af09 0eba 1071 3b38 ab0b b5b9
000000b0: e740 6239 e8c8 f1b8 4fc5 16b6 4f3e 10b9
000000c0: b283 3239 02f3 20b9 bcf1 8f38 ce64 b5b9
000000d0: f827 5f39 2815 b539 cd12 5eba 0b01 b03a
000000e0: 3e9a 94b9 eccc c5b7 4842 7739 d6ab 3839
000000f0: 8203 cd39 1915 bab9 0e1f 8639 980b 2339
00000100: 81df 89b9 f5fb 8538 11bb 2939 7436 5338
00000110: 34a1 07ba eb44 533a c062 11b8 0398 2cba
00000120: 8f09 b937 465d 693a 91e2 5ab9 628c f239
00000130: 8c66 5539 f0b1 3b39 4ee2 06b9 b54a 033a
00000140: b00d d6b9 1e81 6439 9069 6db8 64e5 7337
00000150: d4f7 7a39 4802 9d39 dc2b a8b9 fa5c 9639
00000160: 485e e339 47a2 4dba d68c 213a 1837 9139
00000170: 4076 40b7 54f5 b339 ec7f 3bb9 26f8 d338
00000180: 146b 213a fd28 29ba 578b 9e38 d018 6639
00000190: a2e8 76b9 dd53 033a 3e4f d2b8 9d67 d939
000001a0: fc37 0aba 82a1 3839 cbfa 8cba 21ff 333a
000001b0: a79d 4cb9 bad5 94b7 0b8a 0cb9 e5a4 82b9
000001c0: 759b 3239 5473 70b9 c4b5 1eb9 9940 d639
000001d0: 7890 7cb9 1917 9bb8 cdac 11b9 47ba c5b9
000001e0: abcb b439 4bc7 76b9 a3ab f1b8 e53e 8bba
000001f0: 1e8a 6e3a 9a3f 82b9 602a a1b7 b0ef dd38
00000200: 33b1 60b9 24eb 26b9 0de2 c4b7 aa4b 15ba
00000210: 60f8 9339 bed6 3438 843a bcb9 0ea1 bf38
0.00017369071 -0.00039550898 0.00064263644 0.00012439022 -3.1422314e-05 0.0003278504 0.00035950905 6.13092e-05
0.00045288657 9.29475e-05 -0.00012501572 0.00089477526 -0.0006113915 -0.00022041764 0.00035785214 -0.0002379688
0.00065878703 -0.00045143816 0.00038952517 -0.0001868764 -0.0004020706 0.0002459228 -9.2641465e-05 -0.00027451568
2.5726371e-05 -0.00015179501 0.00010861952 -0.00020561383 -0.00036103278 0.00017470452 -6.125467e-05 -1.2063992e-06
-1.4635304e-05 -0.00023415398 0.0008665166 -0.0011675179 0.00021614597 0.001050595 -0.0005909725 -0.0005444778
0.0004569761 -0.0005418313 4.4689572e-05 -0.00034531704 0.00021577218 -0.00011529197 -2.246659e-06 -0.00013756122
0.00017024463 -0.00015349317 6.863798e-05 -0.00034598116 0.00021281827 0.00034538773 -0.00084714295 0.0013428045
-0.0002834368 -2.3579654e-05 0.00023580447 0.00017611621 0.0003910326 -0.00035492404 0.0002558161 0.0001554921
-0.000262972 6.388865e-05 0.00016186784 5.0357034e-05 -0.00051738624 0.0008059281 -3.4662662e-05 -0.0006583931
2.205817e-05 0.00089021435 -0.00020874503 0.0004626243 0.00020351465 0.00017899997 -0.00012863541 0.00050083856
-0.0004082746 0.00021791874 -5.6603516e-05 1.4537338e-05 0.00023934181 0.00029947073 -0.00032076135 0.00028679502
0.0004336706 -0.00078443106 0.0006162649 0.00027697603 -1.1471624e-05 0.00034324324 -0.00017881364 0.00010107485
0.00061576185 -0.0006452946 7.559981e-05 0.00021943753 -0.0002354705 0.000500975 -0.0001002834 0.00041466663
-0.00052726245 0.00017607774 -0.0010755894 0.0006866325 -0.00019513686 -1.7742499e-05 -0.00013402865 -0.00024918388
0.00017033315 -0.00022931147 -0.00015135767 0.0004086539 -0.00024086412 -7.395278e-05 -0.00013892651 -0.00037713556
0.0003448402 -0.0002353463 -0.00011523745 -0.0010623602 0.00090995606 -0.0002484292 -1.9212428e-05 0.000105827465
-0.00021428317 -0.0001591859 -2.3470284e-05 -0.0005695174 0.0002822308 4.311534e-05 -0.00035901752 9.1375885e-05

momentum_buffer f4 [8]
00000000: 3ea1 dc39 f06f 82b9 64f4 b1b8 b288 5e39
00000010: 141b 8539 6833 8b39 5f38 5fb9 4252 8cb9
0.00042081805 -0.00024878932 -8.485539e-05 0.00021222493 0.00025387912 0.00026550447 -0.00021287937 -0.00026764168

momentum_buffer f4 [8, 8]
00000000: 847c cb39 5751 cbb9 3c3b b53a 0e98 3dba
00000010: f6fc 03ba ca9b 353a 3356 0f39 f71f f139
00000020: edfb 46b8 e946 38b8 834c 80b8 eb34 a038
00000030: 627a 3938 ec99 6fb8 8944 1136 e747 cab4
00000040: e596 06ba 40d2 60b6 e8f3 6c3a c0b3 9336
00000050: 0b8b 4eba 2de8 38ba 2267 79b9 8dd0 31ba
00000060: a12a c438 d056 9f37 6ba0 00ba fbd6 8839
00000070: 3293 3f39 1a1b 9cb7 1499 42b8 44ad 1638
00000080: b172 cf38 d3fc 5cb9 1956 533a bf46 fbb9
00000090: 0854 5cb9 3f2e e039 7859 b138 4818 cb36
000000a0: b35c 99b9 1afe d2b6 235d ceb9 8f83 c8b9
000000b0: a59f 173a c7e9 9e38 92e9 513a c23a 1e3a
000000c0: 1e66 20b9 3a27 3239 6e5e 32ba ec78 afb9
000000d0: 24ad 073a 9130 8c39 0082 2a3a 2833 563a
000000e0: ad1e 1c3a 9ebc dcb9 516e 82ba 8284 b73a
000000f0: c7b4 283a 4ee7 d3b8 357d 13ba a591 0eba
0.0003881195 -0.0003877978 0.0013826857 -0.0007232436 -0.00050349475 0.00069278164 0.00013669654 0.00045990918
-4.7441503e-05 -4.393506e-05 -6.117767e-05 7.639251e-05 4.4221415e-05 -5.712539e-05 2.1646576e-06 -3.7677748e-07
-0.00051341794 -3.3500983e-06 0.00090390304 4.401867e-06 -0.00078789954 -0.000705364 -0.0002378491 -0.00067830906
9.3539486e-05 1.8994702e-05 -0.00049067166 0.00026100114 0.00018270014 -1.860927e-05 -4.639577e-05 3.5924153e-05
9.891892e-05 -0.0002107502 0.0008061841 -0.0004792716 -0.00021012139 0.00042759065 8.4566826e-05 6.052698e-06
-0.000292515 -6.288069e-06 -0.00039360774 -0.0003824499 0.0005783982 7.5775715e-05 0.0008007522 0.0006035977
-0.0001529683 0.00016990016 -0.0006804232 -0.00033468695 0.0005175641 0.00026739066 0.0006504357 0.0008171075
0.0005955499 -0.000421022 -0.000995109 0.0014001282 0.00064356293 -0.00010104348 -0.0005626262 -0.0005438573

momentum_buffer f4 [8]
00000000: b844 1fb9 6e1c 48b8 a409 7fb8 2575 0c38
00000010: b345 2ab9 280d c0b7 01ca 2b39 cf43 b6b9
-0.00015189021 -4.7710193e-05 -6.0805716e-05 3.34877e-05 -0.00016238428 -2.289431e-05 0.00016383083 -0.00034764266

momentum_buffer f4 [1, 8]
00000000: 5f25 03bb df9b 95b7 f71b db3a e4bc 54ba
00000010: 2f24 b0ba e0a1 b53a 9890 b73a 653f 05bb
-0.0020011289 -1.7834767e-05 0.0016716708 -0.0008115305 -0.0013438518 0.0013857447 0.0014004884 -0.0020331976
