src/logs/lightning_logs/version_6/checkpoints/epoch=499-step=2000.ckpt (torch, 8699 bytes, 11 tensors)

model.linear_input.weight f4 [8, 17]
0	0x3f312479	0.6919628
1	0x3e417219	0.18891181
2	0xbf82bb70	-1.0213451
3	0xbf645d69	-0.8920503
4	0xbf7327f0	-0.94982815
5	0x3ef04ef3	0.46935233
6	0xbf2542f5	-0.64555293
7	0xbf09223e	-0.53567874
8	0x3ea1a679	0.3157232
9	0xbeb2bc69	-0.3490937
10	0xbc6dd01d	-0.01451495
11	0x3e6d1f32	0.23156431
12	0x3dcc8510	0.09986317
13	0x3eb6dca1	0.35715201
14	0x3e5a2bf7	0.21305834
15	0xbe4d0c08	-0.20024121
16	0xbf0a34a5	-0.5398658
17	0x3f545f8d	0.829583
18	0xbe790819	-0.24319495
19	0xbf572744	-0.8404429
20	0x3ddf49c8	0.109027445
21	0xbe34e1ca	-0.17664257
22	0x3f386250	0.7202501
23	0xbeb0381d	-0.3441781
24	0xbed3f036	-0.41394204
25	0x3e9468b0	0.2898612
26	0x3d407aaf	0.046992
27	0xbd69f068	-0.057114035
28	0x3db5a6cd	0.08869705
29	0x3e2f3341	0.17109396
30	0x3e392916	0.1808208
31	0xbea82e36	-0.32847756
32	0x3df9e89d	0.122025706
33	0xbe3a0dd3	-0.18169336
34	0x3d2a36e5	0.041556258
35	0xbeff8e5b	-0.49913296
36	0xbdcc5641	-0.09977389
37	0x3ee2f4e9	0.44327477
38	0x3e8a9f32	0.2707458
39	0xbfe271bc	-1.7690959
40	0xbf02af35	-0.51048595
41	0x3e2e9e72	0.1705263
42	0xbd9497ed	-0.0725554
43	0xbdde6820	-0.10859704
44	0xbe43a877	-0.19107233
45	0xbf131c82	-0.57465374
46	0x3eb5faa8	0.35542798
47	0x3e2c87a9	0.16848625
48	0xbe814f93	-0.25256023
49	0xbdb424d3	-0.08796086
50	0xbe39c1d0	-0.1814034
51	0x3ec57406	0.3856508
52	0xbfa08803	-1.2541507
53	0x3ed3491b	0.41266713
54	0x3f828115	1.0195643
55	0xbf92d51d	-1.1471287
56	0xbc94e4fd	-0.018175596
57	0x3e1b6957	0.15176903
58	0x3df95bec	0.12175736
59	0x3dc211bb	0.09476038
60	0x3e30570d	0.17220707
61	0x3f00e377	0.50347084
62	0x3fa832b9	1.3140479
63	0xbecd1699	-0.40056303
64	0xbe40def4	-0.1883505
65	0xbde5715e	-0.11203264
66	0xbd829191	-0.06375421
67	0xbe19d98f	-0.15024398
68	0xbf481a4b	-0.7816512
69	0x3eb0ea5b	0.345538
70	0xbee8437b	-0.45363984
71	0xbf2eed06	-0.6833042
72	0xbd9b90ef	-0.07596003
73	0x3d90458c	0.07044515
74	0x3ddc250f	0.10749256
75	0xbd8f870d	-0.07008181
76	0xbdddbbca	-0.108268335
77	0x3e04d5b8	0.12972152
78	0xbea8564f	-0.32878348
79	0x3f0d29ef	0.5514211
80	0xbf2e7782	-0.68151104
81	0x3e41b71b	0.18917505
82	0xbefd126a	-0.4942811
83	0xbdc22832	-0.09480323
84	0xbe4f66e4	-0.20254093
85	0x3cb35028	0.021888807
86	0x3f215644	0.63022256
87	0xbf42e76e	-0.76134384
88	0x3d9d0f93	0.07668986
89	0x3df97a1b	0.12181493
90	0x3e6ebf3f	0.23315142
91	0x3d38b999	0.045098875
92	0x3bed3556	0.007239024
93	0xbf0c9798	-0.54918814
94	0xbd8d703b	-0.06906172
95	0xbec50a09	-0.3848422
96	0xbfb2e7b7	-1.3976964
97	0xbd479981	-0.048730377
98	0x3e9e8350	0.30959558
99	0x3e04cbf2	0.12968424
100	0xbe7edf00	-0.24889755
101	0xbe0af009	-0.13568129
102	0xbf5440d0	-0.82911396
103	0x3ef650ee	0.4810862
104	0x3ee133b9	0.43984774
105	0xbf40da44	-0.75333047
106	0x3e43fe7a	0.19140044
107	0x3c71633d	0.014733133
108	0xbefd2a89	-0.49446514
109	0x3eb23baa	0.34811145
110	0xbe936b8c	-0.2879299
111	0xbd0f99d4	-0.03505881
112	0xbea50b22	-0.32235056
113	0x3eab9af9	0.33516672
114	0x3dd1adf3	0.10238256
115	0xbe94a6b6	-0.2903344
116	0xbeeb278c	-0.4592861
117	0xbeab046f	-0.3340182
118	0x3e575840	0.21029758
119	0xbf2565e9	-0.6460863
120	0x3f655b19	0.8959213
121	0xbdbca53e	-0.09211205
122	0xbf3e3c63	-0.7431089
123	0x3f173b63	0.5907499
124	0x3ea82e26	0.32847708
125	0xbcb863bc	-0.022508495
126	0xbe161eb4	-0.1466015
127	0xbecac780	-0.3960533
128	0xbeeed1b5	-0.4664437
129	0x3eedcfa3	0.46447477
130	0xbe78d1af	-0.24298738
131	0x3e8a585a	0.27020532
132	0xbe97ebe4	-0.29672158
133	0x3e60c411	0.21949793
134	0x3db45005	0.08804325
135	0xbd9a660d	-0.07538996

model.linear_input.bias f4 [8]
0	0xbd816317	-0.06317728
1	0x3d50cd92	0.050977297
2	0xbf299cea	-0.66255057
3	0x3cbdf156	0.023186367
4	0xbec2d71b	-0.38054737
5	0x3dcf81fd	0.10132215
6	0x3deed8d0	0.116624475
7	0xbe291f5f	-0.16515873

model.linear_1.weight f4 [8, 8]
0	0xbf63f639	-0.8904758
1	0xbe56da6c	-0.20981759
2	0x3ec77e33	0.3896347
3	0x3f314da3	0.6925909
4	0xbf8ed3a4	-1.1158338
5	0x3de75752	0.11295952
6	0xbf2eb3dd	-0.682432
7	0xbf6e4cd0	-0.93085957
8	0x3fc327d4	1.524653
9	0x3f814505	1.0099188
10	0xbf792930	-0.9732847
11	0xbe0fb473	-0.1403368
12	0xbd90a3fe	-0.07062529
13	0x3f4f5d8a	0.81002104
14	0xbee7bd73	-0.45261726
15	0x3e5cf096	0.21576151
16	0x3ecb5744	0.39715016
17	0xbcf8aae0	-0.030354917
18	0x3e920f2e	0.28527206
19	0x3e83d4a0	0.25748158
20	0x3ea33c10	0.31881762
21	0xbc7fb800	-0.015607834
22	0x3eb14674	0.34624064
23	0x3ecbbe0a	0.39793426
24	0x3ef2de64	0.47435296
25	0x3dbf2400	0.09333038
26	0x3e98ddf2	0.2985683
27	0x3eeb7909	0.4599078
28	0x3d9eed26	0.07760076
29	0x3f08bd21	0.5341359
30	0x3ec04126	0.37549704
31	0xbd8021c3	-0.062564395
32	0xbee3e25a	-0.4450863
33	0x3e5b5b85	0.2142163
34	0xbe4b6256	-0.19861731
35	0xbf3a6e93	-0.7282497
36	0xbdf7409e	-0.120728716
37	0x3dc05491	0.0939113
38	0xbe9f5630	-0.31120443
39	0x3ef1124a	0.47084266
40	0x3ee90772	0.45513493
41	0x3f10b77a	0.56529963
42	0x3f9fc82a	1.248296
43	0x3f72c6f3	0.9483482
44	0xbedc2b09	-0.43001583
45	0x3e695e34	0.22789842
46	0xbf6d9a82	-0.92813885
47	0xbf3f903a	-0.7482945
48	0x3d18987f	0.037254807
49	0xbb563198	-0.0032683369
50	0x3ec3a409	0.38211086
51	0x3da6b0e0	0.08139205
52	0x3ee46741	0.44610026
53	0xbe224101	-0.1584511
54	0x3de5cf6d	0.11221204
55	0x3efb2e8e	0.49058956
56	0x3dc1d208	0.094638884
57	0x3ef8b3d7	0.48574707
58	0xbf5d158d	-0.8636101
59	0x3fdbc885	1.7170569
60	0x3c933fcf	0.017974762
61	0xbf9cc9dd	-1.2249104
62	0xbda6c025	-0.081421174
63	0xbf1f4a5e	-0.6222285

model.linear_1.bias f4 [8]
0	0x3f6604c8	0.89851046
1	0x3ed76fc1	0.4207745
2	0xbea6a222	-0.32545573
3	0x3ea809be	0.32819933
4	0x3f109dd0	0.564908
5	0xbe4fba20	-0.20285845
6	0xbe91dc3d	-0.2848834
7	0xbe04068a	-0.1289312

model.layer_output.weight f4 [1, 8]
0	0xbff502f6	-1.9141529
1	0xc00c688d	-2.1938813
2	0x3e4ac758	0.19802606
3	0xbe307dbb	-0.17235462
4	0x3f64341a	0.89142
5	0x400005fe	2.0003657
6	0xbc8afcc0	-0.016966224
7	0x4013f44d	2.311786

best_score f8 []
0	0x3f528c4ef88d1d2d	0.001132084960959133

momentum_buffer f4 [8, 17]
0	0xb92baee0	-0.00016372977
1	0x378d26e8	1.6826627e-05
2	0x3992c0a6	0.00027990824
3	0x38a9c0dc	8.094471e-05
4	0x390511d5	0.00012690511
5	0xb89cf5f1	-7.48447e-05
6	0x38de7846	0.000106081876
7	0x37e1d946	2.6923266e-05
8	0x390c3059	0.00013369451
9	0xb6d226a8	-6.262988e-06
10	0x36bb04e4	5.5736036e-06
11	0x3865b5d5	5.47672e-05
12	0xb7f3d4da	-2.9066974e-05
13	0x38bf4f49	9.122358e-05
14	0x3786e661	1.6081323e-05
15	0x38ddf0e9	0.00010582974
16	0x37e3f6b6	2.7175392e-05
17	0xb92ff3b2	-0.00016780084
18	0xb75c3fcf	-1.3127878e-05
19	0x39398fb3	0.00017696507
20	0xb5cb73c8	-1.5158375e-06
21	0x38622740	5.3919153e-05
22	0xb86c6b92	-5.6366967e-05
23	0x3812bd92	3.4985664e-05
24	0xb8235d85	-3.8949325e-05
25	0x38191aa6	3.650286e-05
26	0xb7f52526	-2.9223575e-05
27	0xb73ca022	-1.1242957e-05
28	0xb711865e	-8.673958e-06
29	0xb7c63340	-2.3627304e-05
30	0x37f2c2cf	2.8939363e-05
31	0xb5218858	-6.017558e-07
32	0x3847cf81	4.763855e-05
33	0xb8586f74	-5.1602212e-05
34	0xb7da9c01	-2.606027e-05
35	0x38adcb07	8.2870996e-05
36	0x38a18c3f	7.703201e-05
37	0xb9421a4f	-0.00018511082
38	0x381acabf	3.6905283e-05
39	0x3993dfe2	0.0002820483
40	0xb7e97284	-2.782909e-05
41	0x39298674	0.00016167184
42	0x37a2b718	1.9397165e-05
43	0x382dad28	4.140768e-05
44	0x38992bec	7.3037896e-05
45	0x383041fa	4.2023115e-05
46	0x3896375d	7.1628696e-05
47	0x38b124cb	8.446871e-05
48	0xb886ccdf	-6.427778e-05
49	0x37ff4903	3.0432368e-05
50	0x38d8de06	0.00010341038
51	0xb977b0f7	-0.0002362168
52	0x398d77c0	0.00026982836
53	0xb887e5ae	-6.480083e-05
54	0xb96a7796	-0.00022360528
55	0x393266ee	0.00017013747
56	0x37bae2da	2.2278564e-05
57	0xb70f1954	-8.529361e-06
58	0xb7be15c7	-2.2659906e-05
59	0x384bdcaa	4.860448e-05
60	0xb8910722	-6.9154674e-05
61	0xb7327e68	-1.0639058e-05
62	0xb8eae778	-0.00011201104
63	0x36cc0a44	6.080869e-06
64	0x382d61fe	4.1337677e-05
65	0x380c1a74	3.3403237e-05
66	0xb6d01010	-6.200753e-06
67	0xb7d19e71	-2.4988522e-05
68	0x38c54917	9.407306e-05
69	0xb80922f1	-3.2695887e-05
70	0x3668754c	3.463897e-06
71	0x38f950ee	0.000118883196
72	0x378f5fae	1.7091483e-05
73	0xb8952d91	-7.113361e-05
74	0x37890b1c	1.6336846e-05
75	0x384b7101	4.8504215e-05
76	0x38140cc2	3.529783e-05
77	0xb74335b7	-1.1635412e-05
78	0x382cb73c	4.1178646e-05
79	0xb76b001e	-1.4007119e-05
80	0x37a1709e	1.9245137e-05
81	0x385a5c70	5.206134e-05
82	0x36fd0ebc	7.541703e-06
83	0x383e23c4	4.533284e-05
84	0x37a3a593	1.9508216e-05
85	0xb7e48897	-2.7243323e-05
86	0xb8c351e0	-9.313575e-05
87	0x39520f36	0.00020032827
88	0x38466fa4	4.7310852e-05
89	0xb7f40f7e	-2.909428e-05
90	0x38817671	6.173261e-05
91	0x38609740	5.3546624e-05
92	0x37dd7b0a	2.6402548e-05
93	0x38027bde	3.1109776e-05
94	0x38813e47	6.1627994e-05
95	0xb7568ea0	-1.2788601e-05
96	0x390649f1	0.00012806781
97	0xb7c9fab9	-2.4077819e-05
98	0x34df7b00	4.162648e-07
99	0xb7cd2935	-2.4457093e-05
100	0x37ff5780	3.0439114e-05
101	0x384fa90a	4.9510076e-05
102	0x393160eb	0.0001691614
103	0xb73fe0e1	-1.1436846e-05
104	0xb908fc75	-0.00013064018
105	0x38f71425	0.0001178163
106	0xb78ce0df	-1.6794014e-05
107	0xb89b0f21	-7.393794e-05
108	0x35e3ddc8	1.6977365e-06
109	0x37d4f55a	2.538662e-05
110	0x36fc2c98	7.5153766e-06
111	0x36342530	2.6843736e-06
112	0x378da36b	1.6884607e-05
113	0xb7246811	-9.799392e-06
114	0x372eeb9a	1.0426063e-05
115	0x35c8d9d0	1.4964553e-06
116	0x37d163d6	2.4961231e-05
117	0xb6b95c06	-5.5241426e-06
118	0x3808c51f	3.260851e-05
119	0x391a3533	0.00014706403
120	0xb933cf3a	-0.00017147968
121	0x381cdd28	3.7399266e-05
122	0x3942bcf2	0.0001857167
123	0xb8b19c69	-8.469151e-05
124	0xb8b8a2f4	-8.804156e-05
125	0x3729283f	1.00825555e-05
126	0x3642af24	2.9010198e-06
127	0xb795b2d0	-1.784545e-05
128	0x37812d63	1.5399133e-05
129	0x37816f79	1.5429907e-05
130	0x3807d1ef	3.2382024e-05
131	0xb65b94c4	-3.2720136e-06
132	0xb6fd2e27	-7.5453604e-06
133	0xb70ff76a	-8.58107e-06
134	0x37bec2f0	2.274054e-05
135	0xb723b1ca	-9.756952e-06

momentum_buffer f4 [8]
0	0x390b774b	0.00013300513
1	0xb684ff6a	-3.9636407e-06
2	0x390c5823	0.00013384274
3	0xb802d137	-3.118926e-05
4	0x3887fb49	6.484107e-05
5	0x38a7aa61	7.994916e-05
6	0x37e33332	2.7084348e-05
7	0x3759d410	1.2983583e-05

momentum_buffer f4 [8, 8]
0	0x3939aba1	0.00017706912
1	0x37eb72f2	2.8067709e-05
2	0xb8898954	-6.5582484e-05
3	0xb8ea9e21	-0.00011187443
4	0x39483bd3	0.00019095773
5	0x389b2402	7.397683e-05
6	0x38da69ea	0.00010414778
7	0x38f7bfc5	0.00011813598
8	0xb98a2732	-0.00026350614
9	0xb950c0c0	-0.00019908231
10	0x38a2fa3d	7.7713725e-05
11	0x3917a0ed	0.00014460432
12	0x37c8d956	2.3943063e-05
13	0xb93bed65	-0.00017922146
14	0x37f3ef07	2.9079163e-05
15	0xb88f8df2	-6.845211e-05
16	0x00000000	0.0
17	0x00000000	0.0
18	0x00000000	0.0
19	0x00000000	0.0
20	0x00000000	0.0
21	0x00000000	0.0
22	0x00000000	0.0
23	0x00000000	0.0
24	0xb488d231	-2.5484908e-07
25	0xb550d858	-7.780086e-07
26	0x35fbf3cb	1.877191e-06
27	0x33870ef7	6.2891495e-08
28	0x34f11587	4.490541e-07
29	0xb4b1cb5a	-3.3116777e-07
30	0xb3263647	-3.8699252e-08
31	0x3529447d	6.305707e-07
32	0x38c65fb0	9.459199e-05
33	0x386ed400	5.6941062e-05
34	0x39709c21	0.00022946346
35	0x3996dd3d	0.00028775065
36	0xb7e88a7e	-2.7721046e-05
37	0xb8304aeb	-4.2031443e-05
38	0xb8c3ea3f	-9.341956e-05
39	0xb9146b9d	-0.00014154469
40	0xb9178722	-0.00014450823
41	0xb9197ccc	-0.00014637707
42	0xb993cf45	-0.00028192453
43	0xb96bcf6d	-0.00022488619
44	0x389e04d4	7.5349264e-05
45	0xb89107c2	-6.915584e-05
46	0x39886db3	0.00026021674
47	0x39695af9	0.00022254502
48	0x80000004	-6e-45
49	0x80000004	-6e-45
50	0x80000004	-6e-45
51	0x80000004	-6e-45
52	0x00000004	6e-45
53	0x80000004	-6e-45
54	0x00000004	6e-45
55	0x00000004	6e-45
56	0x3891666f	6.9332185e-05
57	0xb8710888	-5.7466823e-05
58	0x3959d6e6	0.00020774789
59	0xb9a2f4e4	-0.00031081506
60	0x38c46f60	9.3667535e-05
61	0x394ebf8c	0.00019717048
62	0x37a0345a	1.9097864e-05
63	0x393d9af8	0.00018082175

momentum_buffer f4 [8]
0	0xb899cbea	-7.3335905e-05
1	0xb5769480	-9.185824e-07
2	0x00000000	0.0
3	0xb519e55e	-5.7330715e-07
4	0xb8d8d9cc	-0.000103402504
5	0x3889b327	6.566039e-05
6	0x00000004	6e-45
7	0xb88fe2bb	-6.861003e-05

momentum_buffer f4 [1, 8]
0	0x39c4bcbf	0.0003752466
1	0x39d0d866	0.0003983408
2	0x00000000	0.0
3	0xb39201b2	-6.798963e-08
4	0xb9e07079	-0.00042808408
5	0xba1b1137	-0.0005915346
6	0x80000004	-6e-45
7	0xb9f4d1fd	-0.0004669576
