src/logs/lightning_logs/version_57/checkpoints/epoch=99-step=400.ckpt (torch, 9970 bytes, 14 tensors)

model.linear_input.weight f4 [8, 17]
-0.06909844 -0.14653961 -0.10609348 0.26561365 0.38199717 0.26089403 -0.020325461 0.4237427
0.427245 0.34361842 -0.3891574 -0.22458108 0.31183082 0.38761535 0.5470398 0.498947
0.24832557 -0.121615805 -0.16272306 0.18623693 -0.43685976 0.40418547 0.07543641 -0.044151288
0.17387311 -0.2975513 -0.27147582 -0.11554002 0.37240422 0.38677514 -0.42073733 -0.29535794
-0.3291851 0.3259865 -0.081586726 0.05909192 -0.23973148 -0.13504893 0.14821233 0.30550733
0.5514976 0.10390142 -0.35258353 -0.029089227 -0.36703956 -0.454401 0.11811209 -0.027962904
0.46143946 -0.534746 -0.1984605 -0.1985635 -0.42639205 -0.6342662 0.3938603 -0.154768
0.10637735 -0.078409635 0.16632093 -0.0394929 -0.43957236 0.37503794 0.0068157087 -0.45265642
-0.35740054 0.0007236212 0.14250351 0.55961645 -0.45128593 0.4192191 0.15377234 0.29551774
-0.25745842 0.19383596 0.092831284 -0.4156031 0.22777684 0.4205403 0.006985732 0.06706696
-0.13537562 -0.0039089494 0.3406761 0.100516774 -0.5257981 -0.3895783 0.32548547 0.23359531
0.24166124 0.2964598 0.496507 0.1784027 0.07948547 0.22676949 -0.15151736 -0.19468781
0.041893832 0.5525208 -0.23891842 -0.34787524 -0.13858663 -0.5513332 0.11774733 0.44757572
-0.3034536 0.40075153 0.36779755 -0.3033818 -0.4205293 -0.35523832 -0.29836 -0.023031494
-0.18522713 -0.37492463 -0.46799222 0.19764403 0.2240436 -0.14874518 -0.42955533 -0.6029415
0.4466913 -0.292577 -0.048662152 0.31858468 0.17296003 -0.13571045 -0.25768736 0.008257519
-0.4308391 0.3326169 -0.0789244 0.1641501 0.5507876 0.17297393 0.25461194 -0.5105971
00000000: 7c83 8dbd 7b0e 16be 8a47 d9bd 83fe 873e
00000010: 2295 c33e e793 853e 9581 a6bc cef4 d83e
00000020: dbbf da3e c1ee af3e a43f c7be 95f8 65be
00000030: 4aa8 9f3e 8575 c63e cd0a 0c3f fb75 ff3e
00000040: 0f49 7e3e b511 f9bd e0a0 26be e5b4 3e3e
00000050: 15ac dfbe 66f1 ce3e 687e 9a3d fbd7 34bd
00000060: cb0b 323e a558 98be e1fe 8abe 3fa0 ecbd
00000070: c4ab be3e 6407 c63e e26a d7be 2839 97be
00000080: f38a a8be b4e7 a63e f116 a7bd 5e0a 723d
00000090: 2b7c 75be 444a 0abe f9c4 173e 756b 9c3e
000000a0: f22e 0d3f 45ca d43d d485 b4be 884c eebc
000000b0: 9cec bbbe 3fa7 e8be c0e4 f13d 7612 e5bc
000000c0: cb41 ec3e 1de5 08bf 3b39 4bbe 3b54 4bbe
000000d0: 0f50 dabe 455f 22bf 0fa8 c93e 817b 1ebe
000000e0: 5edc d93d 3b95 a0bd 0950 2a3e 4fc3 21bd
000000f0: a10f e1be f904 c03e 4f56 df3b 95c2 e7be
00000100: 34fd b6be 66b1 3d3a 71ec 113e 0643 0f3f
00000110: f30e e7be e3a3 d63e 7f76 1d3e 1a4e 973e
00000120: 97d1 83be ef7c 463e 541e be3d eec9 d4be
00000130: 553e 693e 0f51 d73e 91e8 e43b 675a 893d
00000140: e89f 0abe a516 80bb 196d ae3e bddb cd3d
00000150: b49a 06bf cf76 c7be 08a6 a63e 9c33 6f3e
00000160: 0b76 773e 94c9 973e 2a36 fe3e 33af 363e
00000170: 47c9 a23d 4336 683e 5e27 1bbe 3e5c 47be
00000180: de98 2b3d 0172 0d3f 08a7 74be b41c b2be
00000190: a7e9 0dbe 2c24 0dbf 8325 f13d a528 e53e
000001a0: 455e 9bbe 4e2f cd3e f64f bc3e dc54 9bbe
000001b0: 9e4f d7be cce1 b5be a4c2 98be 8bac bcbc
000001c0: 2eac 3dbe 1ff6 bfbe ad9c efbe 3263 4a3e
000001d0: af6b 653e a850 18be adee dbbe 605a 1abf
000001e0: b9b4 e43e a7cc 95be f751 47bd 881d a33e
000001f0: 6f1c 313e aef7 0abe 99ef 83be 8c4a 073c
00000200: f196 dcbe c34c aa3e 1ea3 a1bd f716 283e
00000210: 6b00 0d3f 1420 313e 7f5c 823e 7eb6 02bf

model.linear_input.bias f4 [8]
0.24545497 0.08214167 -0.44328204 0.07368226 0.29516396 0.10684879 -0.25958455 0.19831797
00000000: 8c58 7b3e e439 a83d ddf5 e2be bae6 963d
00000010: bb1f 973e 8ad3 da3d 44e8 84be de13 4b3e

model.linear_1.weight f4 [8, 8]
-0.59066826 0.17721078 -0.15919569 0.3573737 -0.3773109 -0.4051479 0.12908202 0.22271605
-0.023639545 -0.50798804 0.13930541 0.18461238 -0.18612687 -0.4985603 0.20785592 -0.024979612
-0.0824393 0.33081368 -0.16709276 0.050101697 0.19087166 -0.37792602 -0.21569884 0.24137004
0.1080722 0.20025396 -0.35804585 -0.050140694 -0.27128774 -0.37345165 -0.66186756 -0.34144208
-0.0043307603 0.10813532 -0.012162555 -0.43793675 0.17572144 0.016488524 -0.29043794 0.15187638
-0.4858209 -0.2565747 0.10990423 -0.518441 0.01788609 0.11467824 -0.08902889 0.34177178
-0.25768447 -0.28462952 0.21565698 0.436106 -0.4730969 -0.21888085 0.4572261 -0.49298516
-0.4329983 0.43661565 0.14521897 0.07155788 -0.08087516 0.10683441 0.3741439 0.0690366
00000000: 0936 17bf be76 353e 3204 23be b0f9 b63e
00000010: e52e c1be 8c6f cfbe 142e 043e ad0f 643e
00000020: b8a7 c1bc 810b 02bf 14a6 0e3e 070b 3d3e
00000030: 0b98 3ebe 4c43 ffbe 2fd8 543e 0ba2 ccbc
00000040: f0d5 a8bd 6960 a93e 5d1a 2bbe 7037 4d3d
00000050: dc73 433e 857f c1be 28e0 5cbe b529 773e
00000060: f554 dd3d 600f 4d3e c951 b7be 5460 4dbd
00000070: 3ae6 8abe 0e35 bfbe 2770 29bf 7fd1 aebe
00000080: 0de9 8dbb 0d76 dd3d 7445 47bc 3f39 e0be
00000090: 52f0 333e f112 873c 48b4 94be 7b85 1b3e
000000a0: 84bd f8be c25d 83be 7815 e13d 8db8 04bf
000000b0: d985 923c 6ddc ea3d c754 b6bd b6fc ae3e
000000c0: 38ef 83be f6ba 91be 2fd5 5c3e 4949 df3e
000000d0: c239 f2be 4d22 60be 8a19 ea3e 8d68 fcbe
000000e0: f4b1 ddbe 168c df3e 48b4 143e f08c 923d
000000f0: e0a1 a5bd 00cc da3d ca8f bf3e 1063 8d3d

model.linear_1.bias f4 [8]
0.37918073 0.3887467 0.26296484 0.21322075 0.115341246 0.17803966 0.27326304 -0.386796
00000000: fa23 c23e cf09 c73e 54a3 863e 8a56 5a3e
00000010: 0838 ec3d 0750 363e 22e9 8b3e 200a c6be

model.linear_2.weight f4 [8, 8]
-0.57245886 0.50085586 0.42279854 -0.015087531 -0.3328086 -0.39465135 -0.089969836 -0.41945952
0.017487904 -0.059801463 0.04583899 -0.679063 0.2157731 0.32014728 -0.23560403 0.38791084
-0.23741657 0.13626325 0.18664616 0.15076025 0.50475204 0.039180398 0.3023094 0.061387658
0.346265 -0.02875709 -0.071512826 0.29250836 -0.31793654 0.46257085 -0.6575192 0.13101012
-0.4261646 0.375824 -0.31397638 -0.18811746 -0.33550268 0.18476883 -0.16551875 -0.32323325
-0.45095807 -0.043626726 -0.46851987 -0.41414028 -0.18328494 0.07120347 0.1268444 -0.22874391
0.109428406 -0.3525276 -0.41462907 -0.19778332 0.30280802 0.22592425 0.17660372 0.06319177
0.4318526 0.47458115 -0.3601676 -0.45301026 0.29966396 -0.416673 -0.1820976 -0.26384223
00000000: aa8c 12bf 1738 003f 0d79 d83e b131 77bc
00000010: e465 aabe be0f cabe 1b42 b8bd 66c3 d6be
00000020: cb42 8f3c 61f2 74bd aac1 3b3d 13d7 2dbf
00000030: a0f3 5c3e 58ea a33e 2f42 71be 409c c63e
00000040: 541d 73be 9888 0b3e 2c20 3f3e e560 1a3e
00000050: 6e37 013f a07b 203d 4cc8 9a3e a071 7b3d
00000060: a549 b13e fd93 ebbc 5175 92bd a8c3 953e
00000070: 94c8 a2be 16d6 ec3e 2e53 28bf 8427 063e
00000080: 3f32 dabe 016c c03e 83c1 a0be dda1 40be
00000090: 02c7 abbe 0a34 3d3e bf7d 29be d47e a5be
000000a0: fae3 e6be f0b1 32bd d6e1 efbe 320a d4be
000000b0: 0caf 3bbe 20d3 913d 80e3 013e d83b 6abe
000000c0: 001c e03d 7f7e b4be 434a d4be b687 4abe
000000d0: a709 9b3e b058 673e 9bd7 343e b06a 813d
000000e0: c91b dd3e 4dfc f23e e367 b8be f6f0 e7be
000000f0: 8e6d 993e 2a56 d5be cb77 3abe 5416 87be

model.linear_2.bias f4 [8]
0.45594725 0.02950448 0.34908256 0.32717502 0.411523 -0.24700952 0.25953525 0.18543969
00000000: eb71 e93e 61b3 f13c f3ba b23e 7c83 a73e
00000010: 25b3 d23e 10f0 7cbe cee1 843e e7e3 3d3e

model.layer_output.weight f4 [1, 8]
-0.2811068 -0.56597036 -0.6106512 0.72211623 0.04792956 0.11422932 0.49338102 -0.15304466
00000000: 3bed 8fbe 6fe3 10bf a353 1cbf 9cdc 383f
00000010: c951 443d 10f1 e93d 709c fc3e bdb7 1cbe

momentum_buffer f4 [8, 17]
0.000771037 -0.0009788137 -1.2681151e-05 -0.00087923114 -0.00019238508 0.0008511585 -7.2737836e-05 -0.00014772001
-0.0008193506 0.00025019984 0.00034869296 0.00028085953 0.00022513307 -0.00046434664 -0.0002621039 0.000693802
-0.0009142599 0.0002580646 -8.391032e-05 0.00044308993 0.0004579519 -0.00015379902 0.00031309127 -0.0004159824
0.0010332265 0.00071335305 -0.0001946408 9.853201e-05 0.00071744615 0.0003095096 0.000120701996 -0.00053041347
0.00027121734 0.0003460269 0.00059164653 -0.00017795134 -0.00032036164 4.8519505e-05 0.0003515274 -0.00030671325
0.00055190467 -0.00045857095 -6.953295e-05 -6.0032995e-05 0.00022289949 -0.00043719274 0.00043284177 -0.0002921111
0.0003897957 0.00010400319 -1.0669552e-05 -0.0017756901 0.00032628118 0.00047365343 -0.00055457314 -0.0001662163
-0.0002549661 0.00013156811 -0.0011073237 -0.00093933253 0.001452297 -0.0014887198 -0.00046073983 -0.0007383411
-6.0189137e-05 0.00028351473 -0.0006791071 -0.00029664836 0.001982864 -0.000805866 -0.00019134113 0.0002994439
7.1676805e-05 0.00061453617 0.00032291532 0.0006627415 0.00060224126 -0.00071239687 0.0010958125 0.0007131095
0.00089179823 -0.0002674772 -0.00035177366 0.0010718714 -8.621474e-05 7.5164426e-05 -0.0006610949 -0.00022958177
1.6629056e-06 -0.0005556478 -0.0002615274 -0.0006084502 -0.00020706191 0.0004382617 -0.00084113394 -0.0004126401
4.641188e-06 -0.00044315768 0.0008351881 -0.0012121837 -0.0007127596 -0.00010275258 -0.00058064394 0.00011734102
-0.00014825042 2.8945855e-05 0.000114633454 -0.00075513264 0.0006027258 -0.0012142793 -0.0002686064 0.00056080875
-0.00090375566 -0.0007056355 -0.00015273594 -3.7372687e-05 0.00028419084 -0.0006207696 9.216426e-06 0.00076891
0.00022731244 -0.00016896939 0.0009975189 -0.00024724373 7.697798e-05 1.6439619e-05 0.0008108132 0.0012460926
-0.0008964963 0.00047765687 0.0008648704 0.00014353244 0.00038461402 -0.0005657637 0.00029337808 0.000533875
00000000: 6b1f 4a3a 8a4b 80ba 21c1 54b7 347c 66ba
00000010: faba 49b9 4820 5f3a d48a 98b8 4ae5 1ab9
00000020: b0c9 56ba 412d 8339 c7d0 b639 5440 9339
00000030: b311 6c39 8d73 f3b9 fd6a 89b9 44e0 353a
00000040: f1aa 6fba d84c 8739 03f9 afb8 864e e839
00000050: 4319 f039 1c45 21b9 6626 a439 3618 dab9
00000060: 546d 873a 5000 3b3a 7e18 4cb9 f8a2 ce38
00000070: ff12 3c3a ad45 a239 6421 fd38 720b 0bba
00000080: 2d32 8e39 f26a b539 ba18 1b3a 7398 3ab9
00000090: 36f6 a7b9 6c81 4b38 354d b839 5bce a0b9
000000a0: b2ad 103a 5a6c f0b9 38d2 91b8 f0cb 7bb8
000000b0: 20ba 6939 0437 e5b9 0aef e239 7d26 99b9
000000c0: 7e5d cc39 4a1c da38 6001 33b7 46be e8ba
000000d0: b810 ab39 b054 f839 c660 11ba 594a 2eb9
000000e0: f8ac 85b9 8cf5 0939 9e23 91ba 8a3d 76ba
000000f0: 005b be3a 2621 c3ba 748f f1b9 3c8d 41ba
00000100: 9873 7cb8 b4a4 9439 1b06 32ba 7887 9bb9
00000110: f0f2 013b c040 53ba bea2 48b9 aefe 9c39
00000120: 3151 9638 d318 213a f64c a939 d4bb 2d3a
00000130: badf 1d3a 25c0 3aba 5ea1 8f3a f8ef 3a3a
00000140: 91c7 693a 2f3c 8cb9 436e b8b9 097e 8c3a
00000150: 30ce b4b8 98a1 9d38 544d 2dba e3bb 70b9
00000160: 0031 df35 e5a8 11ba 9d1d 89b9 6780 1fba
00000170: c21e 59b9 7dc6 e539 8b7f 5cba 9e57 d8b9
00000180: 80bb 9b36 9e57 e8b9 86f0 5a3a 23e2 9eba
00000190: 7dd8 3aba df7c d7b8 5b36 18ba fb14 f638
000001a0: ab73 1bb9 c0d0 f237 5e67 f038 18f4 45ba
000001b0: 3e00 1e3a 7428 9fba bed3 8cb9 3d03 133a
000001c0: 04ea 6cba 66fa 38ba be27 20b9 9ec0 1cb8
000001d0: 73ff 9439 25bb 22ba 40a0 1a37 ad90 493a
000001e0: b85a 6e39 602d 31b9 2ebf 823a 7ea0 81b9
000001f0: 3d6f a138 d0e7 8937 c18c 543a ee53 a33a
00000200: d902 6bba 056e fa39 78b8 623a 3281 1639
00000210: 05a6 c939 c24f 14ba 8ad0 9939 bff3 0b3a

momentum_buffer f4 [8]
-0.0002204579 0.0006172442 9.333363e-05 -0.0009757555 0.0009856569 -0.0008155124 -0.00061155343 0.00082725304
00000000: b82a 67b9 8fce 213a 1cbc c338 d8c9 7fba
00000010: 2831 813a 1cc8 55ba a850 20ba 03dc 583a

momentum_buffer f4 [8, 8]
-8.905062e-05 -0.0004663805 -0.00045143976 0.00012742705 0.0011767854 0.00053968834 0.0012690662 0.00042115615
5.031121e-05 -0.0002053609 0.0007610992 -9.70141e-05 0.0008968323 -6.7683446e-05 7.8149315e-05 0.00046770723
0.0032248916 0.00054428953 -0.001329236 0.00019078341 -0.00033817184 0.000537569 -0.0033731717 -0.0007828857
-0.0009286474 0.00014360342 0.00075557 -0.000499808 0.000603219 -0.00015488351 0.0009068669 0.00068804616
0.0042241304 0.001048359 -0.0032013215 0.0025281084 -0.0021485812 0.0010212662 -0.003859124 -0.0003396431
-0.00023466085 -0.0006052584 4.01682e-05 0.0006085622 -0.00035808378 -0.0005974864 0.0008491511 0.0006970339
0.0019386855 0.00027815625 0.0015431452 -0.00063663453 -1.0860618e-05 -0.00010789074 1.0229764e-05 -0.00021452691
0.0 0.0 0.0 0.0 0.0 0.0 0.0 0.0
00000000: b0c0 bab8 8884 f4b9 38af ecb9 f09d 0539
00000010: 5e3e 9a3a df79 0d3a cc56 a63a 9fce dc39
00000020: 4005 5338 2656 57b9 8184 473a 0c74 cbb8
00000030: 6619 6b3a 46f1 8db8 18e4 a338 9a36 f539
00000040: b458 533b a7ae 0e3a c239 aeba 080d 4839
00000050: a84c b1b9 a5eb 0c3a 6e10 5dbb 923a 4dba
00000060: 7970 73ba 4094 1639 7211 463a 8c05 03ba
00000070: 5821 1e3a 3a68 22b9 cfba 6d3a ff5d 343a
00000080: 936a 8a3b 1769 893a 43cd 51bb 9fae 253b
00000090: 36cf 0cbb 02dc 853a 5be9 7cbb 2012 b2b9
000000a0: 4b0f 76b9 34aa 1eba 477a 2838 eb87 1f3a
000000b0: 31bd bbb9 a2a0 1cba 9199 5e3a 27b9 363a
000000c0: 7e1b fe3a 80d5 9139 5c43 ca3a d2e3 26ba
000000d0: 0036 36b7 6643 e2b8 80a0 2b37 a1f2 60b9
000000e0: 0000 0000 0000 0000 0000 0000 0000 0000
000000f0: 0000 0000 0000 0000 0000 0000 0000 0000

momentum_buffer f4 [8]
-0.00040257815 0.00031971154 0.0025504034 -0.00079750794 0.0034931682 -0.00015962808 0.00088658766 0.0
00000000: 2011 d3b9 f59e a739 ab24 273b da0f 51ba
00000010: a3ed 643b d661 27b9 e469 683a 0000 0000

momentum_buffer f4 [8, 8]
0.00026968346 -9.213595e-05 0.0005000763 0.003453462 -0.00037425375 -0.00015231971 -5.2304364e-05 0.0
-0.00014333187 0.0008593756 0.0012052386 -5.211896e-05 0.00094092457 3.1465886e-05 -5.6966887e-18 0.0
0.00058548315 -0.00020053335 0.0013559526 0.007906442 0.0005545791 0.0001420037 -0.000113566064 0.0
-0.00068852503 0.00023930454 -0.0015926338 -0.009292619 -0.0006488345 -0.00016658427 0.00013401386 0.0
-3.4054894e-05 -9.0285e-05 2.974751e-05 0.00035527517 6.560502e-05 1.542017e-05 -0.00010516719 0.0
0.0 0.0 0.0 0.0 0.0 0.0 0.0 0.0
0.00012567248 -0.0004040084 -0.0013896939 -0.0011441362 -0.0022504912 -0.000114604016 0.0 0.0
9.3744886e-05 0.00044621594 0.00028378304 0.00022836431 0.00018539274 -0.00010903211 0.00018154552 0.0
00000000: 4d64 8d39 1d39 c1b8 8d17 033a 7a53 623b
00000010: 7d37 c4b9 03b8 1fb9 6261 5bb8 0000 0000
00000020: 5b4b 16b9 b847 613a 19f9 9d3a 4f9a 5ab8
00000030: 61a8 763a 3dfa 0338 b42b d2a2 0000 0000
00000040: 1c7b 193a 4346 52b9 38ba b13a 058a 013c
00000050: 2c61 113a d4e6 1439 512a eeb8 0000 0000
00000060: 227e 34ba d3ed 7a39 ecbf d0ba 1240 18bc
00000070: 8c16 2aba 20ad 2eb9 1286 0c39 0000 0000
00000080: 2ad6 0eb8 6457 bdb8 4b8a f937 3a44 ba39
00000090: 6d95 8938 905a 8137 358d dcb8 0000 0000
000000a0: 0000 0000 0000 0000 0000 0000 0000 0000
000000b0: 0000 0000 0000 0000 0000 0000 0000 0000
000000c0: f3c6 0339 17d1 d3b9 6426 b6ba d7f6 95ba
000000d0: fa7c 13bb 9057 f0b8 0000 0000 0000 0000
000000e0: e798 c438 17f2 e939 b7c8 9439 1475 6f39
000000f0: fc65 4239 2ba8 e4b8 415d 3e39 0000 0000

momentum_buffer f4 [8]
0.0016781073 0.002563476 0.0047870656 -0.005626796 0.00021924794 0.0 -0.0021201994 0.0005651517
00000000: f0f3 db3a feff 273b d1dc 9c3b fc60 b8bb
00000010: ece5 6539 0000 0000 0bf3 0abb b026 143a

momentum_buffer f4 [1, 8]
-0.0032604805 -0.00058840174 -0.0052773333 -0.006392357 -0.000147294 0.0 -0.000586265 -0.0014262174
00000000: c9ad 55bb f93e 1aba 7bed acbb fa76 d1bb
00000010: ef72 1ab9 0000 0000 94af 19ba eaef baba
