src/logs/lightning_logs/version_61/checkpoints/epoch=99-step=400.ckpt (torch, 6603 bytes, 6 tensors)

layer1.weight f4 [8, 17]
000000 ab 67 97 3e f4 0e 5b be 00 b1 9a be 89 88 d5 3e
       0.2957128 -0.21392423 -0.30213165 0.4170573
000010 56 1d d4 bd 69 74 e4 bc d2 e8 cc bd 95 29 f1 bb
       -0.10357158 -0.02788754 -0.100053445 -0.0073596933
000020 fc 38 09 3e 10 b5 0a 3e 87 f8 f8 3d 91 6e e4 3c
       0.13400644 0.13545632 0.12156778 0.027884753
000030 bf 36 19 be 34 35 26 be 4b ff 81 be f6 1e 7a 3d
       -0.1496229 -0.16231233 -0.25390086 0.061064683
000040 e1 31 3b 3d f1 9c 35 bd 95 4e 14 be 61 b5 79 3d
       0.045701865 -0.044339124 -0.14483102 0.060963992
000050 04 cd 6c bc 50 34 02 bc c5 35 1c 3c 31 e1 58 be
       -0.014453176 -0.007947043 0.009534304 -0.21179654
000060 21 3b 5f 3c 53 5d 80 bd 8e e5 c2 bd 18 68 a4 bd
       0.013624937 -0.062678 -0.0951644 -0.08027667
000070 50 1c 49 3e f3 88 11 be 8c 91 06 3d f0 15 be 3d
       0.19639707 -0.14212398 0.032853648 0.09281528
000080 e6 a7 00 3c 3b b4 42 be 05 1a 25 be ce 5c e3 3e
       0.00785253 -0.19014065 -0.16123207 0.44406742
000090 ff a8 1c 3d 10 3b d6 be a0 9e ad 3e c7 99 16 bd
       0.038247105 -0.41841936 0.33910084 -0.036767747
0000a0 7a 03 b2 3e 8f 2f a5 be 42 03 ac 3d 12 58 63 3d
       0.34768277 -0.32262847 0.08399059 0.055503912
0000b0 db 02 4b 3e 54 08 f5 3e eb 90 7f bd 57 89 19 be
       0.19825308 0.47857916 -0.062394064 -0.14993797
0000c0 e3 86 25 bf db c3 a5 be 75 80 5d be 9f 6e 38 be
       -0.64658946 -0.32375988 -0.21631034 -0.18010949
0000d0 ca 78 13 be 0e 4b 5d be 13 93 8a 3d 85 dd 3f 3e
       -0.14401546 -0.21610662 0.067663334 0.18736847
0000e0 75 7e 01 be eb 1f 12 be ed 23 83 3d 74 bf ed 3d
       -0.12645896 -0.14269988 0.06403337 0.116087824
0000f0 37 c4 97 3d 50 f9 20 be 20 f2 22 3e ec 8a 26 be
       0.07410472 -0.15720105 0.15912676 -0.16263932
000100 84 30 59 3d c7 47 a7 bc 81 91 1a bd 76 28 64 be
       0.053024784 -0.020419968 -0.03773642 -0.2228106
000110 fa 3d 89 3f f7 1f 2d be a8 e4 89 bf c6 d4 99 bf
       1.0722039 -0.16906725 -1.0772905 -1.2018058
000120 3f b1 34 be d5 2f be 3f 27 64 60 3e 51 07 9b be
       -0.17645739 1.4858347 0.21913205 -0.3027902
000130 60 47 0b be 82 15 2f 3e 5c 84 7a bd b1 c1 c5 be
       -0.13601446 0.17098048 -0.061161384 -0.38624337
000140 7d 4d 19 be 90 55 09 be 6d 19 84 3f d6 12 90 3e
       -0.14970966 -0.13411546 1.0320259 0.2813937
000150 b9 02 00 bc 94 ed a4 3f 57 31 ae bf 7a b1 9e 3e
       -0.007813149 1.2885003 -1.3608807 0.3099478
000160 b0 c8 66 3e 30 1d 8c bf bb 5c 8b 3f 65 20 73 3e
       0.22537494 -1.0946407 1.0887674 0.23742826
000170 35 ec de 3a 5c 10 aa 3e 33 4b 01 3e 5c a4 99 3d
       0.0017007651 0.33215606 0.12626342 0.07502052
000180 34 ba 9d 3f 04 82 37 bf bc 2e 86 be da dd 88 3e
       1.232245 -0.71682763 -0.2620753 0.2673176
000190 92 f4 a0 3e cd 6e 2e be f5 37 ea bd 12 e8 97 bd
       0.31436592 -0.17034455 -0.11436454 -0.07417311
0001a0 64 a6 c3 bd 33 f7 67 bd fb 3f 82 be 6b bf 14 bd
       -0.09553221 -0.056632232 -0.25439438 -0.036315363
0001b0 31 c4 8c bd 56 6c 9c bd 4c 3c 01 bd cb 17 1b bd
       -0.06873358 -0.07637851 -0.031551644 -0.037864488
0001c0 8b ce ba bd 8f e3 14 be 0c 56 c8 3d 3c d7 29 be
       -0.09121426 -0.14539932 0.09782037 -0.16586012
0001d0 65 a3 bd bd bd fe b5 3d c8 f2 8a bd 4d 52 90 bf
       -0.09259681 0.08886478 -0.06784588 -1.1275116
0001e0 ad 2c 7b 3f 34 73 ad 3d 5a 60 9b bf 27 ab 0a 3f
       0.98115045 0.08469239 -1.2138779 0.5416741
0001f0 e3 ef 51 3f 1d 4b e2 3e ac 9d 75 be 26 7e 35 3e
       0.82006663 0.44197932 -0.23985928 0.17723903
000200 5c aa b7 be 5c 9f c4 3d f5 a9 56 3f 45 03 66 be
       -0.3587216 0.09600708 0.83853084 -0.22462185
000210 89 c9 3b bf 20 63 60 bd cc 4e 31 be 4a 56 87 3e
       -0.73354393 -0.054782033 -0.17315215 0.2643302

layer1.bias f4 [8]
000000 c4 ee 0c be ec c6 0d be a7 40 a7 3d 9c d2 83 be
       -0.13762957 -0.13845414 0.08166628 -0.2574662
000010 fd 1f eb 3d 93 5c 74 3e c7 4b d7 3d 0b 32 a7 3d
       0.11480711 0.2386344 0.105125 0.08163842

layer2.weight f4 [1, 8]
000000 fc 16 02 3f a0 69 8f bd bb 58 8d 3f 60 74 20 be
       0.5081632 -0.07002568 1.1042703 -0.15669394
000010 96 aa 2b c0 cd 74 2f 40 72 cb b8 bd 52 4e 1d 40
       -2.6822867 2.741504 -0.09023179 2.4579053

momentum_buffer f4 [8, 17]
000000 38 7d 50 bb e6 dc e4 3a d0 4d ee 3a f0 2e 41 bb
       -0.0031812917 0.0017460852 0.0018181149 -0.002947744
000010 15 8f a3 39 2f d5 45 3b 7a 3a 26 b9 27 ef 0d 3a
       0.00031196387 0.0030186882 -0.00015852778 0.00054143596
000020 a2 60 06 39 2a 80 a6 b9 78 08 16 3a ef 16 cd b9
       0.00012815234 -0.00031757477 0.0005723308 -0.00039117734
000030 9b f6 d7 38 66 86 b1 39 fb 53 ae 39 24 b4 68 39
       0.00010297933 0.00033860205 0.00033250437 0.00022192352
000040 0b ce 28 39 b1 19 04 1f ac ef a0 1d 14 16 23 36
       0.00016098486 2.797334e-20 4.2599462e-21 2.4301744e-06
000050 0c 8e e0 1c 0b 16 23 36 94 04 35 2c 9c 8d 98 1d
       1.4859795e-21 2.4301723e-06 2.5724188e-12 4.0380486e-21
000060 14 16 23 36 f3 8e f2 34 0b 4a e3 1c 37 c4 04 36
       2.4301744e-06 4.5180022e-07 1.504074e-21 1.9783745e-06
000070 14 16 23 36 00 00 00 00 00 00 00 00 f1 c9 b3 1f
       2.4301744e-06 0.0 0.0 7.614353e-20
000080 14 16 23 36 e5 8a d4 1d 5b 87 da 3a 54 c8 80 ba
       2.4301744e-06 5.6259546e-21 0.0016672419 -0.0009825327
000090 da 90 84 b9 95 b1 90 3b 74 60 d0 bb 28 ab 1b 3b
       -0.00025284925 0.0044157007 -0.0063591544 0.002375314
0000a0 9a 94 19 bb 02 e2 35 3b d9 98 d4 3a 93 9d 47 bb
       -0.002343452 0.002775312 0.0016219869 -0.0030458912
0000b0 1d 3d f3 3a 34 38 48 ba 32 80 e9 b9 d5 3b 22 bb
       0.0018557642 -0.00076377694 -0.00044536736 -0.00247549
0000c0 a8 e3 86 3b 73 06 40 37 16 6b dc 39 d3 2b e8 1e
       0.004116494 1.1445593e-05 0.00042041455 2.458208e-20
0000d0 67 d6 0d 37 d3 b0 87 35 ca b6 bd 1e 83 cc 1e 37
       8.454174e-06 1.0109746e-06 2.0086753e-20 9.4651505e-06
0000e0 00 00 00 00 61 2c 31 1d 83 cc 1e 37 83 cc 1e 37
       0.0 2.3448698e-21 9.4651505e-06 9.4651505e-06
0000f0 d3 2b e8 1e de 3a 8e 1c 83 cc 1e 37 00 00 00 00
       2.458208e-20 9.411989e-22 9.4651505e-06 0.0
000100 ca b6 bd 1e a3 27 ac 9d 83 cc 1e 37 f9 d4 b0 1d
       2.0086753e-20 -4.5569004e-21 9.4651505e-06 4.680702e-21
000110 ce a7 04 bc bf 4d 6e 3b 62 7b cd 3b 49 94 2c 3c
       -0.008096648 0.0036362258 0.006270812 0.010533401
000120 c7 a3 98 3b df 3c 5b bc fb dd 80 bb 98 30 bc 3b
       0.0046581957 -0.013381212 -0.003932712 0.0057430975
000130 d2 15 5e bb d2 73 5d 3a 10 af 8e 3b 09 c5 3c 3a
       -0.0033887518 0.00084477395 0.004354365 0.00072009914
000140 06 ec 7c b9 13 fd 8c 3b 63 b7 42 bb 9e e0 e0 ba
       -0.00024120518 0.0043026297 -0.0029711358 -0.0017156785
000150 90 15 67 3b 16 20 39 bc 74 07 0f 3c 3b 49 b5 bb
       0.0035260655 -0.011299154 0.008729804 -0.0055324114
000160 b4 ef d3 3a d9 b7 81 3b 22 17 60 bc 5b 03 de bb
       0.001616946 0.003958684 -0.01367739 -0.0067753023
000170 98 dc ad ba 7c 2c 30 ba d4 57 02 bc b5 d5 09 3a
       -0.0013264595 -0.0006720496 -0.00795551 0.000525798
000180 6f 01 1b bb 7a f6 1f ba 90 8f ef 39 f6 f3 b6 bb
       -0.0023651978 -0.00061020965 0.00045692595 -0.0055832816
000190 3a 96 29 bb 66 af b4 bb 33 07 44 b8 93 78 ae b6
       -0.0025876896 -0.005514073 -4.6736746e-05 -5.199641e-06
0001a0 bb 36 40 38 1b 75 7d 38 7d 09 05 1f 52 8a 8b b8
       4.582734e-05 6.0428963e-05 2.8171694e-20 -6.653801e-05
0001b0 c9 a2 80 b8 08 a6 67 38 05 5f 0e b8 c1 cf 41 b7
       -6.133837e-05 5.522932e-05 -3.3943932e-05 -1.1552068e-05
0001c0 6d 33 25 38 cc 6d 5d 20 50 fc cc b6 84 12 ba 9d
       3.938696e-05 1.8755757e-19 -6.109047e-06 -4.9252935e-21
0001d0 3f b5 aa 9d 50 fc cc b6 87 c3 d8 1f f0 00 85 3b
       -4.518603e-21 -6.109047e-06 9.180303e-20 0.0040589496
0001e0 d1 c7 05 bc 6f 70 90 3b 8f 08 ba 3b 13 5b d6 ba
       -0.008165316 0.0044079344 0.00567729 -0.0016354047
0001f0 17 20 75 bb 2d b7 f3 b9 86 e9 48 3a 20 23 ab ba
       -0.003740316 -0.00046485048 0.0007664192 -0.0013056733
000200 e5 fb aa 3a b8 b8 9e 39 d8 ed 13 bb 3c 2e 33 3a
       0.0013045041 0.00030273735 -0.0022572186 0.00068351976
000210 ee 7b a0 3a 27 9f 2a 3a 5c 6e 1d 3a d5 c0 9c b9
       0.0012243965 0.0006508701 0.00060055195 -0.0002989831

momentum_buffer f4 [8]
000000 1a c1 c8 39 14 16 23 36 4e 6b e2 39 83 cc 1e 37
       0.00038290845 2.4301744e-06 0.00043186027 9.4651505e-06
000010 7e 4a ed 3a 42 bd 04 bc 50 fc cc b6 d8 1b 9e 39
       0.0018103865 -0.008101763 -6.109047e-06 0.00030156854

momentum_buffer f4 [1, 8]
000000 4e 6f d8 bb e9 25 01 b6 8a 46 02 bc 36 b6 a1 b6
       -0.0066050654 -1.9244565e-06 -0.007951388 -4.819386e-06
000010 bd 2b aa 3c b2 23 a5 bc 53 a6 22 38 d7 01 35 bc
       0.02077281 -0.020158622 3.877871e-05 -0.011047802
