src/logs/lightning_logs/version_5/checkpoints/epoch=52-step=212.ckpt (torch, 8699 bytes, 11 tensors)

model.linear_input.weight f4 [8, 17]
00000000: 9da6 babe d704 a53e 9045 0ebf d6ee d2be
00000010: 9bc2 113f 9a73 bb3e d720 f3bd 7897 173f
00000020: 5ca5 d63e 49f0 4ebe 208b 9fbe ec42 13be
00000030: 40aa aebe c3b3 7fbe d6fb 913e f45c d33d
00000040: ddcc 203e a7ac f13e 92fc fabd 5f2f 25bf
00000050: e227 113f e1d6 b2be 2d90 b2bd fdbc 29be
00000060: 5a02 1fbe 2c86 1b3f 30cb cabe af64 a3be
00000070: 5220 7fbf 0d99 5b3d d528 233f 8322 93bd
00000080: 1ba4 b83d 41c9 7f3e 9c53 d9be 5a99 103e
00000090: 9906 bc3e fe1a 163e c0c1 573d 1fb1 ca3e
000000a0: 6b28 c13e bcb8 4fbe 34aa 07bf 92ea c43d
000000b0: 2bf0 4a3d f78c 32bf a16f b7bd c75e 1f3e
000000c0: 553f 1a3f 73d8 cdbc 0e24 3f3f 98fc 64be
000000d0: 2b7b f5bd d735 a9bd 6c5e 953e 2ee6 13bf
000000e0: dba1 843a fd6c 1cbe dd34 debd ae26 bf3e
000000f0: c15e 02be b939 13be c958 7fbe 80c9 e4be
00000100: d6b9 05bd 432b 703e f723 45be f169 24bc
00000110: 3be8 c6be 8263 c73e 1d24 0a3e fe7e 8dbd
00000120: 867d d2be 961e 0b3f 36d5 37be 1a39 913e
00000130: e10d 113f 9f24 4ebd e2a8 5dbe cf65 2f3f
00000140: df65 73bb 2c3c b4bd 219f 47be ef86 f8be
00000150: d3a8 123e 8fff 4bbe 49c3 c23e c6f7 b03e
00000160: 9c61 21bf e8a5 9d3e b1e0 593f 17ee 6f3e
00000170: 1fcb 973b 55b2 aa3e 6c08 3dbe 50d0 213f
00000180: b831 adbc 4a8f 02bf 0921 943e 8efe 1dbd
00000190: 8b6f 5cbf 20fc 8d3e a456 c1be f200 eebd
000001a0: fb5a b33c c492 123f 7ca3 663e f011 febe
000001b0: 16a3 a2bd 09c4 ddbe 71d5 d23e 3685 efbe
000001c0: 3ca1 f7be 04e0 e23e 401a 6d3e 1858 fdbd
000001d0: 51b4 40be bc14 febd 53b9 f03d 3a8b 67bf
000001e0: 15a7 1b3f 4d02 a33e 5318 aebe f8dd 5e3e
000001f0: d5c8 3c3f a33c b43e 2e44 81be 34c8 353f
00000200: 44ce 1cbf f706 4bbe f441 2b3f 7685 bdb9
00000210: 6a41 e03e 645c 0dbf 6257 f8be c467 a93e
-0.3645524 0.32230255 -0.55574894 -0.41197842 0.5693757 0.36611634 -0.11871498 0.592155
0.41923034 -0.20208849 -0.3116083 -0.14380997 -0.34114265 -0.24970917 0.28512448 0.10320464
0.15703149 0.47202036 -0.12255205 -0.6452541 0.5670148 -0.34929565 -0.087189056 -0.16576
-0.15528241 0.60751605 -0.39608145 -0.31912753 -0.9965869 0.053612757 0.6373418 -0.07184317
0.09015676 0.24979116 -0.424466 0.14120999 0.36723784 0.14658734 0.05267501 0.39588258
0.3772615 -0.20285314 -0.52994084 0.09615053 0.04954545 -0.69746345 -0.089568384 0.15563498
0.60252887 -0.025127625 0.7466439 -0.22361982 -0.11986383 -0.08262222 0.291736 -0.577731
0.0010119037 -0.1527595 -0.108499266 0.37334198 -0.12731458 -0.14377488 -0.24936213 -0.44684982
-0.03264793 0.23454003 -0.19252001 -0.010035024 -0.38849053 0.38943106 0.13490339 -0.069089875
-0.41111392 0.54343545 -0.17952427 0.28363878 0.566618 -0.050327893 -0.21646455 0.6851472
-0.0037139577 -0.088005394 -0.19494297 -0.48540446 0.14322214 -0.19921707 0.38039616 0.34564036
-0.63039565 0.3079064 0.85108477 0.23430668 0.004632368 0.33339182 -0.18460244 0.63208485
-0.021141872 -0.5099989 0.28931454 -0.03857284 -0.861077 0.2773142 -0.37761414 -0.11621274
0.021893969 0.57255197 0.22523302 -0.4962306 -0.079412624 -0.43313625 0.41178468 -0.4678132
-0.483652 0.44311535 0.23154545 -0.12370318 -0.18818785 -0.124062985 0.11754098 -0.9044682
0.6080182 0.31837693 -0.34002933 0.21764362 0.73743945 0.35202512 -0.2524733 0.7100861
-0.61252236 -0.19826876 0.6689751 -0.00036148325 0.43799907 -0.552191 -0.48504168 0.3308698

model.linear_input.bias f4 [8]
00000000: 458c 993d 54c3 f03e abcb 783e 3dac 87be
00000010: 1dee 7ebe ab71 66be 6157 40be 4e87 b93e
0.074974574 0.47024024 0.24296443 -0.26498595 -0.2489552 -0.22504298 -0.18783332 0.36236042

model.linear_1.weight f4 [8, 8]
00000000: 3767 373f 4fb3 0bbf a8f0 26be 875a 2d3e
00000010: 789a 803e cb71 b0be 6408 02be 465f 4abd
00000020: f65f d63e dfd0 453f 7b96 983e 269d 643d
00000030: fa7f 43bd fa55 7cbd ffa7 f8be b72b ae3e
00000040: be98 173e b1dc 47bf 1e9c 8abd 9ea0 02bf
00000050: b082 333e 6998 713e e16c 6cbe b46e ae3e
00000060: 19ea 01bd e2d8 58bf ec17 8d3d 8def 9fbe
00000070: 7497 1b3f d52a 883e 7f26 9bbe 402c 033f
00000080: 623c c2bd 0a16 1e3e 9e88 313f 852e cebe
00000090: 0d2e 7bbf 1384 a8be c9f2 2cbf d8a4 81bf
000000a0: fbc1 de3e 62f7 2abf fe1c ebbd 5413 a1be
000000b0: 7c1a 54be 3a9a 08be c018 0c3e 6e7b 833e
000000c0: f095 63bd bd09 82be 2426 bc3e e71f a8be
000000d0: 1816 d3bd d6a1 81be 6a1a ec3d eea5 03bf
000000e0: 5480 b2be d828 493e b108 5ebf a8fd bcbd
000000f0: 476e f9be c633 bebf 1fab b13e 939f 89bf
0.7164187 -0.5457048 -0.1630274 0.16929065 0.2511785 -0.34461817 -0.12698513 -0.049407266
0.41870087 0.77271837 0.29802307 0.05581393 -0.04772947 -0.06160543 -0.4856567 0.34017727
0.1480436 -0.78071123 -0.06768058 -0.5102633 0.17530322 0.23593296 -0.23088409 0.34068835
-0.031717394 -0.84705937 0.06889328 -0.3123745 0.60777974 0.26595178 -0.30302808 0.51239395
-0.09484173 0.15438095 0.69349086 -0.40269867 -0.9811714 -0.32913265 -0.6755796 -1.0128431
0.4350737 -0.66783726 -0.11480139 -0.3146006 -0.20713228 -0.13340083 0.13681316 0.25680107
-0.055562913 -0.25398055 0.3674785 -0.3283684 -0.103069484 -0.25318784 0.115284756 -0.51425064
-0.34863532 0.19644487 -0.8673201 -0.092280686 -0.48716947 -1.485955 0.34700868 -1.0751823

model.linear_1.bias f4 [8]
00000000: dae1 6f3e 3947 ae3d 340c 4c3e fc53 5dbe
00000010: 2685 bdbd c0a6 d43e 6be0 58be 0671 8c3d
0.23426 0.085096784 0.1992653 -0.21614069 -0.09253912 0.4153347 -0.21179359 0.06857495

model.layer_output.weight f4 [1, 8]
00000000: 9ac1 453f 4fbd 35bf 3426 493f 8bdd 8a3f
00000010: 94b2 c7bf 2e73 033f 7ebb 13bf 073a 0240
0.7724854 -0.70991987 0.7857392 1.084886 -1.5601373 0.51347625 -0.57707965 2.0347917

best_score f8 []
00000000: 9a61 005a a328 bd3f
0.11390133807470307

momentum_buffer f4 [8, 17]
00000000: 5362 803c e383 31bc ae38 23bb 69b4 fc3b
00000010: 83b4 ddbb 3995 b73a 50ed 603c b67a 3abc
00000020: 6a99 8ebb 4cf2 f73b 6a9d 63ba b347 deba
00000030: 4a21 263b c04a fd3b 43e4 cbbb 30dd c7bb
00000040: 3261 0a3c 0961 70bc 77c5 bb3c ee82 ccbc
00000050: 13cb 3dbc 82fd 77bc a2ec 233c 3640 7fbc
00000060: 11de 94ba b660 83bc 0046 95b9 130a ceb9
00000070: 3503 103c 03a7 c53c 332b bbbc 616b dbbc
00000080: 92e7 3bb9 2c76 87bc e9e3 0c3c cda9 f1ba
00000090: 0687 a7bc 76fc 2d3c b6cd 97bc cc80 bdbb
000000a0: 062a 31bc 52d5 3cbb 61f0 083c 51b0 afbc
000000b0: 9ef1 1eba 5b16 663b 3179 f03b 9eea edbb
000000c0: 1e96 8dbc 2fa6 ba3a 1db4 77bc 0dd7 03bc
000000d0: 3b3d 223c f4c4 caba 55d1 afbb 5e18 64ba
000000e0: 7f6f d63b 58a4 573b 1e6e 43bb 7469 62bc
000000f0: c613 843c 31c2 02bb b5cc b33a 3d91 393c
00000100: b137 e6bb d4c2 afbb a7b4 30ba cac6 803a
00000110: 54d7 703b e81e 88bb 489c 773c 00a7 223a
00000120: c8ac 5a3c 30b7 2e3a 6fcc be3c 34d6 0dbc
00000130: e2e2 d0bb 965a a63c 12ef 373a 2096 a9bb
00000140: 1270 46bc 3a0f fb3b 16bb c63c 9491 143c
00000150: 2462 b63b 3156 323c 29a0 bebb 24fd 873b
00000160: 961f 4b3c ce95 2c3c b5b0 60bc c5f8 423c
00000170: 4ed0 2fbb 7a5a 553b 3e58 d93b c7e0 2fba
00000180: 8b64 41ba 35c6 4cb9 225b a1bb a6fb 763c
00000190: 9061 3f3c 8073 21bb 929a 2ebc afee 223c
000001a0: e162 213c 7290 18bc 29e4 0c3c 4563 213c
000001b0: f4ab 3e3b f917 cc3b 4acd 14bc 7d34 5d3c
000001c0: 959f 9a3b 1796 abba 1d06 c83b 3621 6dbb
000001d0: 006f 023c 5f54 e33b 3433 103b 35da 7d3c
000001e0: 367c 37bc 9012 863c 513e 043c 0b56 bb3c
000001f0: 4667 28bc 7949 033d c4a2 3abc 2547 9abb
00000200: 34b6 d23c 8ab6 b8b9 6a46 8ebb 9320 51bc
00000210: c3df c43b c215 023d 7eb3 4d3c a0cf 043c
0.015671885 -0.010834667 -0.002490561 0.0077119363 -0.0067659034 0.0014006264 0.013728455 -0.011381796
-0.0043517845 0.007566726 -0.00086828193 -0.0016958624 0.0025349432 0.007729858 -0.0062222793 -0.0060993657
0.008446025 -0.0146715725 0.022921307 -0.024964776 -0.011584061 -0.015136125 0.010005148 -0.015579274
-0.0011357685 -0.016037326 -0.0002847165 -0.00039298888 0.008789827 0.024127489 -0.022847747 -0.0267846
-0.00017919976 -0.01653584 0.00859926 -0.0018437445 -0.020450126 0.010619273 -0.018530708 -0.005783176
-0.010813242 -0.0028813672 0.008358092 -0.021446379 -0.00060632254 0.003510854 0.007338666 -0.0072606346
-0.017283496 0.00142402 -0.015118626 -0.008046878 0.009902294 -0.0015470074 -0.0053655305 -0.0008701141
0.006544053 0.0032904353 -0.0029820274 -0.013819087 0.01612271 -0.0019952173 0.0013717624 0.011326131
-0.007025682 -0.0053638015 -0.00067407865 0.0009824869 0.003674944 -0.004154075 0.015112944 0.00062046945
0.013346858 0.00066648703 0.02329084 -0.008657027 -0.006374703 0.020306867 0.000701652 -0.005175367
-0.012111681 0.0076617273 0.024259131 0.009067912 0.0055658985 0.010884807 -0.0058174324 0.0041500498
0.012397667 0.010533763 -0.013714005 0.011900132 -0.002682704 0.003255515 0.0066328337 -0.00067092146
-0.0007377348 -0.00019528794 -0.004924194 0.015074646 0.011680976 -0.0024635494 -0.01065697 0.009944602
0.009850235 -0.009311782 0.0085993195 0.009850328 0.0029094191 0.0062284437 -0.009082148 0.013501284
0.0047187307 -0.0013090995 0.0061042444 -0.0036183125 0.007961035 0.006937548 0.0022003176 0.015493919
-0.011199048 0.016366273 0.008071498 0.022868177 -0.010278529 0.03205249 -0.011391345 -0.004708188
0.025721647 -0.00035231217 -0.00434189 -0.012764114 0.00600812 0.03175903 0.012555001 0.008106142

momentum_buffer f4 [8]
00000000: 67ca 193b feed 88bc 5a5f 60bc d0b1 a139
00000010: aac2 6f3c b204 173c ffb6 153c 8f41 a93c
0.0023466588 -0.016715046 -0.013694609 0.00030840794 0.014633814 0.009217428 0.009137868 0.020661144

momentum_buffer f4 [8, 8]
00000000: b821 c3bc 8007 693c 0329 2a3c 3909 153b
00000010: 3ef0 7a3b e082 df3b e6b5 12bb 7839 d43b
00000020: 8a3a 50bc 761e ec3b 5c99 48bc 68f4 523b
00000030: 4ca0 83bb 2eb2 d3bb c995 05bb 12b3 19bc
00000040: 2564 e7bb 193c 803c 053c 453c a0b2 11ba
00000050: 35e6 70bc 0bdb 943b b8d3 4b3a d05f d9bb
00000060: 0890 253c c0d3 123c 433f 503c 0219 6b3c
00000070: d6cd 71bc 4d40 153c 2a58 663b 1b0e 57bb
00000080: d817 15ba b80a de3c fa9a 20bd 080e 9e3c
00000090: 6fcd 9a3c 20b6 19bc c04f e73c fa03 8a3b
000000a0: 4a4e 4cbb f87d 223c 5fd5 f13b 20b1 1bbb
000000b0: 7648 6abc c245 e5ba d0f1 b8ba 370f 1cbc
000000c0: 7cd3 4ebb ccc8 403c e682 d0bc 8e3c 0d3c
000000d0: e224 603c 50ac 07bb 7a90 adbb f2f5 823b
000000e0: b4ce 543c dcf9 4abc 2e3f 373c cc7f 383a
000000f0: dc08 1b3c df81 cb3c 3132 02bc 1ed2 9f3c
-0.02381979 0.01422298 0.0103857545 0.0022741093 0.0038290168 0.0068210214 -0.0022386252 0.0064765774
-0.012709269 0.0072057797 -0.012243595 0.0032189135 -0.0040169116 -0.0064604497 -0.0020383468 -0.009381073
-0.0070614987 0.015653657 0.012038236 -0.0005557928 -0.014703323 0.0045427135 0.0007775384 -0.006633736
0.0101051405 0.008961618 0.012710395 0.014349224 -0.014758548 0.009109569 0.0035147765 -0.0032814804
-0.0005687452 0.02710472 -0.039210297 0.0192938 0.018896786 -0.009381801 0.02823627 0.0042119
-0.0031174594 0.009917729 0.007380172 -0.0023756698 -0.014299503 -0.0017492103 -0.0014110152 -0.009525112
-0.003155916 0.011766624 -0.025453042 0.008620394 0.013680669 -0.0020702071 -0.005296764 0.003996604
0.012988735 -0.012388673 0.011184497 0.0007038086 0.009462561 0.0248422 -0.007946537 0.019509371

momentum_buffer f4 [8]
00000000: de0a 42ba 4c31 dbbb da27 fe3b 28a5 043b
00000010: 334a 4ebc 9108 d13b 9269 03bc 9f6d dbb9
-0.0007402132 -0.0066892263 0.0077562155 0.0020240042 -0.012590933 0.006379195 -0.008020775 -0.0004185261

momentum_buffer f4 [1, 8]
00000000: 42fa 13bd 1cdc e43b cebd a4bc 2933 97bc
00000010: bde4 2e3d 2c34 17bc 9a39 ee3c 610c 25bd
-0.036127336 0.006984247 -0.020110037 -0.018457012 0.04269861 -0.009228747 0.029080201 -0.04029501
