src/logs/lightning_logs/version_2/checkpoints/epoch=30-step=124.ckpt (torch, 8699 bytes, 11 tensors)

model.linear_input.weight f4 [8, 17]
0	0xbf41f1aa	-0.75759375
1	0x3ef115ee	0.47087044
2	0x3e41e388	0.18934453
3	0xbeec8cf6	-0.46201295
4	0x3ec39344	0.38198292
5	0x3e6a8366	0.22901687
6	0xbe4c934d	-0.19978066
7	0xbee6178d	-0.44939843
8	0x3d3f4f95	0.046706755
9	0xbeb8439d	-0.35989085
10	0xbddb33ab	-0.10703214
11	0x3f2cb601	0.67465216
12	0xbeaddd16	-0.33957738
13	0x3e788ba0	0.24272013
14	0xbdcb41fa	-0.099246934
15	0xbed36a25	-0.4129192
16	0x3e729c39	0.23692407
17	0x3f0aeb1e	0.5426501
18	0xbf6cc88a	-0.924935
19	0x3f586b40	0.8453865
20	0xbeff78a7	-0.49896738
21	0x3f1e9616	0.6194776
22	0xbda0496a	-0.078265026
23	0x3ed8cdff	0.42344663
24	0x3e301bcd	0.17198105
25	0xbe47fd25	-0.1953016
26	0xbd5ce23b	-0.053926688
27	0x3ed70245	0.4199392
28	0xbda72675	-0.08161632
29	0xbeb50e57	-0.35362503
30	0xbf001a39	-0.5004001
31	0xbe30f74a	-0.17281833
32	0xbb832ce1	-0.0040031527
33	0x3e6281bd	0.22119804
34	0x3e39bb3c	0.1813783
35	0x3dc02829	0.0938266
36	0xbeb5ad97	-0.35484
37	0x3d957ef7	0.07299607
38	0x3f7e3def	0.99313253
39	0xbf1e6030	-0.6186552
40	0x3eb262f5	0.34841123
41	0x3dccb403	0.09995272
42	0xbe9e5b23	-0.30928907
43	0xbe741826	-0.23837337
44	0xbda68f0d	-0.081327535
45	0xbd513515	-0.051076014
46	0x3ccf646f	0.025316445
47	0xbea179b6	-0.3153817
48	0xbe13e24e	-0.14441797
49	0x3ec7503d	0.38928404
50	0xbe552247	-0.20813857
51	0x3e23e084	0.16003615
52	0xbe14f227	-0.14545499
53	0xbf0db1ae	-0.5534924
54	0xbe5a4dae	-0.21318695
55	0xbe60c2a6	-0.21949252
56	0xbec918d8	-0.39276767
57	0x3e865dfb	0.26243576
58	0xbe011e80	-0.12609291
59	0xbdd9d80e	-0.10636912
60	0x3dfbe5b0	0.12299669
61	0x3d451741	0.04811788
62	0xbe1b371b	-0.1515774
63	0x3e0b7f79	0.13622846
64	0x3ea4c345	0.3218023
65	0xbea20e52	-0.3165155
66	0xbdf503d2	-0.11963619
67	0xbe55110a	-0.20807281
68	0xbf06ddaf	-0.5268201
69	0xbe6357f2	-0.22201517
70	0x3db522ea	0.0884455
71	0x3e80103d	0.2501239
72	0xbe4c847e	-0.19972417
73	0xbdc03d9c	-0.09386751
74	0xbe045548	-0.12923157
75	0xbe7620c3	-0.24035935
76	0x3ed9b430	0.42520285
77	0xbf2413ad	-0.6409252
78	0x3bb0856e	0.005387
79	0x3f7b0697	0.9805693
80	0xbf12e6a3	-0.57383174
81	0xbe529e21	-0.20568134
82	0xbe0c2cae	-0.13688919
83	0xbd20591a	-0.039147474
84	0xbe86b449	-0.26309422
85	0x3da0ff91	0.078612454
86	0xbc9774ba	-0.018488277
87	0x3cc27908	0.023739353
88	0xbe8eb55e	-0.27872747
89	0x3f058def	0.521697
90	0x3ea3ea5c	0.3201474
91	0xbde5b018	-0.11215228
92	0xbe9f30cd	-0.3109192
93	0x3e4988a8	0.19681036
94	0x3e5ab2c5	0.21357258
95	0xbedd531f	-0.4322748
96	0xbca97898	-0.020687386
97	0x3da10a42	0.07863285
98	0x3d535ca6	0.05160203
99	0xbe37561f	-0.17903946
100	0xbd2b2622	-0.041784413
101	0x3e5075ad	0.2035739
102	0xbdc906bf	-0.0981574
103	0x3d8cc58d	0.06873617
104	0xbe0e4cfa	-0.13896552
105	0x3e28d6b2	0.1648815
106	0xbf043817	-0.51648086
107	0xbe57ac0b	-0.21061723
108	0x3f135293	0.57547873
109	0xbe15c6b5	-0.14626582
110	0x3ec5a1bb	0.38599953
111	0x3ee5f90c	0.4491657
112	0xbcd18503	-0.02557612
113	0x3ecb6037	0.39721844
114	0x3d1ae65b	0.03781734
115	0x3ec0266b	0.3752931
116	0xbdff8fda	-0.124786094
117	0xbe88783f	-0.2665424
118	0xbdfa8eb7	-0.12234252
119	0xbedc82c9	-0.4306853
120	0xbed3cd3a	-0.41367513
121	0xbf14dac5	-0.58146316
122	0x3d2f7bd1	0.04284269
123	0x3d0b17e7	0.033958342
124	0xbe178489	-0.14796652
125	0x3c07a041	0.008277954
126	0x3e39118b	0.18073098
127	0xbecc5b1b	-0.39913258
128	0x3d1a3458	0.037647575
129	0xbceadba5	-0.028669188
130	0xbf9b2f90	-1.212389
131	0x3c567990	0.013090506
132	0x3f14bf3f	0.5810432
133	0x3f0611a4	0.5237067
134	0xbed8aef8	-0.4232099
135	0xbeaf2673	-0.34209022

model.linear_input.bias f4 [8]
0	0x3dc5bf14	0.09655586
1	0xbec8d1c9	-0.39222553
2	0x3e086d88	0.13323033
3	0xbc60aefb	-0.013713594
4	0x3e6b868a	0.23000541
5	0xbeae68c7	-0.34064314
6	0x3ebfefad	0.37487546
7	0x3dda27e5	0.106521405

model.linear_1.weight f4 [8, 8]
0	0xbf071357	-0.52763885
1	0x3f43ffdd	0.7656229
2	0x3e99b62f	0.30021808
3	0x3d82b68f	0.063824765
4	0xbe8c984d	-0.27459946
5	0x3edc88d8	0.43073153
6	0xbc126a9b	-0.00893655
7	0x3e42314d	0.1896412
8	0x3e9f111c	0.3106774
9	0x3e33a55d	0.1754355
10	0x3ddc8100	0.10766792
11	0x3e08ea8e	0.13370726
12	0xbe307700	-0.17232895
13	0x3ec9158b	0.39274248
14	0x3dbd7850	0.092514634
15	0x3e863580	0.26212692
16	0x3e14ce37	0.1453179
17	0xbea3c1ad	-0.319837
18	0x3f08fd78	0.5351176
19	0xbeb5d32f	-0.35512683
20	0x3ec2c49b	0.38040623
21	0x3d5fd3fc	0.054645523
22	0xbd9fad61	-0.07796741
23	0xbf0e3c09	-0.55560356
24	0xbf279b2a	-0.65471137
25	0x3f42c82f	0.76086706
26	0x3ebf7d4e	0.37400287
27	0x3d882192	0.06647028
28	0xbf28840c	-0.6582649
29	0x3ef8011f	0.48438355
30	0xbe41483a	-0.18875208
31	0xbe53b0e1	-0.20672943
32	0x3f89025b	1.0703844
33	0x3e9e1ce0	0.30881405
34	0x3e63c2cc	0.22242278
35	0xbf1128a0	-0.56702614
36	0xbd9f9240	-0.07791567
37	0x3d7516e9	0.059836302
38	0x3df95f96	0.12176435
39	0xbf113b9d	-0.5673159
40	0xbed52f11	-0.4163747
41	0xbf5e1762	-0.8675443
42	0xbf0f9692	-0.5608913
43	0xbdcefc0d	-0.101066686
44	0xbf292c80	-0.66083527
45	0xbef88f27	-0.48546717
46	0x3d339151	0.043839756
47	0x3e247364	0.16059643
48	0x3c801110	0.015633136
49	0xbdacb8e8	-0.084337056
50	0x3eff433f	0.49855992
51	0x3de45ecd	0.11150894
52	0x3f0a2a68	0.53970957
53	0x3e1d7c4e	0.1537945
54	0xbd8b0b1c	-0.06789228
55	0xbf483e79	-0.78220326
56	0xbe8af786	-0.2714197
57	0x3f1e7b39	0.6190677
58	0xbf24ecd6	-0.6442388
59	0x3e9c4c03	0.30526742
60	0x3f3c2a77	0.73502296
61	0xbe0255fb	-0.12728111
62	0x3f1560fe	0.58351123
63	0xbf491ec0	-0.78562546

model.linear_1.bias f4 [8]
0	0xbd9fa571	-0.07795227
1	0xbcaa429c	-0.020783715
2	0xbec89115	-0.3917319
3	0xbeab20c3	-0.33423433
4	0xbcb09f34	-0.021560289
5	0xbdbf9ddb	-0.093562804
6	0x3e96b234	0.29432833
7	0x3e617f33	0.22021179

model.layer_output.weight f4 [1, 8]
0	0xbf33a30d	-0.7017067
1	0x3e17fb9d	0.14842077
2	0x3ea81ab4	0.32832873
3	0xbf7b6270	-0.9819708
4	0x3f8cbe2a	1.0995533
5	0xbf8c554e	-1.0963533
6	0x3f41df84	0.7573168
7	0x3f9416a3	1.1569408

best_score f8 []
0	0x3fc91313d7541af3	0.19589469923103983

momentum_buffer f4 [8, 17]
0	0x3c4b926a	0.012425045
1	0xbc95289b	-0.018207839
2	0xbc4bbe66	-0.012435531
3	0xbc1cd207	-0.009571559
4	0xbc6912eb	-0.014225702
5	0x3bb6cf94	0.0055789445
6	0xbba08e04	-0.004899742
7	0xbc5a362a	-0.013318578
8	0x3cb27f71	0.021789284
9	0xbd0dd86e	-0.03463023
10	0xbbb034ae	-0.0053773737
11	0xbb8b261d	-0.004246487
12	0x396c3990	0.00022528158
13	0xbb68ca72	-0.0035521057
14	0xbc2e686d	-0.010645014
15	0xbb30940e	-0.0026943716
16	0xbc7e582b	-0.015523951
17	0xbd27af54	-0.04093869
18	0x3d87109a	0.06594963
19	0xbc995f9e	-0.018722352
20	0x3c8f8a62	0.01752204
21	0xbd13d04b	-0.036087316
22	0x3ccb9a4f	0.024853854
23	0xbc57552d	-0.013142866
24	0x3c9f2eb6	0.019431453
25	0xbcaa65fc	-0.020800583
26	0x3b1a1000	0.0023508072
27	0x3ccaa81b	0.024738362
28	0xba8b17b2	-0.001061192
29	0x3c0c5566	0.008565282
30	0x3babbd91	0.005241104
31	0xbbd391f5	-0.0064566084
32	0xbbb8b74a	-0.005637084
33	0x3c4363e2	0.011925669
34	0xbbe09284	-0.0068534035
35	0x3c6d8f4d	0.014499498
36	0xba9bd704	-0.0011889641
37	0x3cdd9fcb	0.027053734
38	0xbd687b9d	-0.05675851
39	0x3d141e80	0.0361619
40	0x3c59a700	0.013284445
41	0xbbdfb7b5	-0.0068273195
42	0xbc4471d3	-0.011990028
43	0xbc6555e0	-0.013997525
44	0x3d04e4b7	0.032444682
45	0x38b031eb	8.401632e-05
46	0xbaf8ccfa	-0.0018981986
47	0x3c313ca3	0.01081768
48	0xbb26e10c	-0.0025463728
49	0xba9b3eee	-0.0011844316
50	0x3bfa6608	0.0076415576
51	0xbca3964c	-0.019969128
52	0x3c7a7333	0.015286255
53	0x3bc86f10	0.0061167553
54	0xbc623034	-0.013805438
55	0x3c26c386	0.010178452
56	0x3ba5d5a2	0.0050608674
57	0xbbfd11a9	-0.0077230525
58	0x3c1606f6	0.009156933
59	0xbc144bae	-0.009051247
60	0x3c936113	0.017990625
61	0xbbf5f0ac	-0.007505497
62	0x3a5b3796	0.000836247
63	0x3c3c5474	0.011494745
64	0xbc047698	-0.008084916
65	0xbb384cd6	-0.002812197
66	0x39635486	0.00021679894
67	0x3a9f8668	0.0012170793
68	0xbd249e0f	-0.0401898
69	0x3c8bf977	0.017086728
70	0x3c4981cb	0.012299011
71	0xbd2f6720	-0.042822957
72	0x3c50f836	0.012754491
73	0x3c9dd064	0.019264407
74	0xbc81f846	-0.015865456
75	0x3ba5da0d	0.005061394
76	0x3c07714b	0.008266757
77	0x3c34e0d9	0.011039936
78	0xbcf6aad0	-0.030110747
79	0xbba22bcb	-0.004949068
80	0x3ce281a4	0.027649708
81	0xbc62a1cd	-0.013832522
82	0xbca1278d	-0.01967218
83	0x3b381f59	0.0028094857
84	0xbc5f0b54	-0.013613541
85	0xbc960c56	-0.01831643
86	0x3cf43235	0.029809097
87	0xbbd979d4	-0.0066368375
88	0x3c94d72b	0.018169006
89	0xbd1afdb6	-0.037839614
90	0x3cc8ebac	0.02452644
91	0x3a3cf666	0.0007208347
92	0x3b877ee0	0.0041349977
93	0xbc7b88e2	-0.01535246
94	0xbb486b9c	-0.0030581718
95	0x3cbe9950	0.023266464
96	0x39bd796e	0.0003613936
97	0x3b043afa	0.0020176754
98	0x3ba4b05c	0.0050259065
99	0xbb270f8c	-0.0025491444
100	0xbb495426	-0.0030720322
101	0x3c01e3e3	0.007927868
102	0xbbe82202	-0.007084132
103	0x3b8507ac	0.0040597524
104	0xb9ad2a50	-0.00033028657
105	0xbc5fc9a2	-0.013658913
106	0x3cbb3572	0.022852633
107	0xbc4d97bc	-0.012548383
108	0xbc1b9398	-0.009495638
109	0x3bc93a3a	0.0061409744
110	0x3becb64d	0.0072238804
111	0x3bb72c6e	0.005590013
112	0xbc8473ed	-0.016168559
113	0xbaf14dfb	-0.0018410081
114	0x3b93ab62	0.0045065144
115	0xbb5afd80	-0.0033415258
116	0xbb2f8c32	-0.0026786444
117	0x3b15c2eb	0.0022851776
118	0xbbb8ce70	-0.0056398436
119	0x3ce9ae24	0.02852542
120	0xbc708071	-0.01467906
121	0xbc1a6e48	-0.009425707
122	0x3c78c2cf	0.015183165
123	0xbbe09eb7	-0.006854858
124	0xbb800bde	-0.0039076647
125	0x3c1e8b26	0.00967673
126	0xbbac3b36	-0.005256082
127	0xbb39c76c	-0.0028347624
128	0xbb97f563	-0.0046374067
129	0x3c42da18	0.011892818
130	0x3bac0d48	0.0052506067
131	0xbc086ff4	-0.008327473
132	0x3b0caaf4	0.00214642
133	0x3baf5840	0.0053510964
134	0xbb838048	-0.004013095
135	0x3c0a2daf	0.008433743

momentum_buffer f4 [8]
0	0xbc953e97	-0.018218322
1	0x3bce107a	0.0062885853
2	0x3bd3964f	0.006457127
3	0x3abbf114	0.0014338815
4	0xbc31037f	-0.010804056
5	0x3b9f1daf	0.0048558335
6	0xbb5bd9f5	-0.003354666
7	0x3b90db19	0.0044206497

momentum_buffer f4 [8, 8]
0	0xbc34c646	-0.0110336
1	0xbcfed5f4	-0.03110788
2	0xbc34925e	-0.011021225
3	0xbb1ee954	-0.002424796
4	0xbb9a4ad4	-0.0047086272
5	0xbcc4cb60	-0.024022758
6	0x3cbc4e0f	0.02298644
7	0x3b52d8b8	0.0032172631
8	0xbb69e4c5	-0.0035689336
9	0x3b52a3f9	0.0032141192
10	0x3b4e155b	0.0031445834
11	0x3ad3d0c0	0.0016160235
12	0x3b8dc6ae	0.004326663
13	0xb9953f86	-0.00028466823
14	0xbb771068	-0.0037698988
15	0x3a6b247d	0.0008969976
16	0x388cead2	6.719459e-05
17	0xba546e77	-0.0008103619
18	0xbbaedb4e	-0.0053362017
19	0x3a9b861d	0.001186553
20	0x3badb166	0.0053006886
21	0xba4c336d	-0.00077896455
22	0x3c1080c0	0.008819759
23	0x398167e6	0.00024682208
24	0x3b1d5f88	0.002401324
25	0xbd1768cc	-0.036965176
26	0xbc91dd61	-0.017805757
27	0xbb81b2c3	-0.0039580776
28	0xbaeeedb0	-0.0018228795
29	0xbce0dba8	-0.02744849
30	0x3c121e9e	0.0089184325
31	0x3c2f0397	0.010682008
32	0xbc6e9172	-0.014561044
33	0xbbec6000	-0.0072135925
34	0x3b0ad1d4	0.0021182196
35	0x3c163254	0.009167273
36	0x3c922892	0.017841611
37	0xbc7a0294	-0.015259404
38	0x3b295d20	0.002584286
39	0x3c0ebc81	0.008711935
40	0xbd099f80	-0.033599377
41	0x3d8e8f5f	0.069609396
42	0x3d58c1f5	0.052919347
43	0x3b811030	0.0039386973
44	0xbba9afbd	-0.0051784203
45	0x3bb3b8b2	0.005484664
46	0xbb854c82	-0.0040679583
47	0x3c0c63ac	0.0085686855
48	0x3bbf0f5d	0.005830689
49	0x3c32fe5e	0.010924904
50	0xbc9345a0	-0.017977536
51	0xbc3d7640	-0.0115638375
52	0xba0c79b6	-0.00053587125
53	0x3b6c827a	0.0036088512
54	0xba219c15	-0.00061649206
55	0xbbed627c	-0.0072444063
56	0x3d001e39	0.031278823
57	0xbc2175ee	-0.009854777
58	0x3ce5d1ec	0.0280542
59	0xbbb07df6	-0.0053861095
60	0xbc3e0ab8	-0.011599235
61	0x3ce3645a	0.027757812
62	0xbc8f5bbe	-0.0174998
63	0xb8b9cbc0	-8.859439e-05

momentum_buffer f4 [8]
0	0x3c73e5aa	0.014886299
1	0xbb5fa2d5	-0.0034124155
2	0x3a3ad656	0.00071272755
3	0x3b910ebc	0.0044268053
4	0xbb8508c2	-0.004059882
5	0x3bad39b1	0.0052864184
6	0x3b2b37ba	0.0026125745
7	0xbb6505d0	-0.0034946091

momentum_buffer f4 [1, 8]
0	0x3d342bb4	0.04398699
1	0xbbbff9af	-0.005858622
2	0xbbc1c720	-0.00591363
3	0x3d635e86	0.055510066
4	0xbcd55ce2	-0.026045267
5	0x3d7db7b0	0.061942756
6	0xbb922c5f	-0.004460856
7	0xbd43ca82	-0.04780055
