src/logs/lightning_logs/version_1/checkpoints/epoch=25-step=104.ckpt (torch, 8699 bytes, 11 tensors)

model.linear_input.weight f4 [8, 17]
-0.028066766 0.15111676 0.12436485 0.20057955 -0.5956597 0.010218825 -0.11179248 -0.3311584
-0.5440577 -0.22896661 -0.2279607 -0.23115182 0.1670465 0.3100881 -0.12840417 -0.15724131
0.10745639 -0.233665 -0.5937563 0.39011785 0.37507555 -0.29085025 0.13166699 -0.5196446
0.38831237 -0.08666217 -0.20577095 0.15855992 -0.74155366 -0.25982404 -0.44188288 -0.32717788
-0.45181292 -0.42113346 -0.56948215 0.31239554 0.22690798 -0.52590865 -0.12569298 0.014475322
0.40352446 -0.268532 -0.197524 -0.70687807 -0.32349604 0.8739035 -0.06932325 -0.057650644
-0.478882 -0.31309572 -0.14211708 -0.030020177 0.5839785 -0.06174779 0.21527077 0.18968324
-0.2752629 -0.45635086 -0.010765251 0.12706754 -0.16762142 0.38369584 -0.26958546 -0.12695439
0.2461759 -0.07426172 -0.4123639 0.07345071 0.5554323 -0.31303805 -0.6632353 0.51309925
-0.035062604 -0.6660972 0.03308384 -0.28307122 -0.07700118 -0.20432481 -0.46302602 -0.70185226
0.3753367 0.46591395 0.08243121 0.2694469 -0.4163962 0.30093747 0.3236118 -0.4882734
0.034082823 -0.54111695 0.33564308 -0.44136143 -0.22808868 -0.3101426 0.115655094 0.24397643
-1.0827855 0.6012429 0.6303091 0.4474713 -0.28401375 -0.06741087 0.36555868 -0.3264627
0.054994926 -0.28982124 0.09082808 -0.42229047 0.16841476 0.29703504 0.014291438 -0.390916
-0.51722944 0.2955757 -0.0437162 0.19766511 -0.21673349 -0.15918796 -0.41747376 0.098995715
0.20282514 0.046605572 -0.35537985 0.03701921 0.22318482 0.3447644 -0.19705991 -0.2128659
-0.32780486 0.35362756 -0.45004895 0.34355703 0.21627021 -0.23145288 0.15418422 -0.2957915
00000000: 46ec e5bc 5abe 1a3e 00b3 fe3d ba64 4d3e
00000010: 277d 18bf dc6c 273c 75f3 e4bd 988d a9be
00000020: 5e47 0bbf 3976 6abe 886e 69be 10b3 6cbe
00000030: 3d0e 2b3e dec3 9e3e 627c 03be de03 21be
00000040: 1912 dc3d e145 6fbe 6a00 18bf 87bd c73e
00000050: e709 c03e 53ea 94be b6d3 063e 6e07 05bf
00000060: e1d0 c63e f07b b1bd 9fb5 52be 885d 223e
00000070: 76d6 3dbf a807 85be 793e e2be dc83 a7be
00000080: 0654 e7be ce9e d7be 95c9 11bf 4ff2 9f3e
00000090: 915a 683e f3a1 06bf a9b5 00be e729 6d3c
000000a0: c29a ce3e 077d 89be bb43 4abe f6f5 34bf
000000b0: 46a1 a5be 24b8 5f3f 59f9 8dbd 1523 6cbd
000000c0: 0630 f5be 154e a0be 2487 11be e0ec f5bc
000000d0: 9d7f 153f 40eb 7cbd f16f 5c3e 533c 423e
000000e0: 42ef 8cbe d2a6 e9be bc60 30bc fe1d 023e
000000f0: f3a4 2bbe c873 c43e 1b07 8abe 5500 02be
00000100: 8915 7c3e 8716 98bd 5c21 d3be 536d 963d
00000110: d030 0e3f 8646 a0be cac9 29bf 795a 033f
00000120: ce9d 0fbd 5985 2abf ec82 073d b6ee 90be
00000130: cbb2 9dbd 863a 51be bf11 edbe 97ac 33bf
00000140: 222c c03e 468c ee3e b2d1 a83d f2f4 893e
00000150: e231 d5be 7a14 9a3e 72b0 a53e f9fe f9be
00000160: 6e9a 0b3d a486 0abf 69d9 ab3e 20fa e1be
00000170: 1490 69be 03cb 9ebe 94dc ec3d f5d4 793e
00000180: b798 8abf 0eeb 193f f05b 213f f51a e53e
00000190: 406a 91be b60e 8abd 822a bb3e 1e26 a7be
000001a0: 5c42 613d 7363 94be 1304 ba3d 7536 d8be
000001b0: eb74 2c3e fa14 983e a326 6a3c 2426 c8be
000001c0: 2669 04bf b355 973e c20f 33bd b968 4a3e
000001d0: 62ef 5dbe 2b02 23be 1fbf d5be 44be ca3d
000001e0: 65b1 4f3e 7ce5 3e3d 59f4 b5be 75a1 173d
000001f0: 908a 643e f684 b03e 13ca 49be 85f9 59be
00000200: 0ad6 a7be ac0e b53e d16c e6be b5e6 af3e
00000210: f075 5d3e fc01 6dbe 78e2 1d3e fc71 97be

model.linear_input.bias f4 [8]
0.3473279 -0.4781137 -0.24661401 -0.31681496 -0.26233718 0.39423436 0.2055905 0.1785308
00000000: f6d4 b13e 52cb f4be 6288 7cbe 9235 a2be
00000010: 0f51 86be 16d9 c93e 5186 523e c7d0 363e

model.linear_1.weight f4 [8, 8]
-0.32321078 0.27399278 0.49355054 -0.11427903 0.3406552 0.43952543 0.040086508 0.06198901
-0.16341107 -0.28720436 0.34671548 -0.45441464 -1.0089201 -0.69170237 -0.053771645 -0.14901234
-0.5002515 -0.67248225 0.52978295 0.25971526 -0.24215126 -0.51323324 0.088112034 -0.49414536
-0.47250283 -0.51720345 0.0802959 0.5402251 0.250694 0.06310411 -0.010621569 -0.43674853
-0.26605356 0.06979083 -0.8048299 -0.32285175 0.45345792 0.16737144 -0.5679941 0.24819484
0.3695284 -0.38154963 -0.14244708 0.4220743 0.10169193 0.3288136 -0.093071364 0.18886673
0.3603796 -0.3527863 -0.22727846 0.48798218 0.38603234 -0.31437048 0.2206449 0.2108266
0.13131383 -0.105527624 -0.8514397 -0.0030102935 0.47319147 0.8749394 0.06865754 -0.10607382
00000000: e27b a5be c848 8c3e a8b2 fc3e 200b eabd
00000010: 5c6a ae3e 7a09 e13e c031 243d 30e8 7d3d
00000020: 3b55 27be 730c 93be b184 b13e 09a9 e8be
00000030: 4b24 81bf 6813 31bf a83f 5cbd b196 18be
00000040: 7b10 00bf cc27 2cbf db9f 073f 66f9 843e
00000050: 80f6 77be 4163 03bf 1574 b43d 9f00 fdbe
00000060: e4eb f1be 7267 04bf 2d72 a43d 314c 0a3f
00000070: f75a 803e ba3c 813d 1706 2ebc 819d dfbe
00000080: 2c38 88be 7fee 8e3d 5509 4ebf d34c a5be
00000090: a32b e83e 6b63 2b3e 1068 11bf ca26 7e3e
000000a0: d432 bd3e 795a c3be a6dd 11be 1f1a d83e
000000b0: dc43 d03d 425a a83e 339c bebd 4866 413e
000000c0: ad83 b83e 68a0 b4be afbb 68be cdd8 f93e
000000d0: 08a6 c53e 2bf5 a0be bdf0 613e eee2 573e
000000e0: 2277 063e de1e d8bd f4f7 59bf 5848 45bb
000000f0: 2746 f23e 07fc 5f3f 539c 8c3d 3b3d d9bd

model.linear_1.bias f4 [8]
0.0055006742 -0.09707275 -0.137457 -0.1683236 0.18593913 -0.27958262 0.15818289 0.4807765
00000000: 003f b43b 14ce c6bd 87c1 0cbe 065d 2cbe
00000010: d466 3e3e 7425 8fbe b2fa 213e 5628 f63e

model.layer_output.weight f4 [1, 8]
-0.0693962 1.215678 0.8766304 0.37383047 -0.86178905 -0.25566533 0.36332807 -1.2037206
00000000: 981f 8ebd 569b 9b3f da6a 603f b566 bf3e
00000010: 359e 5cbf 91e6 82be 2306 ba3e 8413 9abf

best_score f8 []
0.20060741587888814
00000000: 7677 44f9 80ad c93f

momentum_buffer f4 [8, 17]
-0.002566845 -0.001431882 0.003112821 0.00032729012 0.013019208 -0.014232401 -0.0048360946 0.003950191
-0.0045142774 0.0047166944 -0.001088321 0.0032183742 0.0061637782 -0.0058646854 -0.004403372 0.011207198
-0.012093101 -0.002219372 0.0042152824 -0.010194653 0.0016348205 0.011571293 -0.021404855 -0.004900432
-0.0032983057 -0.0063735484 0.0059049316 -0.0077301217 0.006131317 -0.0022510868 -0.011480462 -0.0005985091
0.007711082 -0.015909823 -0.001483013 0.013373393 0.001960475 -0.0021085567 0.0094210515 0.0065383594
-0.0006367089 0.014487559 0.0070518674 -0.009235814 0.016034799 -0.013745767 0.008035072 0.01262661
0.0069349445 0.007308804 0.006542042 -0.0006424077 -0.005863405 0.00931279 -0.0058379187 -0.006538932
0.015183831 0.0024682789 0.0003386989 0.0047296286 -0.00042776507 -0.0014948848 -0.0015916282 0.003999558
0.00453002 -0.0041309725 -0.0035815025 0.0063884803 0.00063241855 -0.013733392 0.0006400449 -0.0042545805
-0.013059795 0.004853447 0.0025651958 -0.015026123 -0.001903624 0.008205032 -0.018762331 0.011875731
-0.0062856777 -0.009516846 -0.008534132 -0.009479262 -0.0029816646 0.0006093425 -0.008393052 -0.00568961
-0.0005835839 -0.0030994702 -0.009790264 0.001398583 -0.014871898 -0.0072758924 0.008556938 -0.014754368
0.013686447 -0.010597848 -0.014632557 -0.0019293586 -0.005339203 -0.0081341155 -0.00069244613 0.0008604961
0.0021634307 -0.0013940794 0.00095712626 0.0027684327 -0.0008345416 0.0031660215 0.0021151912 -0.0010336728
0.001249962 -0.0025864406 0.0031863335 0.0029357397 -0.0012041522 0.0012625243 0.0010689546 -0.0020208799
-0.00086058263 0.0005611889 0.0008818831 0.010409328 -0.013611483 -0.0039276173 0.0016073445 -0.0046018595
0.004783085 -0.002501498 0.004042183 0.003874374 -0.0066567147 -0.0035801162 0.009246433 -0.011566708
00000000: 8338 28bb fdad bbba 7800 4c3b 2398 ab39
00000010: 844e 553c 042f 69bc 1a78 9ebb 9b70 813b
00000020: 81ec 93bb 808e 9a3b fea5 8eba 5ceb 523b
00000030: 85f9 c93b 8c2c c0bb 294a 90bb 659e 373c
00000040: 2422 46bc e272 11bb 5a20 8a3b 7907 27bc
00000050: 7947 d63a 8595 3d3c 3c59 afbc ce93 a0bb
00000060: 6328 58bb 33d9 d0bb 287e c13b f64c fdbb
00000070: 37e9 c83b f886 13bb 8c18 3cbc 44e5 1cba
00000080: 3fad fc3b 5155 82bc a961 c2ba 131c 5b3c
00000090: 507b 003b b62f 0abb c15a 1a3c bc3f d63b
000000a0: d0e8 26ba 3a5d 6d3c 5a13 e73b d051 17bc
000000b0: 695b 833c ed35 61bc 89a5 033c d7df 4e3c
000000c0: 883e e33b b17e ef3b a05e d63b 4067 28ba
000000d0: ce21 c0bb ac94 183c 034c bfbb 8a44 d6bb
000000e0: 9ac5 783c d9c2 213b 6693 b139 00fb 9a3b
000000f0: a845 e0b9 03f0 c3ba 2e9e d0ba b90e 833b
00000100: 9070 943b 1c5d 87bb a4b7 6abb 7556 d13b
00000110: e4c8 253a 0502 61bc b0c8 273a 026a 8bbb
00000120: c0f8 55bc aa09 9f3b d81c 283b 2130 76bc
00000130: 0683 f9ba 666e 063c 76b3 99bc 6d92 423c
00000140: 16f8 cdbb 8cec 1bbc bed2 0bbc e84e 1bbc
00000150: 0868 43bb 48bc 1f3a 0383 09bc e86f babb
00000160: a7fb 18ba 7b20 4bbb 5867 20bc a850 b73a
00000170: 43a9 73bc 9c6a eebb 6632 0c3c 4ebc 71bc
00000180: 1f3d 603c 99a2 2dbc 64bd 6fbc 88e2 fcba
00000190: 7bf4 aebb f444 05bc 4685 35ba ea92 613a
000001a0: 58c8 0d3b 8bb9 b6ba a8e7 7a3a 986e 353b
000001b0: 24c5 5aba 077d 4f3b 059f 0a3b 4e7c 87ba
000001c0: c4d5 a33a 4681 29bb ced1 503b 8a65 403b
000001d0: a5d4 9dba 497b a53a 2a1c 8c3a bd70 04bb
000001e0: b998 61ba c01c 133a 2c2e 673a e38b 2a3c
000001f0: b302 5fbc 3eb3 80bb 88ad d23a 32cb 96bb
00000200: 6dbb 9c3b 2cf0 23bb 4a74 843b 36e9 7d3b
00000210: 9220 dabb 62a0 6abb 5a7e 173c 4a82 3dbc

momentum_buffer f4 [8]
-0.0008859043 -0.008198739 0.01385085 0.0028069774 -0.01246093 -0.013473321 0.0023314808 -0.0023202756
00000000: 083c 68ba 0154 06bc adee 623c 44f5 373b
00000010: ee28 4cbc 34bf 5cbc c2cb 183b c40f 18bb

momentum_buffer f4 [8, 8]
0.0 0.0 0.0 0.0 0.0 0.0 0.0 0.0
0.0017807037 0.0014804825 -0.013233972 0.009430924 0.0029659038 0.0128858695 -0.0039451527 0.0059775277
0.010308262 -0.005343528 -0.0038715708 0.00032215775 -0.022306632 0.02439064 -0.011962259 0.008265834
0.009440339 0.006794214 0.008900066 -0.0041306145 -0.008147687 0.008651634 -0.0033042175 -0.0016254485
0.004667928 0.0047712442 0.0073941704 -0.0055316193 0.00048220064 -0.0050738654 0.00095675886 -0.007471969
-0.0063394224 -0.0019687512 -0.0063298433 -0.0015232551 -0.0035733385 -0.0069660093 0.0016155496 0.005301126
0.0059111174 0.009375822 0.0010379707 -0.0074351775 -0.007774267 0.0030879616 0.0017601738 0.0047044787
0.005965265 0.0068503916 0.010040285 -0.0059136455 0.0008072555 -0.007674458 0.001559135 -0.012110138
00000000: 0000 0000 0000 0000 0000 0000 0000 0000
00000010: 0000 0000 0000 0000 0000 0000 0000 0000
00000020: 8066 e93a c00c c23a 4dd3 58bc 2a84 1a3c
00000030: 9c5f 423b 411f 533c 5746 81bb 23df c33b
00000040: fce3 283c c318 afbb 2eba 7dbb 48e7 a839
00000050: 66bc b6bc e1ce c73c 5afd 43bc 6c6d 073c
00000060: a7ab 1a3c ffa1 de3b 95d1 113c 1b5a 87bb
00000070: e07d 05bc 95bf 0d3c 928b 58bb 000d d5ba
00000080: 6bf5 983b 1958 9c3b cc4a f23b 9642 b5bb
00000090: e0cf fc39 ab42 a6bb 00cf 7a3a 6bd7 f4bb
000000a0: eeba cfbb 2a06 01bb 936a cfbb f6a7 c7ba
000000b0: ac2e 6abb 1f43 e4bb d9c0 d33a 11b5 ad3b
000000c0: 0cb2 c13b 0c9d 193c 840c 883a caa2 f3bb
000000d0: 47bf febb 665f 4a3b a2b5 e63a 0728 9a3b
000000e0: 4578 c33b 4079 e03b 0280 243c 41c7 c1bb
000000f0: 009e 533a 057a fbbb e45b cc3a 9a69 46bc

momentum_buffer f4 [8]
0.0 0.0049729724 0.008426035 -0.0029769954 -0.0044948477 0.0045367824 0.002219563 -0.006748628
00000000: 0000 0000 51f4 a23b 5a0d 0a3c b219 43bb
00000010: 8449 93bb 4aa9 943b 1676 113b 9823 ddbb

momentum_buffer f4 [1, 8]
0.0 -0.018013092 -0.018050816 -0.026356181 0.0098001035 0.017064383 -0.020208264 0.012938397
00000000: 0000 0000 3190 93bc 4edf 93bc ebe8 d7bc
00000010: 9d90 203c 9bca 8b3c cd8b a5bc 92fb 533c
