src/logs/lightning_logs/version_3/checkpoints/epoch=27-step=112.ckpt (torch, 8699 bytes, 11 tensors)

model.linear_input.weight f4 [8, 17]
00000000: f7ed e03d d6ec 993e 6647 5abe cee9 ccbe
00000010: 036d 223f ba35 28bf ee62 d6be b594 d8be
00000020: 84bd 92be 06b8 96be 1707 b23d eafd 06bf
00000030: 9f43 cf3e c9d0 14bd 3067 e93e 525b cfbe
00000040: 21cd 8fbe 66ad 41bf 7bd0 bd3c 52f5 5d3e
00000050: 0f15 02be 1e34 213e bccc 853d 4b7b 283f
00000060: 3a26 a93e faa1 5bbe e225 3abe 7781 8cbe
00000070: 3ed7 113f 9e20 bebe 6388 e4be f5e4 1fbf
00000080: ed1a 8d3e 288f f53e 5e94 eabe 72b0 34be
00000090: a303 a13e dde1 e3be 64c5 433e ec1b 99bd
000000a0: 4f7c 143e 599c 3bbe 4b71 de3e a484 e7be
000000b0: 701f a6be bd41 6c3f 03ef 01bf fa3c ba3c
000000c0: 1ddb 33be 2cb3 c4be a6fa d13e 17aa f3be
000000d0: ee82 b1be 5bb7 ed3e ecbb 1e3e 6446 6bbe
000000e0: 360e a9be 0461 58be 68e2 cc3e 6b74 093d
000000f0: 0109 b73e 90b9 51bd 113c e23e f816 f8bd
00000100: c016 f7be 9836 973e 6010 31be aaf5 72be
00000110: 0d63 17be 5bdf b63e e623 8b3e 1205 afbd
00000120: e9aa e5be 277c 283e 03d0 b03e c8ad 2bbe
00000130: 2bf1 d0be dc8a fdbd 5318 5cbe 6045 abbe
00000140: de5d 023f 78b6 48be 4f92 a3be 33e5 5dbe
00000150: c729 ca3e 59cb 28be 169b 1cbe dd18 9a3e
00000160: 6859 11bf ac61 bdbe 7f6f cf3e d45d f03d
00000170: ed3f f2be 6fd0 14be 205f 19bf c980 a53e
00000180: 31d2 823f bcb7 90be b974 ccbe 463d 14bf
00000190: 18c2 893e c5f3 72be 0357 82be ff84 003f
000001a0: 810b ccbe 3ee9 5b3d 6330 dd3e a4e3 15bf
000001b0: ad74 4bbe 5d48 ea3d b8bd 53be 407f c1be
000001c0: d12c 06bf d315 763c c940 4c3d 6f21 bbbe
000001d0: 2cb3 d93e 2483 c8be 98ab a5be 935d 1dbd
000001e0: 598c d73e f399 723e f570 b93e a655 8cbd
000001f0: bb93 14bd 2f7c bb3e 7e02 9abe ed36 f53e
00000200: adea 813d 0a0b 84be 1580 2cbf 984e 83be
00000210: 50a2 413e 7d1e b0be edaa 683c b81f 99bc
0.10982888 0.30063504 -0.21316299 -0.4002213 0.6344759 -0.6570698 -0.41872352 -0.42300954
-0.28660214 -0.29437274 0.086927585 -0.5273119 0.40481278 -0.036331926 0.45586538 -0.4049936
-0.28086188 -0.7565521 0.0231707 0.21675614 -0.12703346 0.15742537 0.065331906 0.6581313
0.33036977 -0.21448508 -0.18178514 -0.27442524 0.5696906 -0.3713426 -0.44635305 -0.62458736
0.27559605 0.47960782 -0.4581632 -0.17645434 0.31448087 -0.44508258 0.19118267 -0.07476029
0.14500545 -0.1832136 0.4344581 -0.45218384 -0.3244586 0.9228781 -0.5075533 0.022734154
-0.17564054 -0.38417947 0.41011542 -0.47590706 -0.34670204 0.46428952 0.15501374 -0.2297607
-0.33018655 -0.21130759 0.40016484 0.03355829 0.35749057 -0.051202357 0.44186452 -0.12113756
-0.48259544 0.2953384 -0.17291403 -0.23726526 -0.14783879 0.35717282 0.27175826 -0.08545889
-0.44856957 0.1645361 0.345337 -0.16765511 -0.40808997 -0.12380001 -0.21493654 -0.33451366
0.5092448 -0.19600856 -0.31947562 -0.21669464 0.39485 -0.16483821 -0.15293536 0.30097094
-0.5677705 -0.3698858 0.40514752 0.11736646 -0.47314397 -0.14532636 -0.59910774 0.32324818
1.0220395 -0.28265178 -0.39932802 -0.57905996 0.26905894 -0.23725803 -0.2545701 0.50202936
-0.39852527 0.053689234 0.4320098 -0.5855048 -0.19868727 0.114395835 -0.2067784 -0.37792397
-0.52412134 0.015019852 0.04986647 -0.36548945 0.4251951 -0.39162552 -0.32357478 -0.038419317
0.42099264 0.2369154 0.36218992 -0.06852274 -0.0362737 0.36618182 -0.30080026 0.47893468
0.06343589 -0.25789672 -0.6738294 -0.256459 0.18909574 -0.3439826 0.014200908 -0.018691882

model.linear_input.bias f4 [8]
00000000: 7a84 993e 20c6 803e bcf8 e7be 37c4 063e
00000010: 38db 033f 1962 27be 257d 45bd 615b c73e
0.29983884 0.25151157 -0.45306957 0.13160788 0.51506376 -0.16346015 -0.04821505 0.38936904

model.linear_1.weight f4 [8, 8]
00000000: 393b 0a3e 003b 8b3e cd87 18be 2049 923e
00000010: 0a84 89be 7f90 b43e 7120 ca3e 1665 b43e
00000020: 6234 70be 0451 0bbf 567a 96be 26ef 05bf
00000030: b978 12bd c85a 213e a77b 1e3d f929 243e
00000040: 7db1 f03e f398 c23e b975 bb3d 6081 643e
00000050: b388 52bc c4b7 f43e d603 da3e 5b16 8b3e
00000060: ae12 f83e 08c9 c3be a015 85bd 687d 9f3d
00000070: 1648 99be eaa5 b93e 10a4 a43d 9056 763d
00000080: d4a4 55bf 9e87 293f 87ef 0a3f 3945 2c3f
00000090: 1753 2d3e 49ff 5d3f 09d3 07bf 4be2 0bbf
000000a0: ea61 27be 8b93 30bf 35c8 7abf 824b 053e
000000b0: 7117 8d3e df6c 31bf ea62 39bf 378e 49be
000000c0: 5425 ca3e ab6a debe 5265 abbc 5135 14be
000000d0: 5a6a debe 8b2c bb3d ea9c 713e 22f5 953d
000000e0: 4c44 433e 1c89 1abe db62 883e 0152 e93d
000000f0: 62cc 053f be30 623d 26b0 b33e 757d cd3b
0.13499154 0.2719345 -0.14895554 0.28571415 -0.2685855 0.35266492 0.39477876 0.35233372
-0.23457482 -0.54420495 -0.2939021 -0.52318037 -0.03575966 0.15757287 0.038692143 0.16031636
0.47010413 0.38007316 0.09153313 0.22314978 -0.012849974 0.47796452 0.42581052 0.27165493
0.4845175 -0.38239312 -0.06498265 0.07787591 -0.2993781 0.36259395 0.08039105 0.060141146
-0.8345463 0.6622256 0.5427174 0.67293125 0.16926228 0.8671766 -0.5305639 -0.5464217
-0.16345945 -0.6897513 -0.9796174 0.13017085 0.27556947 -0.6930675 -0.72416556 -0.19683157
0.39481604 -0.43440756 -0.020922337 -0.14473464 -0.43440515 0.09139355 0.23595014 0.07322146
0.19069022 -0.15091366 0.2663792 0.11392594 0.5226499 0.055222265 0.35095328 0.006271059

model.linear_1.bias f4 [8]
00000000: 9555 e8be 4eb8 cb3c 277d bbbe 105e a7be
00000010: f880 f73d d5b1 b7be cc28 7cbe 0eb7 39bd
-0.45377794 0.024868157 -0.3661892 -0.32688951 0.12085146 -0.35877863 -0.24624938 -0.04534059

model.layer_output.weight f4 [1, 8]
00000000: 8765 bdbe 1835 e3be bda2 35be 5ad5 d6be
00000010: 9fad cc3f 6bea a9bf 8754 6a3e dd92 c23e
-0.36991522 -0.44376445 -0.17737861 -0.4195965 1.5990485 -1.3274664 0.22883807 0.38002673

best_score f8 []
00000000: 1e57 4cb3 d0bb c93f
0.2010441661338342

momentum_buffer f4 [8, 17]
00000000: dd24 6e3a f7fb 6bbc 239e ae3c bf8b dcbb
00000010: 6054 cabc 4fc4 203d 84fe d9bb e221 6d3c
00000020: f300 3cbc a231 963c c204 7c3a d89f 9e3b
00000030: 53ba 61bb 7fe0 18bc e410 813c 42e4 c4bb
00000040: c094 623c 4a41 dc3b 1cc0 e53a c2e5 2abc
00000050: c482 d93a 2758 29bb 683b 87ba dc8f 3cbb
00000060: da6d 713a 2d1c 1d3c b8cf 90bc 4aec c83b
00000070: c7ec cfbb bfb0 7e3a 8068 953a b044 153b
00000080: c41c 52bb 98d0 a33a 6f3f 043c 6ec7 8abc
00000090: 3837 b8ba 6c87 8c3b 276e 96bc 2409 793b
000000a0: 9027 d3bb 0e0a 7bbb bb87 f33b 55ed 82bc
000000b0: 1efc e1ba efee dabb 18a4 3dbb 84db d939
000000c0: 8825 92ba 52d5 30bc 10f0 073a 283c 9d3a
000000d0: 3d2b 1c3c 9a09 83bc e4f7 c038 a73d 3b3c
000000e0: 0480 89bc 109f f739 d1fa bbbb 4dcf fa3b
000000f0: f85f 73bc 0cbf fd3a fbcc 73bb 782c 23ba
00000100: 0452 6e3b d95d 95bb 8eda 733b 1437 13bc
00000110: 2e7c d7ba 01cb cc3a 8c87 12bb 567d 773a
00000120: 89ca f33b 2355 2fbc 8a52 9fb9 cef5 03bb
00000130: 7371 5c3b db2f 31bb b921 43bb 0ab4 a8b9
00000140: b58a 75bb 25ed 103b 7260 f1b9 e938 d53b
00000150: 7f94 10bc a154 a63b 6d99 fcbb d84e 50bc
00000160: a47b 103c 7562 59ba 5d2b bfbc 4092 31b9
00000170: f9aa 78bc 55f4 413c 6697 b6bc 8d6d a0bb
00000180: 00b3 f4bb d6c8 a339 7824 d63b 4048 71bc
00000190: 07b3 e5bb ba97 08bc d2d2 893b cd66 c8bc
000001a0: 81f3 ad3c c602 73ba c392 fdbc 2296 063d
000001b0: 2e52 0ebc 0155 1e3c d710 b8bb f8e5 1d3c
000001c0: de6a 47bb cd94 b03a 0cf6 97bb 5e04 e4bb
000001d0: 6ced 373c bf15 29bc 8f18 393c 2210 db39
000001e0: e401 11bc c22c 6e3c d9bb d2ba 9d49 55bc
000001f0: 3cd2 a93c 71a3 20bb 3d2c 0c3c d0b4 b2bb
00000200: 29e8 3f3c 1799 22b9 101b 3c3b 38f7 4dba
00000210: 3131 92bb a7f4 0a3c c875 44bb d220 153c
0.00090844725 -0.014403335 0.02131564 -0.006730526 -0.024698436 0.039249714 -0.006652655 0.01447341
-0.011474836 0.018334214 0.0009613746 0.004840832 -0.0034443333 -0.009330868 0.015755124 -0.0060086558
0.01382941 0.0067216503 0.0017528567 -0.010430755 0.0016594757 -0.0025839896 -0.0010317387 -0.002877227
0.00092097896 0.009589237 -0.017677173 0.0061316835 -0.0063453647 0.0009715668 0.0011398941 0.0022776537
-0.0032060603 0.0012498079 0.008071764 -0.016940799 -0.0014054542 0.0042886045 -0.018363072 0.0037999833
-0.006443925 -0.0038305554 0.007431952 -0.01598231 -0.0017241274 -0.006681315 -0.0028936919 0.00041553017
-0.0011150101 -0.010793047 0.00051856134 0.0011996077 0.009531793 -0.01599579 9.201447e-05 0.011428273
-0.016784675 0.00047230022 -0.0057366868 0.0076541067 -0.014854424 0.0019359305 -0.0037201035 -0.0006224583
0.0036364803 -0.0045583067 0.0037209126 -0.0089853 -0.0016440207 0.0015624465 -0.0022358624 0.0009440979
0.0074399156 -0.0107014505 -0.0003038834 -0.0020135525 0.0033636957 -0.002703658 -0.002977474 -0.00032177597
-0.003746671 0.0022114005 -0.0004603896 0.0065070284 -0.008824467 0.0050760065 -0.0077087195 -0.01271411
0.008818541 -0.00082925643 -0.023336107 -0.00016934518 -0.015177482 0.011838038 -0.02228899 -0.004895872
-0.0074676275 0.00031239417 0.006535109 -0.014726698 -0.007009867 -0.008336956 0.00420604 -0.024463082
0.021234276 -0.00092701276 -0.03095377 0.03285802 -0.008686585 0.009663821 -0.005617242 0.009637348
-0.0030428688 0.001347208 -0.0046374854 -0.0069585284 0.011226039 -0.010320126 0.011297359 0.00041782955
-0.008850548 0.014537038 -0.0016077711 -0.013018039 0.02073013 -0.0024511481 0.008555469 -0.0054536834
0.011713066 -0.00015506554 0.0028702654 -0.0007856968 -0.0044614305 0.008481181 -0.002997743 0.009102063

momentum_buffer f4 [8]
00000000: a022 003c 7034 00bb 5356 28bc e180 acbb
00000010: 21e0 17bb 3c71 7bbc 9716 803a be06 c83b
0.007820755 -0.0019562505 -0.010274488 -0.005264387 -0.0023174363 -0.015346821 0.0009772357 0.0061043194

momentum_buffer f4 [8, 8]
00000000: 5887 9039 8239 493a a219 24ba 8f43 7939
00000010: 1aae 56ba a438 b8ba 8418 473a 7839 1b3a
00000020: 1042 f93b e290 4b3b d649 1a3c 37e5 0dba
00000030: b613 b6bb 36aa 59bb 5baa 1c3c b7dc 4a3c
00000040: 61d5 85b8 6490 8839 2575 6038 708f ae37
00000050: f7d6 acb8 bfd1 0238 dc84 2238 699c 2238
00000060: 0000 0000 0000 0000 0000 0000 0000 0000
00000070: 0000 0000 0000 0000 0000 0000 0000 0000
00000080: 37a6 2d3d 5260 4cbc ced9 3f3c a5eb f7bc
00000090: 9e5e adbc 5002 b6bb 728e 233d b40f 983c
000000a0: 4f9b e43c 3d0f 283c c27c 8bbb 5b3c 21bc
000000b0: 05a6 1dbc c783 24bc 340f d93c b92f fe3b
000000c0: c8d4 c9bb 7da3 e3ba 70c8 1f3c d4e7 57ba
000000d0: 7f04 983b 5d12 363c 9a2f a6bb 514b b0ba
000000e0: 08b4 60bc a8e7 c0bb dd21 303c fe99 633c
000000f0: 4329 32bc bc9e 2a3c 4fe4 d0bb 4ce3 28bb
0.0002756666 0.0007676111 -0.0006259923 0.00023771658 -0.00081893953 -0.0014054966 0.00075949007 0.0005921344
0.007606752 0.0031061699 0.009417018 -0.0005412879 -0.005556549 -0.0033213026 0.0095621 0.012381724
-6.381679e-05 0.0002604752 5.351486e-05 2.080921e-05 -8.2416394e-05 3.1189757e-05 3.8747545e-05 3.8769478e-05
0.0 0.0 0.0 0.0 0.0 0.0 0.0 0.0
0.042394843 -0.012474136 0.0117096435 -0.030263731 -0.021163281 -0.005554475 0.03993077 0.018562175
0.027906088 0.010257539 -0.0042568156 -0.00984105 -0.009622102 -0.010041184 0.026496507 0.007757154
-0.0061593987 -0.0017367449 0.009752378 -0.0008236144 0.004639208 0.011112777 -0.0050715925 -0.001345018
-0.013714798 -0.0058869906 0.010750261 0.013891695 -0.010874095 0.010413822 -0.0063748728 -0.0025770245

momentum_buffer f4 [8]
00000000: e817 a53a f476 c2bb 6ba0 3639 0000 0000
00000010: 73c2 60bc d621 0d3b 5746 06bc a88e 06bc
0.0012595626 -0.0059345905 0.00017416633 0.0 -0.013718235 0.002153506 -0.008195481 -0.008212723

momentum_buffer f4 [1, 8]
00000000: b210 97b9 af47 e03b 93d4 aab9 0000 0000
00000010: f98b 78bd 607f 923c 9685 f5bb 0966 15bc
-0.00028813403 0.006844483 -0.00032583307 0.0 -0.060680363 0.017883003 -0.0074927313 -0.009118565
