src/logs/lightning_logs/version_60/checkpoints/epoch=99-step=400.ckpt (torch, 6603 bytes, 6 tensors)

layer1.weight f4 [8, 17]
0	0x3f39c160	0.7256069
1	0xbebb07e5	-0.3652946
2	0xbd2d5892	-0.042320795
3	0x3f028bc4	0.50994515
4	0xbf0d084c	-0.55090785
5	0x3e4a2665	0.19741209
6	0xbe043a03	-0.12912755
7	0x3edf39ea	0.43598872
8	0x3e4feaa3	0.2030435
9	0xbe8abb67	-0.27096102
10	0xbe480804	-0.19534308
11	0x3f37bc41	0.7177163
12	0xbeafd241	-0.34340099
13	0xbeba9831	-0.36444238
14	0x3ea3b59f	0.31974503
15	0x3ed9bef6	0.42528504
16	0xbdc4c3ec	-0.09607682
17	0xbeb5477f	-0.3540611
18	0x3f4f2693	0.80918235
19	0xbe7544e4	-0.23952061
20	0xbef49d45	-0.47776237
21	0x3f12c937	0.5733828
22	0xbed251a5	-0.41077915
23	0x3e1ed850	0.15512204
24	0x3d3eff23	0.046630036
25	0xbd9f9c02	-0.07793428
26	0xbdcc2ce1	-0.099694975
27	0xbe40c61e	-0.18825576
28	0x3f764f2a	0.96214545
29	0xbd9efacb	-0.07762679
30	0xbe7bc055	-0.24585088
31	0xbe9e8d5b	-0.3096722
32	0xbcea63ac	-0.02861198
33	0x3c5bfd5d	0.013427106
34	0xbdb01e99	-0.08599586
35	0x3f1e21a0	0.6177006
36	0xbf2455d8	-0.6419349
37	0x3e10b075	0.14129813
38	0xbeda1ae1	-0.42598632
39	0x3f3ff3af	0.74981207
40	0x3ded0e16	0.11574952
41	0x3d83aef6	0.064298555
42	0x3e015cdd	0.12633081
43	0xbc71cbda	-0.014758075
44	0x3df4e9a7	0.11958628
45	0xbec0a5c1	-0.3762646
46	0xbe19d053	-0.15020876
47	0x3ccf0c94	0.025274552
48	0xbda5c80d	-0.08094797
49	0xbd10a422	-0.03531278
50	0xbe2a027a	-0.16602507
51	0x3e35a3b1	0.17738225
52	0x3e427689	0.1899053
53	0xbd81b03b	-0.063324414
54	0xbec0093a	-0.3750704
55	0xba4b3044	-0.00077510276
56	0x3c674894	0.014116425
57	0x3df7d10a	0.12100418
58	0x3e6b570e	0.22982427
59	0x3e816f50	0.25280237
60	0xbe19fbfb	-0.15037529
61	0x3e2b1083	0.16705517
62	0xbe229a1b	-0.15879099
63	0xbe36dce6	-0.17857704
64	0x3da086a2	0.07838179
65	0x3ab04636	0.0013448659
66	0x3e1d1b61	0.15342475
67	0xbdc9ff97	-0.09863203
68	0x3f65a376	0.89702547
69	0x3dbb81a9	0.0915559
70	0xbf7c7ad1	-0.986249
71	0xbf7bec90	-0.9840784
72	0xbdffe70b	-0.1249524
73	0x3f73d4d6	0.95246637
74	0x3c78298b	0.015146623
75	0xbd0fe16f	-0.0351271
76	0x3d0871da	0.033311702
77	0xbc824dad	-0.01590618
78	0x3d063b5d	0.032771457
79	0xbd87d17a	-0.06631751
80	0x3d9408b6	0.07228224
81	0x3e4200d7	0.18945633
82	0x3e15e11f	0.14636658
83	0xbe08f026	-0.1337286
84	0xbe540962	-0.20706704
85	0xbe477ef6	-0.19482026
86	0x3f3e2a8e	0.74283683
87	0xbf33b3e7	-0.70196384
88	0x3e453b8f	0.19261001
89	0xbf3ad1e5	-0.72976524
90	0x3f36c5cc	0.71395564
91	0xbd1091f8	-0.035295457
92	0xbd510bfe	-0.051036827
93	0xbc15975b	-0.009130324
94	0xbcd8b8f9	-0.02645539
95	0xbc3ca2c3	-0.011513415
96	0xbebf73c3	-0.37393007
97	0xbccdc2ff	-0.025117395
98	0xbb5111bf	-0.0031901447
99	0xbb980394	-0.0046390984
100	0x3d0de8ef	0.03464597
101	0x3cf00363	0.02929849
102	0xbf91c19e	-1.1387212
103	0x3f808eff	1.0043639
104	0x3e9202c8	0.28517747
105	0xbf94470d	-1.1584183
106	0x3f263312	0.6492168
107	0x3f694f3b	0.9113652
108	0x3e8297b0	0.25506353
109	0x3db1b926	0.086778924
110	0xbc88aecd	-0.016684914
111	0x3c5bbb91	0.013411419
112	0x3d45436b	0.048159998
113	0x3fc2cda5	1.5219008
114	0xbe4d7f93	-0.20068197
115	0xbed510be	-0.41614336
116	0xbec35336	-0.38149422
117	0xbe07bc48	-0.13255417
118	0x3dce563d	0.100750424
119	0xbf13f9d2	-0.5780307
120	0x3eb95507	0.36197683
121	0x3f003659	0.5008293
122	0xbe9fe100	-0.3122635
123	0x3f513ade	0.8173045
124	0xbe1fafda	-0.15594426
125	0x3b85349d	0.00406511
126	0x3e8bcef3	0.27306327
127	0x3dc3af21	0.095548876
128	0x3eaf6f4e	0.34264606
129	0x3d3507c8	0.044196874
130	0xbf701a93	-0.9379055
131	0x3f04f9f3	0.5194389
132	0x3de3b6c9	0.11118848
133	0x3f18eed6	0.59739435
134	0x3e52b76a	0.2057778
135	0x3ec03221	0.37538245

layer1.bias f4 [8]
0	0x3ed27531	0.41105035
1	0xbdc25a6c	-0.09489903
2	0xbe1a9c70	-0.15098739
3	0xbd90cd55	-0.07070414
4	0x3d644fc9	0.05574015
5	0x3cc0edaa	0.023550827
6	0x3ece2d32	0.40268856
7	0x3eb46d59	0.35239676

layer2.weight f4 [1, 8]
0	0x3fbd3637	1.478217
1	0x3fba2b1f	1.454441
2	0xbf985a29	-1.1902515
3	0xbecc43b8	-0.39895415
4	0xbfee23d2	-1.8604681
5	0xbfade304	-1.3584905
6	0x40282f8d	2.6279023
7	0xbfd3c1df	-1.654354

momentum_buffer f4 [8, 17]
0	0xbc31e279	-0.010857218
1	0x3c248ff6	0.010044089
2	0xb7a5a24a	-1.9745105e-05
3	0xbbecea5e	-0.007230087
4	0x3c2bcfb2	0.01048653
5	0xbb85ffa7	-0.004089314
6	0xbaa767c8	-0.0012772018
7	0x39e8f4c1	0.00044432844
8	0xbb12c669	-0.0022396094
9	0x3b14e767	0.0022720934
10	0xba62d920	-0.000865357
11	0xb9557d03	-0.00020359833
12	0x3c15d6ea	0.009145478
13	0xbb9613ae	-0.0045799827
14	0xbbaa38e5	-0.0051947706
15	0x3b81216c	0.003940752
16	0xbb9c6c11	-0.0047736247
17	0x3aa7dfef	0.0012807826
18	0xbc600896	-0.013673922
19	0x3c59a55f	0.013284056
20	0x3b92972e	0.0044735884
21	0xbc42f490	-0.011899129
22	0x3c0841bd	0.0083164545
23	0x3b3650fc	0.0027819267
24	0xbaf7dbcc	-0.0018910109
25	0xba6e954e	-0.00091012276
26	0x39a43120	0.0003131712
27	0x3ac3048e	0.0014878677
28	0xb888c006	-6.5207525e-05
29	0x3b019513	0.0019772693
30	0x3a470000	0.00075912476
31	0xbae957fd	-0.0017802712
32	0x39674144	0.0002205419
33	0x3a2fbc08	0.0006703739
34	0x3b25571d	0.0025228926
35	0xbbc3b16a	-0.005972077
36	0x3bb7aaef	0.0056050937
37	0xba271f62	-0.0006375221
38	0x3c5473fc	0.012967106
39	0xbc26af7c	-0.010173675
40	0x3b11b50a	0.0022233152
41	0xb88d5c36	-6.7405796e-05
42	0xb8c0e1c4	-9.1973256e-05
43	0xb91f0b40	-0.00015167613
44	0x3b1d41ea	0.0023995587
45	0x382ad79d	4.0731964e-05
46	0xba261efb	-0.0006337014
47	0x3b75196a	0.0037399181
48	0xba81e5c7	-0.0009910398
49	0x3b33d5de	0.0027440707
50	0xba1a2ede	-0.00058816175
51	0xbab26145	-0.0013609311
52	0x3aecd71a	0.0018069476
53	0xba1e5680	-0.0006040111
54	0x39ea80bc	0.00044727873
55	0xb9a83c3c	-0.00032088335
56	0xb9951a34	-0.00028439017
57	0x3a0c24c9	0.00053460576
58	0xba358fa9	-0.0006926009
59	0xba875fbf	-0.0010328217
60	0x3af845c9	0.0018941696
61	0xba859b7c	-0.0010193433
62	0x37543cd4	1.2650347e-05
63	0xb93a4533	-0.00017764121
64	0xbacd49a7	-0.0015662209
65	0x3ace3468	0.0015732171
66	0xbadbaae1	-0.00167593
67	0x3ac6f570	0.0015179347
68	0xbc091fad	-0.0083693685
69	0xbbc69abb	-0.006060926
70	0x3c5c10d0	0.013431743
71	0x3ba367b5	0.004986728
72	0x3bafc2f6	0.0053638173
73	0xbc39f18f	-0.011349096
74	0x3af4537e	0.0018640605
75	0xbb3b9aa2	-0.0028626104
76	0xbad18486	-0.001598493
77	0x3a478ee0	0.00076125376
78	0xb929256b	-0.00016131035
79	0x388c277a	6.683073e-05
80	0xb9af60c0	-0.00033450685
81	0xb9844610	-0.00025229203
82	0xb9faea2c	-0.00047858187
83	0x39a448ee	0.00031334854
84	0xbaabf400	-0.0013118982
85	0x3af36094	0.0018568211
86	0xbc59d94f	-0.013296439
87	0x3c0e874e	0.008699251
88	0xbae435a8	-0.001741101
89	0x3c0764d9	0.00826379
90	0xbc17c415	-0.009263058
91	0xba42bd2b	-0.0007428701
92	0xbb02e876	-0.0019974983
93	0xbaa858bf	-0.0012843831
94	0xba9ca2a6	-0.0011950328
95	0xb988d06f	-0.00026095237
96	0x3847db72	4.764967e-05
97	0xbb4eb386	-0.003154011
98	0xba999d9b	-0.0011719944
99	0x3ac99648	0.001537987
100	0x3a359ac9	0.0006927667
101	0xbb60fe72	-0.0034331349
102	0x3b085970	0.0020805262
103	0xbc21f288	-0.009884484
104	0x3bab6837	0.0052309292
105	0x3c0e2700	0.0086762905
106	0x3b888d32	0.0041672224
107	0xbc7c95aa	-0.015416542
108	0xbb999867	-0.004687357
109	0x3b0a908f	0.0021143293
110	0x3b3eeb5c	0.0029131984
111	0xbbb4e4aa	-0.005520423
112	0x380f6ea6	3.4196906e-05
113	0xb92168c5	-0.00015393186
114	0xbb467458	-0.0030281749
115	0x3a6c8d34	0.00090237265
116	0xb999c52b	-0.00029329336
117	0x3aea05e9	0.0017854545
118	0xbb8ed199	-0.004358482
119	0x3c04c01d	0.008102444
120	0x3b777740	0.0037760288
121	0xbc472821	-0.012155564
122	0x3b5508a8	0.003250638
123	0xbc353508	-0.011060007
124	0x3bf6d152	0.007532277
125	0x3b6c9e87	0.0036105232
126	0xbb7ec75b	-0.003887615
127	0xbb124720	-0.0022320226
128	0x3ae1d1c2	0.001722865
129	0x397356e8	0.00023206661
130	0x381f4381	3.7971422e-05
131	0xb857ccf0	-5.1450857e-05
132	0x3b1853f1	0.0023243392
133	0xbb299a98	-0.0025879499
134	0xbb85f6f6	-0.004088278
135	0x3b79c51a	0.0038111866

momentum_buffer f4 [8]
0	0xba5a5527	-0.0008328729
1	0x3a698c54	0.0008909155
2	0x3b0d4a26	0.0021559088
3	0xb925ab70	-0.00015799492
4	0xba82e1c8	-0.0009985501
5	0xbb3397c0	-0.0027403682
6	0xbb28a040	-0.0025730282
7	0xb9914660	-0.0002770899

momentum_buffer f4 [1, 8]
0	0xbc81e857	-0.015857859
1	0xbc94f6c2	-0.01818407
2	0x3c8abe6d	0.016936505
3	0x3b578b10	0.0032889284
4	0x3ca4e7f8	0.020130143
5	0x3cb0740f	0.021539716
6	0xbc561e19	-0.013068699
7	0x3c580098	0.013183735
