src/logs/lightning_logs/version_53/checkpoints/epoch=499-step=3500.ckpt (torch, 9970 bytes, 14 tensors)

model.linear_input.weight f4 [8, 17]
00000000: d6eb 1abf d46d 92bd 4d7b a2be a774 333e
00000010: 639c 403e d5b0 85bd 0435 29be 1f5e 0c3f
00000020: 8160 dc3e d01f bebe a5b5 6e3e fb8d 4dbe
00000030: 2198 a4be 577b b73e e471 b63e ec00 373e
00000040: d522 47be 73cd 7b3e d7b1 0bbe 2d63 af3e
00000050: 7fd1 43be 3f8f 133c 6e70 dabe d841 9bbe
00000060: 4b72 02bf e0a4 923e 57b5 f23e e569 b83e
00000070: 5868 2a3f ea18 643e 3b11 07bf a5e0 9e3e
00000080: efd7 843d 376f abbe ec99 d7be 9fff 923d
00000090: f1d3 b13e fcc7 a33e 2eab e4be fc12 a43d
000000a0: f091 19bf 1f3f 0d3f f7f1 63bd 0c5f 853e
000000b0: 217a 843e 3933 3b3e 1034 7abd 0cd8 e5be
000000c0: 32d9 813e 0747 333e 639d 2dbd e7c1 3fbe
000000d0: 6936 01bf 6805 a039 1cd9 43be eba7 de3d
000000e0: 3600 89bd 1dd2 4dbe 013b 883d 5698 1ebf
000000f0: 7381 32bd 3234 563a 2171 aabe 2106 f5bd
00000100: 63ca 9abe 6262 67be e28e 223e 0c50 c9bd
00000110: d49f 09bf 36e6 55bd d8b9 b9be d1b5 abbc
00000120: 29de a8be 98fa 8f3e 8938 003f 9a1a 963c
00000130: bc4f 0dbf 94b5 0c3e 9b74 073f f02c c5be
00000140: ef33 d1be 7f77 f9bc 6d3d 213f 1532 cf3e
00000150: 11a3 ac3e f6f0 a33e a352 053e 79c8 eebd
00000160: 1dd4 c93e 80e5 be3c a250 f8bd ab65 4b3e
00000170: 9102 873e f4b0 ecbe 2aa0 9a3e 15e9 47bd
00000180: 6a27 80be aacc 0dbf 6252 363e 06bc e4be
00000190: 9db8 30be f665 0b3f 6064 61bd 704b 1c3f
000001a0: 4fd9 b6be 8f06 333e be56 e9be 32ca f73e
000001b0: a609 7e3d f9f9 ad3e 2c43 4e3e 9335 993e
000001c0: 8c92 ed3d ec4b da3c e78c cfbe 4c96 573e
000001d0: 4d50 94be 6a38 1cbe 96b2 adbe 1516 9c3e
000001e0: 9d1c eb3e c7d3 8fbe 85df 20bf 2671 bc3e
000001f0: 0fdc b03e 5c21 bd3e 00ef 5dbe 2409 18bc
00000200: a273 44bf 3138 203f ab30 2bbe ff4b 8c3e
00000210: afc5 3d3e b040 923e 3819 d53e 8e6c d0be
-0.6051611 -0.07149854 -0.31734696 0.17524968 0.18809657 -0.06527869 -0.1652413 0.5483112
0.43042377 -0.37133646 0.2331148 -0.20073693 -0.32147315 0.35836288 0.35633767 0.17871445
-0.19446881 0.24590091 -0.1364206 0.34255353 -0.19122885 0.0090063205 -0.42663902 -0.30323672
-0.5095565 0.28641415 0.47403976 0.3601829 0.66565466 0.22275129 -0.52760667 0.31030765
0.064864986 -0.33483288 -0.4210962 0.07177662 0.3473201 0.31988513 -0.4466185 0.080114335
-0.5998831 0.5517444 -0.055650678 0.26049078 0.25874427 0.18281259 -0.061084807 -0.44891393
0.2536102 0.17507564 -0.042386424 -0.18726312 -0.5047365 0.00030521606 -0.1912579 0.108718716
-0.06689493 -0.20099683 0.06651879 -0.61951196 -0.043580484 0.000817123 -0.33289436 -0.119640596
-0.30232534 -0.22596124 0.15874818 -0.09829721 -0.53759503 -0.0522215 -0.362746 -0.02096072
-0.32981995 0.28120875 0.50086266 0.018323231 -0.5519979 0.13741142 0.529123 -0.38510847
-0.40859935 -0.030452488 0.62984353 0.40467897 0.3371816 0.32019776 0.13019805 -0.11659331
0.39419642 0.023302794 -0.121247545 0.19863002 0.26369146 -0.46228755 0.3020032 -0.04880627
-0.2503007 -0.5539042 0.17804864 -0.446747 -0.17257924 0.54452455 -0.055027366 0.6105261
-0.35712668 0.1748297 -0.45573992 0.4839645 0.06202092 0.33979777 0.20142812 0.29923686
0.11600217 0.02664753 -0.40537187 0.21053427 -0.28967515 -0.15255895 -0.33925313 0.30485597
0.45920268 -0.2809126 -0.62841064 0.36805075 0.3454289 0.36939514 -0.21673203 -0.009279523
-0.7673894 0.6258574 -0.16717784 0.2740173 0.18532442 0.28564978 0.41620803 -0.4070782

model.linear_input.bias f4 [8]
00000000: 119b e53e 83c9 5e3e 2ac7 debe df08 ffbd
00000010: fd69 9ebd 9840 9ebe 6622 34be db9c 56bd
0.4484487 0.21756558 -0.43511325 -0.12452864 -0.077350594 -0.30908656 -0.17591247 -0.052395683

model.linear_1.weight f4 [8, 8]
00000000: ae07 8ebe 2cce 133f 340a 51bf 2b4f dabe
00000010: 864c 0cbf 222c 703c 04e6 833e 8e49 f4bc
00000020: 723c 883e 2b3d 19bf 686c d03e 86cd f03b
00000030: a2dc 01be 4dae 673e 4e44 213f a364 d2be
00000040: 442e d73e 5571 61bd a616 b1bd 4632 04bf
00000050: 7ee7 a8be e1cc ac3e aa47 d83e 23d4 18bf
00000060: 77f5 5639 9847 5e3d 6f21 f73e 0f08 e9be
00000070: 447b b33e 113d 7bbd e0b0 033e a960 1abf
00000080: e086 853e 911c 383e 73e5 9d3e 1e1a 6b3e
00000090: 73ad f23e f35a 4a3e 179d f9bd 149a bebe
000000a0: ab1a 693c 6e94 0abf 20a4 b5be 4726 053c
000000b0: 2a56 cd3e eb55 37bf 2cf0 aebe 399f 213f
000000c0: 21c0 12bf 9edb 12be 982c b5be 01cb 803e
000000d0: 7e3a ef3c 60f0 283e fc50 85be bc3a 10bf
000000e0: 076a f73c 7075 913e c5cc cd3e 21dc 563e
000000f0: 2d14 3fbf 4dd6 92bd 86fa ecbe 4159 c6bd
-0.27740234 0.5773647 -0.81656194 -0.42638525 -0.54804265 0.01465896 0.25761425 -0.02982023
0.26608616 -0.5985896 0.40707707 0.007348719 -0.12681821 0.22625084 0.6299485 -0.41092405
0.42027485 -0.055039722 -0.08646898 -0.5163921 -0.32989115 0.3375006 0.42242175 -0.59698695
0.00020500073 0.054267496 0.48267695 -0.4551396 0.35054982 -0.061337534 0.12860441 -0.6030374
0.26079464 0.17979647 0.30839118 0.22959182 0.47397956 0.19761257 -0.12188166 -0.37226927
0.01422755 -0.54132736 -0.3547678 0.008126802 0.401048 -0.71615475 -0.34167612 0.6313358
-0.57324415 -0.1434159 -0.35385585 0.2515488 0.029202696 0.16497946 -0.2603835 -0.5633962
0.030201925 0.2840991 0.4019529 0.2098241 -0.7464016 -0.07169781 -0.46284884 -0.096849926

model.linear_1.bias f4 [8]
00000000: 5404 b1bd 8219 e4be 2dea 2ebd 58cb 143f
00000010: a026 e6be 89d3 5a3d 2de1 8dbe a85c cdbd
-0.08643404 -0.4455071 -0.042703796 0.5812278 -0.44951344 0.053424392 -0.27710858 -0.100274384

model.linear_2.weight f4 [8, 8]
00000000: 9061 6abd e04a fb3d 8877 80be 88b2 fdbd
00000010: 7ca1 53be 5c0f 8cbe eea4 853e 708f 333e
00000020: de70 023f fefc 453e ef61 4fbe 7734 0b3f
00000030: eca4 2abe f1b5 ffbd 2dab 2f3e 67a5 b33e
00000040: cb41 3e3e ba1d ca3e 3631 ca3e e9ed 54bf
00000050: 0214 753d f6c9 313d bc48 1a3e 8fe6 39be
00000060: cc46 6f3e 2063 e2be b778 b7be 8a38 e8be
00000070: 24bb 613e 55fa 2bbe e2f6 d7bd 1f14 503e
00000080: cd82 60be b591 073f 3405 1cbf b9bb 353f
00000090: a7ea 8cbe a536 2c3f df3d 67be f458 ee3e
000000a0: f386 4a3e 825e de3e 358c 50be e203 273f
000000b0: e36c 07bf 8dd4 45bf 93ed d0be c62a b9be
000000c0: 8902 69bf f685 12bf 076f ee3e 06c9 a73e
000000d0: b2bd fd3d 49c9 063d 7f3c 213f abc4 2bbf
000000e0: 1004 183d 8095 763c 5a53 e1be 000a daba
000000f0: dc23 b6be e074 cbbc 5ee9 81be 6855 94be
-0.05722195 0.12270141 -0.25091195 -0.12387568 -0.2066707 -0.27355468 0.26102394 0.17535186
0.5095347 0.1933479 -0.20252202 0.5437693 -0.16664475 -0.124858744 0.17155142 0.3508713
0.18579786 0.39475805 0.3949067 -0.8317552 0.059833534 0.043405496 0.15066808 -0.18154357
0.2336685 -0.4421625 -0.35834286 -0.45355636 0.22044045 -0.16794713 -0.10545136 0.20320176
-0.21924897 0.52956706 -0.6094544 0.7098957 -0.27522776 0.6727088 -0.22582196 0.4655224
0.19778042 0.4343148 -0.20365985 0.652403 -0.5290052 -0.7727745 -0.40806255 -0.36165446
-0.91019493 -0.5723566 0.46569082 0.32770556 0.12389697 0.032906804 0.62982935 -0.67096967
0.03711325 0.015050292 -0.44008905 -0.001663506 -0.35574234 -0.024836004 -0.25373358 -0.2897141

model.linear_2.bias f4 [8]
00000000: 58d2 d1bd 5ed1 09bf 2853 f3bd 22fc dfbe
00000010: 0f80 23bf f445 063f ca89 fa3e 60f3 c0bd
-0.10245198 -0.53835094 -0.11881095 -0.4374705 -0.63867277 0.5245049 0.4893325 -0.0942142

model.layer_output.weight f4 [1, 8]
00000000: 32fb ea3e b93f 25bf 646b 6cbf f542 573e
00000010: fd6b 823f 7b64 883f cbf4 99bf b85e 91be
0.45894772 -0.6455036 -0.92351365 0.21021636 1.0189205 1.0655664 -1.202783 -0.28392577

momentum_buffer f4 [8, 17]
00000000: 8a21 f53a 3b52 a13b 0a6a 89ba e01f 013a
00000010: a3d0 a93a f6a7 813b c366 3c3b 7319 3c3b
00000020: c955 703b 801d b7b8 58e3 0d3b a8e4 2b3b
00000030: 5016 49ba e66a 193a 6786 583b ad0a 3c3b
00000040: 8975 3c3b 8003 1dbb 1a20 833a 1810 88b9
00000050: 76cc 773b 1e51 27bb d0f0 3cbb 5e23 9dbb
00000060: 46d1 4d3b 0b82 92ba 242d 99ba 8288 253a
00000070: dc09 3cbb 6869 453b 639e 70bb b992 f53a
00000080: 8843 8bb9 101a b6ba 76bf 62bb dc04 86bb
00000090: 7ee0 13bc c8f1 17bc 6075 80ba ac24 cfbb
000000a0: 578a efba 80a1 71bc 963f 79bb 20a6 2dbc
000000b0: 1173 0ebb edc0 7fbb 06a1 09bc 5478 2dbb
000000c0: 9d1b d5ba 7a93 92bb 0e49 46bc 9678 023a
000000d0: bbbe a3ba 5b4b 3b3a 3447 78b9 001d db38
000000e0: 50a5 c738 971d d139 b890 e4b9 75d4 0bba
000000f0: 99c1 823a 3e68 03ba bf33 5eba 8805 8d38
00000100: aa88 993a 986f e0b9 c6a1 f2ba 05c5 ed3a
00000110: 5081 6eba 8e9e a3ba 64fd 483b d7c2 933b
00000120: 92e1 f5b9 b13b 4dbb 80d2 f9b9 3190 b53a
00000130: d424 903a 58e8 213b f86c 2ebb a945 f9b9
00000140: 2fea 273b f0e9 0eb9 238a 88ba c0c1 aeba
00000150: a7ee 123b ce7e ef3a 7f91 2d3b 7d34 8d3b
00000160: 37fd 8c3b 1917 733a aaf9 683b c3af 0c3b
00000170: 0e85 d93b c0a7 ad3a 87c8 853b f154 5d3b
00000180: d22c 8c3a ac41 813b d4fa aa3a b6a2 213b
00000190: 4b29 363b 4bc8 c43b 89a6 88ba f5e0 3ebb
000001a0: 110b 49bb 2c26 bebb e0ff 7eb9 ec05 80ba
000001b0: c42b b239 6242 f1bb d673 a1ba 6fef fbbb
000001c0: fdb2 f83a c9df aab9 fcce 5dbb 58a2 28bb
000001d0: eec7 41ba 0048 6d3a 52e4 01bc 66eb 83ba
000001e0: ab09 24ba d3f1 a0bb cf00 55bb 1516 07bb
000001f0: c289 a1ba 2c32 15bb cbd4 8bbb 5544 b03a
00000200: 655c dbbb 478a 9cba 6b13 3dba 0dc0 3cbb
00000210: 18eb 04bb 0caf 6fba 9157 3fba f182 bebb
0.0018702012 0.0049231327 -0.0010483873 0.0004925709 0.0012955855 0.00395679 0.0028747774 0.0028701692
0.0036672226 -8.731615e-05 0.00216504 0.002622882 -0.00076708663 0.0005852416 0.0033039094 0.0028692887
0.002875658 -0.0023958385 0.0010004074 -0.00025951932 0.0037811077 -0.0025530527 -0.002883006 -0.004795476
0.0031405254 -0.0011177672 -0.0011686427 0.0006314592 -0.00286924 0.0030122641 -0.00367155 0.0018735743
-0.0002656246 -0.0013893265 -0.0034598983 -0.0040899348 -0.009025691 -0.009273954 -0.0009800605 -0.0063215103
-0.0018275481 -0.014747977 -0.0038032285 -0.010598689 -0.0021736065 -0.0039024905 -0.008400207 -0.0026469426
-0.001625884 -0.004473147 -0.0121023785 0.0004977075 -0.0012492755 0.0007144713 -0.00023677648 0.000104481354
9.519851e-05 0.00039885633 -0.00043595373 -0.0005334088 0.000997591 -0.0005012787 -0.00084763387 6.724434e-05
0.0011713703 -0.00042807753 -0.0018511347 0.0018140381 -0.00090982486 -0.0012483166 0.003066861 0.0045093107
-0.00046898104 -0.0031316096 -0.00047649816 0.0013852176 0.0010997304 0.0024705138 -0.0026615243 -0.00047544882
0.0025621762 -0.00013629324 -0.0010417145 -0.0013332888 0.002242008 0.0018272044 0.0026484428 0.0043092356
0.0043026465 0.0009273156 0.0035549202 0.0021467067 0.006638176 0.0013248846 0.0040827426 0.0033772553
0.001069451 0.0039445963 0.0013044723 0.0024663634 0.0027795609 0.006005322 -0.0010425608 -0.0029125784
-0.0030676762 -0.0058028903 -0.00024318649 -0.000976739 0.00033983414 -0.00736265 -0.0012317847 -0.007688455
0.0018974241 -0.0003259166 -0.0033845296 -0.002573153 -0.00073921576 0.00090515614 -0.007927971 -0.0010064661
-0.0006257544 -0.00491164 -0.0032501703 -0.0020612527 -0.001232438 -0.00227655 -0.0042673103 0.0013448099
-0.006694364 -0.0011943065 -0.00072126713 -0.0028800995 -0.0020281728 -0.00091432105 -0.000729912 -0.0058139493

momentum_buffer f4 [8]
00000000: 1c40 bc3b efea d8ba 65c9 87bc 0098 1bb8
00000010: 1837 6e3a 78ee 0f3c a61f e6bb e26d d6bb
0.005744947 -0.0016549508 -0.016575525 -3.709644e-05 0.0009087189 0.008784883 -0.0070228158 -0.006543861

momentum_buffer f4 [8, 8]
00000000: 35bc a1bb fa4f 203b 6bef 2d3b 43aa 473c
00000010: 1ca5 5bba b755 a5bb b539 76bb b071 a03b
00000020: da08 3bbc 785f cf3a f52d 42bc e1f8 943c
00000030: 2037 993a bd4c ebbb 7004 a2bb d796 a53c
00000040: 88ae 783c b6dc 22ba e9d7 6a3b bd47 f4bc
00000050: 52e4 863b af84 003c b22a 063c 0e6a 3fbc
00000060: 8c31 1bbc bf21 4d3a 29ac eeba 5d02 913c
00000070: a324 48bb 0d1c 40bb e85a 92bb d042 673b
00000080: af15 483b 763f 8c3a cd9d b03b 246a b9bb
00000090: 28c4 da39 b316 2d3b 442d a3ba 7377 1abc
000000a0: 9078 36ba 3878 d7b8 bc48 57bb 338b 93bb
000000b0: b9f4 e8ba de28 3b3b 4a5b c43a 708a 74bb
000000c0: d464 cdb9 6126 abb9 cc52 a23a 54f3 0abc
000000d0: dcf0 d8ba c045 163c 4a9e c7ba ea87 8ebc
000000e0: 5e93 25bb 5e28 f3ba 040c 82bb cfdb 8a3b
000000f0: 0e80 283b 086f 0f3a f8b1 d53a 771d c03b
-0.004935766 0.0024461732 0.002654041 0.01218659 -0.000837879 -0.0050456184 -0.0037571017 0.004896365
-0.011415685 0.0015821299 -0.011851777 0.018185081 0.0011689402 -0.007180779 -0.0049443766 0.020213528
0.01517833 -0.0006212698 0.003583426 -0.029819364 0.0041165734 0.007844134 0.00818889 -0.011683
-0.009472262 0.0007825158 -0.0018209267 0.017701322 -0.0030539415 -0.0029313595 -0.0044664033 0.0035287626
0.0030530503 0.0010700065 0.005389905 -0.005658405 0.00041726348 0.0026411235 -0.0012449403 -0.009427893
-0.0006960714 -0.000102743914 -0.003284975 -0.004502678 -0.0017773128 0.0028558294 0.001498082 -0.003731396
-0.0003917577 -0.00032644256 0.0012384295 -0.0084808655 -0.0016551274 0.009171903 -0.0015229669 -0.017398793
-0.002526484 -0.0018551459 -0.0039687175 0.004237629 0.0025711092 0.0005471562 0.0016303649 0.0058628875

momentum_buffer f4 [8]
00000000: e35f 37bc d0e4 a0bc 9776 013d 8d4f 9bbc
00000010: 73bc e23b 0b8d 6b3b ec84 543c c427 b9bb
-0.011192295 -0.019640356 0.031607237 -0.018958831 0.0069194376 0.0035942222 0.012971144 -0.0056504924

momentum_buffer f4 [8, 8]
00000000: 0000 0000 0000 0000 0000 0000 0000 0000
00000010: 0000 0000 0000 0000 0000 0000 0000 0000
00000020: 6d37 2c3c b43c af3b 7489 843c c01e aa3c
00000030: c7ac 013b ed13 8f3b 1738 0f3b 407a 983b
00000040: dc7e 403c ca00 0c3b 9ae8 d03b 5cd8 873b
00000050: 0400 0080 9a7e a53b 5807 3a39 bb98 92ba
00000060: b2fc d1b9 0000 0000 a4ee 5339 981a b629
00000070: 0000 0000 f939 9339 201a 62b5 50ee 6f39
00000080: 490e c2bb a633 d7bb 9807 80bc c428 f4bc
00000090: 50f1 50bb faf2 67bc af56 35bb 19db d9bb
000000a0: 39c4 88bc 7d64 25bc 2131 03bd 05ac 29bd
000000b0: 9ddc 52bb 3a31 d7bb 9416 8abb 6e20 05bc
000000c0: 1e84 313c 5068 3e3c 1870 113d b2ed 3e3d
000000d0: 206e 723b 09e6 553c da17 ac3b 79e1 0c3c
000000e0: 0000 0000 0000 0000 0000 0000 0000 0000
000000f0: 0000 0000 0000 0000 0000 0000 0000 0000
0.0 0.0 0.0 0.0 0.0 0.0 0.0 0.0
0.010511261 0.0053478125 0.016178824 0.020766616 0.0019786821 0.004366389 0.00218535 0.004653245
0.011748996 0.0021362775 0.0063753845 0.004145665 -6e-45 0.0050504925 0.00017741078 -0.0011184433
-0.0004005186 0.0 0.00020211429 8.087037e-14 0.0 0.00028081218 -8.422958e-07 0.00022881594
-0.005922113 -0.0065674363 -0.015628621 -0.029804595 -0.0031882115 -0.014157051 -0.0027670076 -0.006648433
-0.016695129 -0.010094759 -0.032029275 -0.041423816 -0.0032174953 -0.0065671476 -0.0042141173 -0.008125408
0.010834722 0.01162155 0.03550729 0.046613403 0.003699191 0.013055333 0.0052518668 0.008598679
0.0 0.0 0.0 0.0 0.0 0.0 0.0 0.0

momentum_buffer f4 [8]
00000000: 0000 0000 5154 913c d00f 193c 9158 7eb9
00000010: d45a adbc 2e9a 0bbd f4c2 133d 0000 0000
0.0 0.0177404 0.009342149 -0.00024256321 -0.021161474 -0.034082584 0.036074594 0.0

momentum_buffer f4 [1, 8]
00000000: 0000 0000 1d99 22bc 4ae1 dbba 34d6 94b9
00000010: af38 2dbc ca76 00bd 5b6c e0bc 0000 0000
0.0 -0.0099242 -0.0016775515 -0.00028388354 -0.010572596 -0.031363286 -0.027395418 0.0
