src/logs/lightning_logs/version_10/checkpoints/epoch=137-step=552.ckpt (torch, 8699 bytes, 11 tensors)

model.linear_input.weight f4 [8, 17]
000000 78 eb 3b 3f 7b 0e 3e 3f 49 1c 67 bf ac e0 a7 be
       0.7340617 0.74240845 -0.90277535 -0.327886
000010 18 45 d9 3e dc 0d 4d bf 9b f4 b1 3e 44 c4 b1 3e
       0.42435527 -0.8009927 0.34756932 0.3472005
000020 5b ec 5d be 32 8e 8c 3e c2 e6 88 be 04 6c a0 bf
       -0.21672194 0.27452236 -0.26738554 -1.2532964
000030 fe b5 19 3f 5d a7 9f 3e 7c 21 c7 3e aa 52 a2 3e
       0.60043323 0.31182376 0.38892734 0.31703693
000040 f0 03 18 3f 34 85 93 3e f5 2c 98 3c 8e 92 e7 bd
       0.5938101 0.28812563 0.018576125 -0.1130725
000050 8e e5 e3 bd 2e f8 2b be 9a 3f 20 bf 2a 90 7f bd
       -0.111277685 -0.16793892 -0.6259705 -0.062393345
000060 e5 55 21 be 3c 63 35 be c0 3d 4d be 4b 3a 18 bf
       -0.15755422 -0.17713636 -0.20043087 -0.5946395
000070 58 69 94 bd 7c 27 0d 3f d5 b8 2e be a9 26 01 3f
       -0.07246655 0.55138373 -0.17062695 0.50449616
000080 49 db 06 3e 91 fc 07 3e f4 b1 23 3e 58 a2 65 be
       0.13169588 0.1327994 0.15985852 -0.2242521
000090 64 5c 46 bd 31 47 2c 3f dd cf 33 3c fd e3 a7 3e
       -0.048427954 0.6729613 0.010974851 0.3279113
0000a0 02 8e a3 be 0e 5b e3 3c d9 57 dd be fd 4b 38 3e
       -0.3194428 0.02775338 -0.43231085 0.17997737
0000b0 36 0a 5e 3e 9c a2 51 bf f9 82 8d 3e c7 2c a6 3e
       0.21683583 -0.8188875 0.27638987 0.32456037
0000c0 82 23 c5 3e d3 71 0a be 7d 0f 75 be 04 4f 07 3f
       0.38503653 -0.13519983 -0.2393169 0.52854943
0000d0 2a 9c f9 3a 21 8e 54 3e a4 7c 2d 3f 42 a5 ec be
       0.0019043733 0.20757343 0.6776831 -0.46219832
0000e0 14 52 76 be 4a 3c 75 3e 27 4d 35 3e 87 60 92 3e
       -0.24054748 0.2394878 0.17705213 0.2858927
0000f0 dd 5f 0e 3f 1e 51 dc 3d ca 59 63 3f 6b c3 e5 3e
       0.55615026 0.107576594 0.8880888 0.44875655
000100 3e b6 4e bf 5d 7b af be 6d 0a 77 bd 72 db 76 3d
       -0.8074683 -0.34273806 -0.060312677 0.060267873
000110 12 3d 34 3f 52 94 20 be e1 c1 9d be 3b 2f f3 3e
       0.70405686 -0.1568158 -0.3081198 0.4749697
000120 c0 5d 82 be 79 ae 7e bf 8a b8 60 be 86 fb ea be
       -0.2546215 -0.99484974 -0.21945396 -0.45895022
000130 87 f3 e6 3e 5b 86 60 be b9 f0 45 bf 62 57 6a be
       0.45107672 -0.21926253 -0.7732044 -0.22884896
000140 96 c4 3b be 31 33 0b bc 1e 10 da be de 14 d3 3d
       -0.1833671 -0.008496092 -0.4259042 0.103067145
000150 84 f8 2b bf 28 3a 05 3f 2e 70 83 bf ef 67 5c 3e
       -0.6717608 0.52041864 -1.026861 0.21524023
000160 40 31 98 3e 84 aa 07 bf 10 f8 ed 3e 73 83 d3 be
       0.29725075 -0.5299456 0.4647832 -0.41311225
000170 1e da 6d 3c 52 a7 30 bc 61 bb 1d 3f ef 85 ed be
       0.014517335 -0.01078208 0.6161404 -0.46391246
000180 77 c9 45 3f da e0 b6 3e 23 f1 70 3d c6 8e 63 be
       0.77260536 0.35718423 0.058823716 -0.22222432
000190 da c9 1a 3f 48 4b 08 bf a2 f2 7d bf 38 e4 dd 3e
       0.6046425 -0.5323987 -0.99198353 0.4333818
0001a0 d1 8d 22 be 70 83 85 bf 03 a2 fe 3e bf 29 89 3e
       -0.15874411 -1.0430737 0.4973298 0.26789662
0001b0 49 03 94 3e 85 dd 93 3e 03 99 8e be 71 eb 35 3e
       0.28908756 0.28879943 -0.27851114 0.17765595
0001c0 94 8d 06 be 0f 9a d0 3e 1a 0d 10 bf 5b 92 51 bc
       -0.13139945 0.40742537 -0.5626999 -0.0127912415
0001d0 69 bf 64 be 6e e2 33 be 72 15 82 3e f1 8f e1 3d
       -0.22338642 -0.17566845 0.25406986 0.11013783
0001e0 72 21 74 be f2 06 8a 3f 6a 78 b1 be 9c 99 03 bf
       -0.23840883 1.078337 -0.3466218 -0.51406264
0001f0 ae 41 89 3f 44 d2 d7 3e 20 52 c0 bb 8b b0 69 3e
       1.0723169 0.42152607 -0.005869165 0.22821252
000200 b4 9b ba 3d 81 24 12 3d ac a0 fc 3d 4e 6d 43 be
       0.09111729 0.035679344 0.12335333 -0.19084665
000210 b1 53 d3 3e 3c f0 78 3e dd 32 2d 3d 61 4f 4b 3f
       0.4127479 0.24310392 0.042284835 0.79418

model.linear_input.bias f4 [8]
000000 f2 b8 25 3f 7b 06 e9 3e 5a 7f 10 3f d1 88 29 be
       0.6473533 0.45512757 0.56444323 -0.16556098
000010 2d 24 19 3e 57 0d 0a bf 2f 26 fd bd c5 1e 92 3e
       0.14955206 -0.53926605 -0.123607986 0.285391

model.linear_1.weight f4 [8, 8]
000000 7a 68 66 3f 21 76 3f 3e 06 18 f9 be 1a 4c 90 3e
       0.9000317 0.18697406 -0.4865114 0.2818306
000010 91 71 a4 3e 0a 50 69 be 28 1e 8e 3e 7a 54 2e bf
       0.32117894 -0.22784439 0.27757382 -0.6809765
000020 eb 40 d4 bf c4 f2 a2 be f0 d7 f9 be d2 ac 2c 3f
       -1.6582311 -0.3182584 -0.4879756 0.674512
000030 73 49 57 bf 05 16 71 3f f2 6a 0f 3f 5f 59 7b 3f
       -0.8409645 0.94174224 0.5602256 0.98183244
000040 cc 11 21 be 61 49 97 3e 4f 06 d5 3d ee 8e 65 3f
       -0.15729445 0.2954817 0.10401594 0.8967122
000050 69 a1 87 3f 64 f3 8e 3f fa e8 78 bf be d8 5c bf
       1.0596133 1.1168027 -0.97230494 -0.8626822
000060 22 97 00 3e fc f5 3e be ed 0b e9 be 66 22 a3 be
       0.12557653 -0.18648523 -0.4551691 -0.3186218
000070 fb 5b 52 3c ac b9 81 3e 16 48 50 3e 60 56 de 3d
       0.012839313 0.2533697 0.20339999 0.108563185
000080 fc 20 95 3e ac 22 21 be b3 64 9b be ae 9b e5 be
       0.29126728 -0.15735883 -0.30350265 -0.44845337
000090 ca 0c 3a bf 2a 3a 20 bf 86 e2 7c 3f 44 e4 fe be
       -0.72675765 -0.6258875 0.9878315 -0.49783528
0000a0 ea f6 36 3f 4a d6 27 bd b9 0d 60 3f ee 46 be be
       0.7147051 -0.040975846 0.8752094 -0.3716349
0000b0 36 59 12 bf 4b f5 7f bd f2 c2 18 bf c5 d5 26 3f
       -0.57167375 -0.06248979 -0.5967246 0.65169936
0000c0 dc 4c 33 3d f1 d2 23 bc a7 b1 34 3e 37 c9 cc 3d
       0.04377447 -0.009999023 0.17645894 0.09999316
0000d0 85 b1 b4 3d 87 ae 86 3e 56 09 4a be 07 b5 b8 be
       0.08822922 0.2630503 -0.19730124 -0.36075613
0000e0 46 42 68 3d 16 4d 9a 3e 6d 9a 0b 3e f2 90 65 3c
       0.05670383 0.30136937 0.13633128 0.014011608
0000f0 94 36 85 bd f8 99 a8 bd 51 41 0e bd 89 52 00 3f
       -0.065045506 -0.08232492 -0.03473026 0.5012594

model.linear_1.bias f4 [8]
000000 50 46 a6 3e b0 b0 73 3e f7 70 2a be ae 74 05 bf
       0.3247552 0.2379787 -0.16644655 -0.52131164
000010 05 2f b6 3e 21 9c b0 3e c5 12 10 3d 13 38 f9 3e
       0.35582748 0.34494117 0.03517415 0.48675594

model.layer_output.weight f4 [1, 8]
000000 c2 6d 98 3f 52 40 15 40 69 2b 08 40 a6 18 7f 3e
       1.1908495 2.3320508 2.1276495 0.24911746
000010 67 f9 bd 3f d1 18 bb bf 42 8c 99 3e 58 76 da be
       1.4841737 -1.4616948 0.2998982 -0.42668414

best_score f8 []
000000 88 17 94 86 ad 3d a5 3f
       0.041486189535176854

momentum_buffer f4 [8, 17]
000000 ea 1e 2d 39 1a 1a 9b ba 5d c7 95 3a ba 2d cc 38
       0.00016510082 -0.001183334 0.0011427213 9.735995e-05
000010 8c 20 77 ba 10 3d 7e 3a a9 23 3e 3a 6c 81 1d ba
       -0.0009427152 0.000969843 0.00072532386 -0.000600836
000020 cc 63 82 b9 30 cf 1b 3a 34 ec 67 b9 7d 66 94 3a
       -0.00024869887 0.0005943654 -0.00022117869 0.0011322048
000030 9d 99 a0 ba 40 87 07 39 61 35 b9 38 d1 0b 5b ba
       -0.0012252812 0.00012924988 8.83143e-05 -0.0008355948
000040 12 ae 7b 3a dd da 9c ba dc c6 bc 39 f6 b4 e8 39
       0.00096008286 -0.0011967082 0.00036006316 0.00044385315
000050 d1 de 78 ba 10 3e b8 38 80 be f5 39 53 ec 49 ba
       -0.00094936515 8.785364e-05 0.00046871975 -0.00077027566
000060 05 e9 c5 39 51 70 24 ba 02 48 82 39 de df 6a b7
       0.0003774838 -0.000627284 0.00024849182 -1.399961e-05
000070 b5 c2 8d 39 dd 53 b6 39 b9 3f 84 ba 64 ab 03 b6
       0.00027038684 0.00034776228 -0.0010089792 -1.9620284e-06
000080 9c fa 0f 3a 69 f2 76 ba 60 9b f4 39 94 04 a4 39
       0.0005492361 -0.0009420277 0.0004665507 0.0003128393
000090 ae ee 8e b9 ba 9d fd 39 f5 e7 15 b9 fb 0e 2e 39
       -0.0002726218 0.00048373436 -0.00014296158 0.00016599514
0000a0 10 62 5a 3a dc 12 ab b9 ea 80 18 3a dc 7d 27 38
       0.00083306525 -0.00032629713 0.00058175495 3.993312e-05
0000b0 43 01 f1 b8 8d c2 97 3a 84 30 44 ba a9 b8 32 3a
       -0.000114920105 0.0011578366 -0.0007484036 0.00068176776
0000c0 a3 34 19 ba a2 a4 59 ba a1 3e af 3a cf 3e 61 bb
       -0.00058443303 -0.0008302425 0.0013370105 -0.0034369712
0000d0 5b f9 bc 3a ef 12 d2 39 d0 31 3a bb 42 1a 6b 3a
       0.0014417575 0.00040068428 -0.0028411038 0.00089684513
0000e0 e4 5b b7 39 0b 8b 43 bb 8f 16 b6 3a ec 34 f7 ba
       0.00034972944 -0.0029837515 0.0013892221 -0.0018860376
0000f0 96 09 0e 39 77 a1 23 39 18 4c 1a ba 3b 89 fb 3a
       0.00013545746 0.00015605042 -0.00058859726 0.0019190678
000100 37 1a 48 bb da 8d 06 39 c1 ed 0c 3b 84 6d 75 bb
       -0.0030533203 0.0001283208 0.0021504017 -0.003744931
000110 5c a1 96 bb 45 ee f8 3a d4 be c2 3a 24 fb 67 bb
       -0.0045968723 0.0018991908 0.0014857897 -0.0035397494
000120 89 45 31 3a 25 7b d8 3a 91 e3 45 bb c7 ee ec 3a
       0.00067623757 0.0016516192 -0.0030195455 0.0018076532
000130 d9 2b 09 bb 75 82 5e 3a a5 c3 07 38 7f c1 1a 3a
       -0.0020930676 0.00084880675 3.2368716e-05 0.0005903467
000140 1b 6a fd 3a 05 74 7b bb 57 4d d4 38 82 df 31 3b
       0.001933399 -0.0038368714 0.000101233534 0.0027141278
000150 d8 a5 80 bb 2d e9 65 bb 04 c5 01 3b 20 ba 8e b6
       -0.00392602 -0.003508161 0.0019801268 -4.2535976e-06
000160 bf f2 3d bb fb d8 94 3a ba ab 71 39 d2 c7 46 bb
       -0.00289838 0.0011356169 0.00023047524 -0.0030331505
000170 93 b8 c4 3a 90 81 e0 ba c0 4a 73 b7 ad 88 4c 39
       0.0015008621 -0.0017128456 -1.4501333e-05 0.00019505872
000180 f6 dc c2 b9 67 87 05 3b bb fb 46 bb 38 b9 29 b9
       -0.00037167192 0.0020374896 -0.0030362445 -0.00016186095
000190 91 af 09 3b 18 1b 6e bb d4 a0 4c 3b 75 2d 01 bb
       0.0021009187 -0.0036332067 0.003122379 -0.0019710932
0001a0 dd 8f f0 b9 93 a2 16 3b d5 a3 1d ba 73 b0 83 ba
       -0.00045883554 0.0022985085 -0.00060134876 -0.0010047093
0001b0 a2 aa e7 3a dc e7 8c ba c0 8d 90 3a c5 42 f9 b9
       0.0017674754 -0.0010750252 0.0011028573 -0.00047542728
0001c0 a3 5b 88 38 3c 98 ac ba 40 46 6b ba 22 54 16 3b
       6.502054e-05 -0.0013167928 -0.00089750066 0.002293833
0001d0 b9 ab 20 3a 44 62 a6 ba 87 92 00 3b d0 23 5a 3b
       0.00061291043 -0.001269408 0.0019618587 0.0033285506
0001e0 91 03 36 b9 1b 94 fc ba 42 6d 45 3b 88 4b 29 b8
       -0.00017358201 -0.0019270213 0.0030124937 -4.0363084e-05
0001f0 12 9d e4 ba e3 26 27 3b b1 5a ad ba da cb 0d 3b
       -0.001744183 0.0025505356 -0.0013225881 0.0021636398
000200 88 c0 44 ba dd 22 42 b9 ff 8f 17 39 e2 a1 c8 ba
       -0.0007505496 -0.0001851427 0.00014454125 -0.0015307034
000210 08 00 5f 3b 31 ba 4e ba 5c c9 09 bb e7 42 5a 3b
       0.0034027118 -0.0007886021 -0.002102456 0.0033304037

momentum_buffer f4 [8]
000000 f6 88 02 39 a2 ef cd b9 a1 d8 04 3a 8c ff d0 ba
       0.00012448788 -0.00039279187 0.00050676806 -0.00159453
000010 5a d8 9e ba 0d d7 c8 ba 8e 85 35 3a 14 f3 a0 3a
       -0.0012118921 -0.0015322879 0.0006924503 0.0012279474

momentum_buffer f4 [8, 8]
000000 4f 15 02 bb 2f 95 f4 b8 ee 50 7e 38 ad 99 6c ba
       -0.0019849127 -0.00011662614 6.063369e-05 -0.0009025585
000010 15 fb 41 ba e4 d9 b5 3a 31 5c 7c 3a e2 34 a6 ba
       -0.000739978 0.001387414 0.00096267747 -0.0012680555
000020 e4 d1 ee 3a 2a 1b 18 3a 16 8d 0e 3a d2 52 64 ba
       0.0018220511 0.00058023876 0.00054378936 -0.0008709851
000030 f2 0c b6 3a c8 49 3b ba 1b 89 5b ba 6b d1 1f bb
       0.0013889356 -0.0007144478 -0.00083746173 -0.0024386297
000040 ec 6f 70 bb f0 1e 0b ba ed 38 a7 ba 33 f4 bc ba
       -0.0036687804 -0.0005307039 -0.0012758054 -0.0014416039
000050 23 e8 7d bb 02 3c cb 3a 79 b5 9d 3b f8 af 69 bb
       -0.00387431 0.0015505555 0.004812893 -0.0035657864
000060 51 b7 f0 2b 88 0c 37 2c 7d d6 0e 2d 2a cc 02 ad
       1.7103906e-12 2.601282e-12 8.1193914e-12 -7.434978e-12
000070 2f ce f5 2c 62 d6 a1 2b 61 0a e1 ac bc 36 85 ad
       6.98621e-12 1.1499241e-12 -6.396037e-12 -1.5144656e-11
000080 00 39 5c 38 15 a4 82 39 3d 19 8f 3a e1 db d3 37
       5.2505173e-05 0.00024917783 0.0010917556 2.525555e-05
000090 46 30 1c 3a f6 37 2d 3a 60 94 04 bb 04 03 bc 3a
       0.0005958121 0.0006607765 -0.002023004 0.001434416
0000a0 6d 17 78 b9 72 b0 98 b9 20 96 09 ba 8c 88 16 3a
       -0.0002365985 -0.0002912316 -0.00052485056 0.0005742393
0000b0 e5 c7 7a 3a 82 9a fd b9 fd 1d dc b9 40 d6 63 3a
       0.000956653 -0.00048371038 -0.00041984013 0.00086912885
0000c0 57 e2 73 39 1e 2a 00 38 2d 2a 99 38 ea 34 3d 38
       0.00023258604 3.0556803e-05 7.3034644e-05 4.511039e-05
0000d0 0e b9 0b b8 f5 f9 48 b8 32 20 3f b9 e4 74 b2 39
       -3.3312528e-05 -4.7916506e-05 -0.00018227173 0.00034037896
0000e0 1c c0 90 b8 1f 4d b2 b8 0b ab 20 b9 17 d9 2f 39
       -6.902238e-05 -8.502066e-05 -0.00015322508 0.00016770173
0000f0 a4 6f 92 39 73 20 14 b9 40 92 00 b9 3e 14 85 39
       0.0002793047 -0.00014126468 -0.00012261514 0.00025382818

momentum_buffer f4 [8]
000000 90 68 55 ba 66 f3 d1 b9 ff d9 a6 ba 95 ca 09 ad
       -0.0008140886 -0.00040044932 -0.0012729763 -7.832531e-12
000010 e4 92 78 b8 c0 e9 1d b6 8f 05 36 39 c0 45 2f b5
       -5.926461e-05 -2.3530883e-06 0.00017358943 -6.529408e-07

momentum_buffer f4 [1, 8]
000000 f5 45 c3 ba ee f8 78 bb d9 a2 11 bb 30 1a b0 aa
       -0.0014898168 -0.003799017 -0.002222231 -3.1282052e-13
000010 d5 33 2e bb 44 ab bd 39 8f 89 70 b9 34 3c 3c b9
       -0.0026581187 0.00036176492 -0.00022939428 -0.00017951505
