src/logs/lightning_logs/version_22/checkpoints/epoch=499-step=2000.ckpt (torch, 8699 bytes, 11 tensors)

model.linear_input.weight f4 [8, 17]
000000 30 cb 8e 3e 1f d1 7c bf 91 d2 b1 3e d8 b5 b5 bf
       0.27889395 -0.98756593 0.34730962 -1.4196119
000010 07 e2 ad 3f 6c 5d 42 3e 50 01 95 be 91 e6 17 bf
       1.3584603 0.1898095 -0.29102564 -0.5933619
000020 f4 85 96 be 18 19 a6 3e 2a 0d cc 3c 9d 7d f8 be
       -0.29399073 0.3244102 0.02490862 -0.48533335
000030 e4 62 33 3e 1f e5 df be ca d4 0b be de 5f 6f bd
       0.17518193 -0.43729493 -0.13655391 -0.058441035
000040 8a 98 e0 3e 09 d7 6e be 9a 52 10 be dc 45 83 be
       0.43866378 -0.23324217 -0.1409401 -0.25639236
000050 c2 7b 4f 3f 2c 77 81 be e6 69 ac be 77 ea 89 3e
       0.81048214 -0.25286233 -0.33674544 0.26936695
000060 0e 4a f9 3e ce 51 d7 be 93 f2 9c 3e 57 cf fc 3c
       0.48689312 -0.420546 0.3065382 0.030860586
000070 0b a9 a7 3e df ba 92 b9 5b 72 13 bf e0 18 0d bf
       0.32746157 -0.0002798652 -0.5759637 -0.5511608
000080 47 f4 58 be 2d 14 5e be 10 f3 2f 3f 8d 7f 96 bf
       -0.21186934 -0.21687384 0.6873026 -1.1757675
000090 82 60 d9 3e e3 0f c8 be fc b2 f5 3e 85 5b 03 be
       0.42456442 -0.3907462 0.47988117 -0.1282788
0000a0 c8 a2 94 bd d4 0e c2 bd 79 b8 9f 3d cd 52 c8 be
       -0.072576106 -0.094754845 0.07798857 -0.39125672
0000b0 57 56 a6 be 37 12 17 3f 73 cb 91 be f1 da 09 be
       -0.32487747 0.5901217 -0.28475532 -0.13462426
0000c0 e2 1e 01 3c f5 4c 68 3e b9 bf 60 3e de 7d 4e 3f
       0.007880898 0.22685607 0.21948136 0.8066081
0000d0 de 86 08 be 8c 35 ea be 65 5f 35 3e bb be eb 3e
       -0.13332698 -0.45743978 0.17712171 0.46043953
0000e0 f2 c1 89 bd 67 b6 3a bc 01 0a d5 bd b1 a6 6e bc
       -0.06726445 -0.011396027 -0.10402299 -0.0145661095
0000f0 6e 8c a6 3e d9 2f 75 bd 47 ba 9a 3f 9a 04 2c bf
       0.32529014 -0.059860084 1.2088097 -0.6719452
000100 29 3a 94 be fe d3 d8 be 88 c9 cd 3e 9d 95 d3 be
       -0.28950623 -0.42349237 0.4019282 -0.41325083
000110 b0 56 9e 3f c8 df 1b bf b2 c4 ae 3d a0 88 a5 3e
       1.2370205 -0.6088834 0.085336104 0.323308
000120 2d c9 f8 3e 4a b8 69 bf 0d e9 82 be b6 48 06 be
       0.48590985 -0.9129683 -0.2556843 -0.13113675
000130 a8 1f 6c be 1d ce 5b bd 31 a1 9b bd ea d3 2f bf
       -0.23058951 -0.05366336 -0.07599104 -0.6868273
000140 4a 20 fa 3e d3 ff dc 3e 8b cf 35 3e f6 7a 95 3e
       0.4885276 0.43163928 0.17754953 0.29195374
000150 c3 0f f8 bd f2 59 98 3f ed 4b a5 be 3b 42 2a bf
       -0.12112381 1.1902449 -0.3228449 -0.6650731
000160 ca 94 54 bf da 3f 0e 3f 91 ce 79 bc 7a 83 19 3e
       -0.83039534 0.5556618 -0.015247003 0.1499156
000170 59 b4 db bd ee 18 0e 3f 29 19 43 bd cc 4b 7b 3e
       -0.10727758 0.5550679 -0.047631416 0.24540633
000180 d8 c4 31 bf a1 dd 7c be 6f 16 a2 bd dd 6c b3 3e
       -0.69440985 -0.2469392 -0.07914435 0.35043994
000190 38 ea 98 3e 34 a7 95 bb 31 fe 27 be 14 06 17 bf
       0.29866195 -0.0045670513 -0.1640556 -0.5899365
0001a0 79 54 0f 3f 00 62 88 be 8f f2 cb 3e b4 c0 b0 be
       0.5598827 -0.26637268 0.39833495 -0.3452202
0001b0 37 77 65 be 66 2f c4 3e d7 81 4b 3e e5 6e b3 3d
       -0.22408758 0.38317412 0.19873749 0.08761386
0001c0 1d 14 ed 3b 79 e9 a9 3e cd 99 63 3e ca 0f 08 bc
       0.0072350637 0.33185938 0.22226639 -0.008304546
0001d0 43 d8 c1 3d 2c 22 78 be ff d9 07 be 32 6a 2c 3f
       0.09465077 -0.24231786 -0.13266753 0.6734954
0001e0 51 84 0a be 08 73 44 be d8 94 9b 3e 7c ef 3c bf
       -0.13527037 -0.19184506 0.30386996 -0.73802924
0001f0 55 a5 5e be e8 35 1b bc a7 66 65 3e 73 66 91 be
       -0.21742757 -0.0094733015 0.2240244 -0.28398475
000200 e9 a6 8f 3e 57 a7 39 bd c9 b5 4c bf ec b7 3b 3d
       0.2805703 -0.045325603 -0.7996488 0.0458297
000210 32 ef 0a 3f 72 fc 02 3e 52 bc 1b be ee 14 06 bf
       0.54271233 0.12791613 -0.15208557 -0.52375686

model.linear_input.bias f4 [8]
000000 93 8e e8 bd d3 70 6e bd 86 19 1c 3f 9e 35 c4 3e
       -0.11355319 -0.058213066 0.60976446 0.38322157
000010 cb 95 74 3c 8d a7 ca bd 71 8b b4 3e ad 82 0a bf
       0.014928292 -0.09895239 0.35262635 -0.54105645

model.linear_1.weight f4 [8, 8]
000000 ee ea d0 3f f0 c0 7c bf f6 01 86 3f 0c ae 58 3d
       1.6321695 -0.987319 1.0469348 0.05290036
000010 3a 7e 76 3f d0 77 b0 3f e2 3c dd 3e c8 69 b6 3e
       0.96286356 1.3786564 0.43210512 0.3562758
000020 1a 0b 4d bf 55 ec f3 be bd c3 5d bf fe fe 15 3e
       -0.80095065 -0.47641245 -0.866268 0.14648053
000030 03 a9 74 bf 66 e9 8b 3d ac 91 2b bf 57 20 bc 3e
       -0.9557039 0.068316266 -0.6701915 0.36743423
000040 92 90 b1 3e 30 c1 8c 3d 9b 98 e2 be 9d a3 f4 3e
       0.3468061 0.06872785 -0.44257054 0.47781077
000050 b2 53 91 be 04 41 84 be 28 35 d9 3d 77 95 da 3e
       -0.28384167 -0.25830853 0.10605842 0.42692158
000060 4c 64 32 be 98 78 8c 3e f0 59 62 3f 2e 08 6c 3f
       -0.17421073 0.27435756 0.88418484 0.9219998
000070 8b d3 4e be 2b 47 f0 3e e1 60 74 3e a0 c1 1a bf
       -0.20197885 0.46929297 0.23865081 -0.604517
000080 d0 ae 56 3f 6b a8 5f be 98 12 d4 be 8d f1 8c be
       0.8386049 -0.2184159 -0.41420436 -0.2752804
000090 f8 1f fd be e7 92 b2 3d 53 24 28 3e d5 fe 46 bf
       -0.49438453 0.08719426 0.16420107 -0.7773259
0000a0 e7 f5 fb be 3b 21 a3 bc b1 70 92 3e 81 74 69 3f
       -0.49211046 -0.019913306 0.28601602 0.91193396
0000b0 68 8c 34 3f 80 47 19 3e f8 8d b5 3d 24 a9 4b be
       0.7052674 0.14968681 0.08864969 -0.19888741
0000c0 c8 15 e3 be 78 79 5d bd d0 6b 61 bd 14 2d 1f bf
       -0.44352555 -0.05407092 -0.05503446 -0.6217816
0000d0 9e f2 f0 bc 49 4b 83 bf 04 8b 0e 3f 19 05 10 be
       -0.029412564 -1.025735 0.5568087 -0.14064445
0000e0 a8 37 9f 3e 67 cc d1 be ac 94 23 3f 37 0a 50 3f
       0.3109715 -0.4097626 0.6389873 0.81265587
0000f0 48 45 84 bf ad de db be 75 bf 6a 3b fe 1f 72 bf
       -1.0333643 -0.42943326 0.0035819684 -0.94580066

model.linear_1.bias f4 [8]
000000 40 8f c6 be 35 b3 4d 3e 25 0c 98 be 76 35 13 3f
       -0.38781166 0.20087893 -0.29696766 0.5750345
000010 d5 4d 27 3e 85 a6 68 be fa bc 00 3f 68 a3 08 3e
       0.16338284 -0.22719772 0.50288355 0.13343585

model.layer_output.weight f4 [1, 8]
000000 04 82 2c c0 5d 9f b4 bf 84 a0 e3 3e 5f 12 bb 3f
       -2.6954355 -1.4111134 0.444584 1.4614981
000010 db 60 88 3f 2f 9c 6f 3f 48 bf 95 bf b9 50 d3 3f
       1.0654558 0.9359769 -1.1699 1.650901

best_score f8 []
000000 1c a7 5f 97 82 d7 77 3f
       0.005820760843542574

momentum_buffer f4 [8, 17]
000000 f7 be 25 b9 63 05 a2 39 64 5a 3b b9 5d a8 6e 39
       -0.00015806766 0.0003090306 -0.00017867383 0.00022760169
000010 aa 5e 33 b9 8e b0 b0 b8 52 33 77 38 d0 b6 b5 b8
       -0.00017106035 -8.42522e-05 5.8937185e-05 -8.664804e-05
000020 0b 5a 70 37 6d a1 54 37 2c 79 65 b8 83 dd 82 38
       1.43260795e-05 1.267377e-05 -5.4710705e-05 6.240143e-05
000030 be 2f 95 36 60 1e 5c b8 f0 7c 30 b8 52 c4 11 b7
       4.446104e-06 -5.2480376e-05 -4.2078027e-05 -8.688383e-06
000040 75 92 9f b7 11 9d 76 38 0c 8b 09 b8 17 cc 6c 37
       -1.9022476e-05 5.879725e-05 -3.2792843e-05 1.41142145e-05
000050 5d 33 16 b9 49 45 a4 38 f6 43 dc 38 21 b2 99 37
       -0.00014324249 7.833035e-05 0.00010503076 1.8321969e-05
000060 ff d7 b6 37 5a 40 9f b8 f0 ca 91 38 e3 2f 43 38
       2.1796672e-05 -7.593697e-05 6.951939e-05 4.653622e-05
000070 79 5a a4 b8 82 e0 d2 37 25 e9 b5 38 b3 bb dd 36
       -7.836981e-05 2.5138495e-05 8.674179e-05 6.6081643e-06
000080 53 bb b0 38 9a 31 39 b8 20 db 38 b9 8a 1b 15 39
       8.427226e-05 -4.4153632e-05 -0.00017629238 0.00014220006
000090 cc 92 7c b8 7a d7 70 37 d4 19 62 b9 27 50 e0 38
       -6.0218197e-05 1.4355284e-05 -0.00021562661 0.00010696082
0000a0 db 16 be b8 68 36 76 b6 54 d0 7f b8 22 b4 be 37
       -9.064163e-05 -3.6688525e-06 -6.099076e-05 2.2733646e-05
0000b0 dd 1a 6b b8 66 eb f3 b8 b2 f7 b2 b6 b5 41 0c 38
       -5.6053384e-05 -0.00011630989 -5.333649e-06 3.3439796e-05
0000c0 93 e8 cc b6 85 3c ab 37 b0 97 f0 b8 b3 d9 2c b9
       -6.106749e-06 2.041297e-05 -0.00011472346 -0.00016484298
0000d0 cb 74 5e b8 6e e5 f3 38 74 1a 95 b7 b8 1f ed b8
       -5.3037696e-05 0.000116298776 -1.7774502e-05 -0.00011306949
0000e0 eb 77 f5 37 b2 80 c0 b8 54 3d 24 b7 b4 33 0d b9
       2.9262117e-05 -9.179245e-05 -9.789441e-06 -0.00013466069
0000f0 20 fb 47 38 34 f4 74 b7 50 bf 76 b9 c8 b5 2d 37
       4.7679176e-05 -1.4600391e-05 -0.00023531658 1.0353928e-05
000100 42 7d c0 38 a1 84 04 38 ec a9 a4 b7 df dd ab b8
       9.1786045e-05 3.1594773e-05 -1.962945e-05 -8.195242e-05
000110 dd be 49 b9 41 54 a7 38 69 b1 d5 38 50 bb 95 b8
       -0.00019239956 7.978874e-05 0.00010189677 -7.139763e-05
000120 fe 39 d9 b8 9f 3e 2c 39 68 49 b5 b7 40 d2 36 37
       -0.00010358168 0.00016426526 -2.1611064e-05 1.0896998e-05
000130 83 1e 92 b8 11 6b 1d 37 1c f2 4f 38 f6 6b f1 38
       -6.967506e-05 9.382858e-06 4.9578128e-05 0.00011511885
000140 96 31 c1 b8 ad 5f b1 35 e1 ef 12 b8 2e 47 8f 37
       -9.212193e-05 1.3215373e-06 -3.5032517e-05 1.7080074e-05
000150 6b 27 e9 b7 d9 15 b6 b9 8e dd ff 38 a1 eb f9 38
       -2.779412e-05 -0.00034730023 0.00012200615 0.000119171345
000160 13 c4 0b 39 96 18 ec b8 e3 fe 04 b9 38 7e 33 36
       0.00013329116 -0.000112579364 -0.00012683454 2.6746548e-06
000170 25 2a e4 b8 de 9f f0 b8 2f f9 fa 37 90 b2 b2 b7
       -0.00010879737 -0.000114738694 2.9918358e-05 -2.1302403e-05
000180 c6 c8 79 38 d1 d2 0b b9 a3 fd d5 b7 c6 d8 e4 b6
       5.955321e-05 -0.00013334608 -2.5509687e-05 -6.8201653e-06
000190 c5 ef 76 b8 a5 2c 46 b8 04 51 f5 b6 2f c9 ac 38
       -5.8874273e-05 -4.7248457e-05 -7.3110004e-06 8.2390725e-05
0001a0 05 7b ee b8 1f fe 5c b8 bd df cc b8 e4 57 ea 38
       -0.000113716385 -5.2688756e-05 -9.7691525e-05 0.000111743604
0001b0 9b 98 52 b8 2c 2b 42 37 cb c2 8f b6 ce ac 8e b7
       -5.0210027e-05 1.1573353e-05 -4.284409e-06 -1.7008188e-05
0001c0 1e 7e 91 b7 3c e2 0b b7 32 f1 f2 b5 c1 73 04 b7
       -1.7344075e-05 -8.33772e-06 -1.8100602e-06 -7.894764e-06
0001d0 8e c1 ac b7 3b 55 21 38 85 b1 a1 b8 02 46 61 b8
       -2.0594129e-05 3.846477e-05 -7.710144e-05 -5.370938e-05
0001e0 5d 9f da b7 33 d0 24 39 3b e9 34 36 68 a7 ab 38
       -2.6061834e-05 0.00015717819 2.6957848e-06 8.185097e-05
0001f0 46 92 ef b6 68 8f 32 38 b1 1b 12 38 9e 1a 7d 38
       -7.1397835e-06 4.2572065e-05 3.4834902e-05 6.034469e-05
000200 74 8e 23 b7 30 e8 e0 37 3a 79 52 39 fe 6c 95 b8
       -9.748725e-06 2.6811002e-05 0.00020072321 -7.125175e-05
000210 a0 e4 43 b8 94 d9 b3 b6 37 fe f1 b7 1c d5 de 38
       -4.6704547e-05 -5.359945e-06 -2.8847817e-05 0.000106254796

momentum_buffer f4 [8]
000000 a6 74 e8 b7 0f 45 28 38 94 c8 c5 b8 5c 08 d5 b8
       -2.7710874e-05 4.0118637e-05 -9.4310526e-05 -0.000101581885
000010 76 c0 33 b7 35 8e de b8 ce 0d 22 b8 8c 55 a2 38
       -1.0714042e-05 -0.00010612273 -3.8636666e-05 7.740696e-05

momentum_buffer f4 [8, 8]
000000 60 74 bc b9 d4 b3 1d 39 fd ea 3e b9 58 d4 98 b7
       -0.0003594486 0.00015039678 -0.00018207352 -1.8218692e-05
000010 29 c4 93 b9 78 a3 a2 b9 58 5f 92 b8 90 47 90 b8
       -0.00028184176 -0.00031020842 -6.979582e-05 -6.8797846e-05
000020 5f b8 05 39 60 e5 62 38 81 64 71 39 4c a8 13 38
       0.00012752552 5.409622e-05 0.00023020992 3.520427e-05
000030 a6 a1 dc 38 e7 6d 3c b8 54 cc 32 39 24 08 b9 b8
       0.00010520527 -4.4925047e-05 0.00017051521 -8.823004e-05
000040 d6 e3 3a 37 0c 70 f2 b7 25 06 ca b7 6e cf d4 b7
       1.1139511e-05 -2.8900824e-05 -2.4083138e-05 -2.5368961e-05
000050 f5 6e 65 b7 3b fe 62 37 b7 85 de b6 e3 28 b1 36
       -1.3675298e-05 1.3529842e-05 -6.631682e-06 5.279771e-06
000060 5a c7 64 38 50 74 26 b8 f8 d4 44 b9 0b cc 24 b9
       5.4545097e-05 -3.968581e-05 -0.00018771354 -0.0001571627
000070 17 55 6d b8 7a 2f 3e b8 aa 25 95 b8 23 32 35 39
       -5.658445e-05 -4.5343746e-05 -7.111889e-05 0.00017280183
000080 39 b5 e4 b8 26 d9 b6 38 6d 1b fc b8 7d 50 46 38
       -0.000109056426 8.718883e-05 -0.00012021405 4.728184e-05
000090 90 04 78 38 79 9f 55 37 82 a4 e9 b8 6e 17 b8 38
       5.9132057e-05 1.27329195e-05 -0.00011140948 8.778168e-05
0000a0 ba 1f 2f 39 5e a0 8b b8 73 68 66 37 f9 fe 5c b9
       0.0001670112 -6.657907e-05 1.3733387e-05 -0.0002107582
0000b0 ac 8b 67 b8 fa a2 b0 b8 7f dd 77 38 b7 fb 9c 38
       -5.520477e-05 -8.422691e-05 5.9095673e-05 7.485545e-05
0000c0 d4 b0 c3 38 10 02 b8 b8 8d 1f 25 39 59 d8 21 39
       9.3312614e-05 -8.774188e-05 0.0001574738 0.00015434752
0000d0 c6 7d 1b b6 73 92 8a 39 e3 52 d9 b6 80 c3 8e 33
       -2.317001e-06 0.00026430524 -6.4767532e-06 6.6479515e-08
0000e0 4c fe 1a b9 2c 14 0f 37 0b 07 f5 b8 d5 ef 08 b9
       -0.00014781317 8.528161e-06 -0.00011683822 -0.00013059315
0000f0 01 d3 38 39 66 e0 be 38 d6 c9 ae b8 c8 33 42 39
       0.00017626213 9.1017035e-05 -8.3345614e-05 0.00018520572

momentum_buffer f4 [8]
000000 0c 60 2f b8 9f 62 08 b8 97 1e 63 37 75 87 c9 b8
       -4.1812702e-05 -3.2516775e-05 1.3537377e-05 -9.609658e-05
000010 fe d6 44 b8 eb 70 41 b8 b1 11 89 b7 5a 03 06 37
       -4.693027e-05 -4.611995e-05 -1.633991e-05 7.987803e-06

momentum_buffer f4 [1, 8]
000000 86 db 21 3a 28 26 d7 39 2b 6b 7b b6 fe c2 b9 b9
       0.0006174374 0.00041036424 -3.7464295e-06 -0.0003543123
000010 08 e9 40 b9 38 2b b3 b9 91 16 be 39 17 c4 c6 b9
       -0.00018397358 -0.0003417374 0.00036256437 -0.000379116
