src/logs/lightning_logs/version_12/checkpoints/epoch=499-step=2000.ckpt (torch, 8699 bytes, 11 tensors)

model.linear_input.weight f4 [8, 17]
000000 44 c5 44 3f 28 09 34 bf a4 13 ad 3d bd 19 8a 3f
       0.76863503 -0.7032647 0.08451012 1.0789105
000010 94 b4 70 bf 7a 8b 66 3c c2 48 98 be 6d 47 0b be
       -0.9402554 0.01407134 -0.2974301 -0.13601466
000020 63 0c 15 be a6 68 16 3e 7c dd 8a 3d d2 00 c7 3f
       -0.14555506 0.14688358 0.06780526 1.5547125
000030 cd 85 c1 be 0f 0d 99 be 71 e7 c9 be b8 b9 8c 3e
       -0.37797394 -0.29892775 -0.39434388 0.27485442
000040 a5 c4 d1 bd cb 93 b4 bc 64 4a 0d 3f c1 06 ff be
       -0.10242585 -0.02204313 0.55191636 -0.4980984
000050 17 01 cf be 6a 6e 6f 3f 6c 52 4b be 1c 42 05 bf
       -0.4043052 0.93527853 -0.1985566 -0.52054
000060 a8 89 ee be a6 72 95 3e fb 23 10 3b 78 b4 60 be
       -0.46589398 0.29189032 0.0021994102 -0.21943843
000070 98 be 7e 3e 86 1a 5f be 7e 72 06 bf ba 03 4f be
       0.24877393 -0.21787462 -0.5251845 -0.20216265
000080 0a c4 a4 be c8 e2 a9 be 49 c8 ad bf 0f 99 17 be
       -0.32180816 -0.33180833 -1.3576747 -0.14804481
000090 4d a8 61 3f 06 38 6c bf 5d 57 dc bd 28 a7 55 3f
       0.8814743 -0.92272985 -0.10758851 0.83458185
0000a0 a9 f9 10 3e 58 e3 fa bd 47 57 0e 3c 31 aa 5d be
       0.14157738 -0.12250394 0.008687801 -0.21646954
0000b0 44 86 32 be bd 1c db be f3 d3 ac be 7d b1 12 be
       -0.17434031 -0.42795363 -0.33755454 -0.14325519
0000c0 52 03 ab be 53 4a d9 be f0 bb 35 be 5b af f3 bd
       -0.3340097 -0.42439517 -0.17747474 -0.11898681
0000d0 c3 b9 23 bf d9 23 34 3e a9 fa e2 be 46 86 26 bf
       -0.63955325 0.175918 -0.44331864 -0.65048635
0000e0 18 a3 3c bc c2 29 89 3a 37 90 b5 3d 7c 62 3d be
       -0.011513494 0.0010464715 0.088653974 -0.184946
0000f0 01 97 bf be 53 67 39 3e ba f9 1a 3f 83 e9 1e 3d
       -0.37419894 0.18105821 0.605373 0.038796913
000100 2e 38 26 bf 3d 9d 2a bf 3f 86 b1 3d 70 cb ce be
       -0.64929473 -0.66646177 0.086681835 -0.40389585
000110 a5 07 ae 3e e3 0c 81 bf 46 1f 12 bd bb d9 27 3f
       0.33990207 -1.0082058 -0.035674356 0.65566605
000120 9a 55 19 be b9 78 31 3e b5 3f 2a 3e a9 8b e0 bd
       -0.1497406 0.17331208 0.16625865 -0.10964138
000130 63 9f 09 3f 6a f7 64 be 52 3f 0e bf 6b ac 72 3e
       0.5375883 -0.22360006 -0.5556537 0.23698585
000140 eb cd 0c 3e 53 73 ea bd 50 a1 91 3e 7a cb ac be
       0.13750426 -0.114477776 0.28443384 -0.3374899
000150 b6 5e a8 be a5 19 09 be f3 72 99 bf 6d e9 78 3f
       -0.3288476 -0.13388689 -1.1988205 0.9723118
000160 b8 74 cf be 65 99 65 bf 3a b0 74 3f 3e d4 d7 3e
       -0.40518737 -0.89687186 0.955814 0.42154115
000170 9c e1 b8 3e 37 f3 40 3e c7 40 dd 3d e2 c6 49 3e
       0.36109626 0.18842779 0.10803371 0.19704774
000180 c2 70 6a 3e d1 aa 16 bf 10 33 cd 3c ee b2 d7 bd
       0.22894576 -0.58854395 0.025048763 -0.10532175
000190 eb 9a 99 bd 51 e5 d6 3e a0 13 89 3e 75 c9 27 3e
       -0.075002514 0.4197183 0.26772785 0.16385444
0001a0 5c e7 b2 bc 69 5c 75 be e2 5a b8 3a c6 d2 4a bf
       -0.021838836 -0.23961033 0.0014065171 -0.79227865
0001b0 22 15 b8 3e 6d dc 80 3d 6f db 7e 3e 5f cb c9 be
       0.35953623 0.06292043 0.24888395 -0.39412972
0001c0 82 94 9a be 5a a8 10 3f 28 a6 33 bf 41 ad 92 3e
       -0.30191427 0.56506884 -0.7017541 0.28647807
0001d0 63 46 27 3e 17 ed 75 bd 58 06 d3 3e 0e 6d aa be
       0.16335444 -0.06004056 0.41215777 -0.33286327
0001e0 63 cd b0 be fb 94 3c 3e f0 55 43 bf 43 52 9c be
       -0.34531698 0.18416207 -0.76303005 -0.3053151
0001f0 81 82 3e 3c 59 b6 5b be ed 05 98 bd 7d 3d f4 3d
       0.011627794 -0.21456279 -0.07423005 0.119257905
000200 bd d0 34 be ed b1 fe bc 6d 3f 7d bf 76 24 9f bd
       -0.17657752 -0.031090701 -0.98924905 -0.07770626
000210 55 1b 8b 3d e0 af db 3d ca 02 4d be 69 ac 40 bf
       0.067923225 0.10726905 -0.20020595 -0.7526308

model.linear_input.bias f4 [8]
000000 63 60 ad bd c6 ca c4 be 4c 6f 13 bf a7 65 08 bd
       -0.0846565 -0.38435954 -0.575917 -0.03330007
000010 3a 18 80 3b 5c 67 0f 3f 91 8b 3e be 03 1d 0c be
       0.003909138 0.5601709 -0.18607928 -0.13682942

model.linear_1.weight f4 [8, 8]
000000 64 8f 24 bf 4b 69 67 bd e9 2c 93 bc 6c a5 64 be
       -0.64281297 -0.0564969 -0.01796575 -0.22328728
000010 ba 34 de be 34 02 2b be 25 15 dc be bb 9e c0 3e
       -0.43399602 -0.16700059 -0.42984882 0.37621102
000020 15 e5 37 3f 24 7b ed 3e f4 df 86 bf de 30 d2 bd
       0.71833926 0.4638301 -1.0537095 -0.10263227
000030 80 f3 00 be a7 0d 53 bf a2 7c 50 3f 60 d8 5b bf
       -0.12592888 -0.82442707 0.81440175 -0.8587704
000040 58 f4 8a be 08 c2 c7 3d 42 9a 44 bd ba e1 84 3e
       -0.27139544 0.097538054 -0.047998674 0.25953466
000050 83 4b 6f 3e 7c 1e 8f 3d 4d 12 14 3e 0b 00 a2 bc
       0.23368649 0.06988236 0.14460106 -0.019775411
000060 af 31 3e 3f e8 6c ac 3d db ea 71 be 27 5d 85 3e
       0.7429456 0.0841921 -0.23624747 0.26047632
000070 d2 cd 8f 3e a0 96 c9 be 43 a8 57 be d9 64 56 bc
       0.28086716 -0.3937273 -0.2106028 -0.013085567
000080 e0 e8 15 3e 56 f6 83 bf 64 1c 61 bf f4 c2 f9 be
       0.14639616 -1.0309551 -0.87933946 -0.4878155
000090 6f f1 a2 3e 82 62 45 3f ef 81 20 bf df 06 09 bf
       0.31824824 0.77103436 -0.6269826 -0.5352611
0000a0 d0 68 d2 3f f9 3a ab be 94 22 86 be ea e5 43 3f
       1.6438236 -0.3344343 -0.26198256 0.76522696
0000b0 a0 fa e7 3e a6 94 a4 3f b3 77 a4 3e 29 11 43 bf
       0.453084 1.2857864 0.32122573 -0.7619806
0000c0 ea eb 79 bf bc 0a 9d 3e c7 b4 3a 3f 31 2d 1a be
       -0.976256 0.30672252 0.72932094 -0.15056302
0000d0 18 1b 67 bf ed 66 dd 3c f4 e8 88 be ea 1e d9 be
       -0.90275717 0.027026618 -0.2674023 -0.42406398
0000e0 ee 41 88 3e fd 93 82 be 78 41 aa 3f d0 ba f0 3e
       0.266128 -0.2550353 1.330123 0.47017527
0000f0 86 a3 df 3e 25 28 9d 3f e0 e3 3a bd 4d 4b 0c 3f
       0.43679446 1.2277876 -0.045627475 0.548024

model.linear_1.bias f4 [8]
000000 77 ba 9f be a5 c4 8d be dd d2 d0 be 0f 2a 3c 3e
       -0.3119695 -0.2768909 -0.40785876 0.18375419
000010 0e 75 53 3f 03 b3 ee 3d 84 02 05 3f ca ea 8e 3c
       0.82600486 0.116552375 0.51956964 0.01744594

model.layer_output.weight f4 [1, 8]
000000 69 07 e4 3e ae 39 e2 3f 65 ee a7 bc 03 7d 4d 3f
       0.44536904 1.7673852 -0.020499418 0.8026888
000010 c0 71 eb bf 71 08 15 40 91 e5 c6 3f 0c 37 eb 3f
       -1.8394089 2.3286402 1.5538808 1.8376174

best_score f8 []
000000 e8 df 5d 07 d5 b3 14 3f
       7.897365307296645e-05

momentum_buffer f4 [8, 17]
000000 1e c2 8b b9 d4 a8 1a 39 25 43 af 38 60 e3 91 b9
       -0.00026656775 0.00014749478 8.357157e-05 -0.00027825963
000010 65 55 3a 39 0a 6f 88 38 fe f1 84 37 56 60 57 b8
       0.00017770154 6.505668e-05 1.5848313e-05 -5.1349714e-05
000020 c4 df 9d 37 8e 1e fd b7 e5 8f ca b7 3a 96 16 b9
       1.8820057e-05 -3.0174178e-05 -2.4147283e-05 -0.00014361079
000030 80 33 2e 35 f2 21 20 b7 9e 60 f5 38 68 05 ae 37
       6.4894994e-07 -9.544647e-06 0.00011700507 2.0744934e-05
000040 0e ea 6b b8 21 ca a3 38 55 9b bc b8 18 e3 8e 38
       -5.6246347e-05 7.810095e-05 -8.9934714e-05 6.813387e-05
000050 48 5e 6e 38 e2 96 98 b8 a0 79 97 38 01 de 67 38
       5.6831428e-05 -7.276029e-05 7.2228955e-05 5.528145e-05
000060 40 b8 88 35 6e d8 2a 38 39 84 76 b7 cf d8 fd 37
       1.0186413e-06 4.0732724e-05 -1.4693528e-05 3.026091e-05
000070 8f 27 c0 b8 62 07 53 38 f4 55 93 38 38 7f e5 37
       -9.162642e-05 5.0313196e-05 7.025516e-05 2.7358168e-05
000080 04 7f ab 36 e7 b3 56 38 0a b4 86 39 d9 75 b3 35
       5.1109837e-06 5.1189123e-05 0.0002569261 1.3370837e-06
000090 0d 16 50 b9 16 e2 71 39 2c 6b 0f 36 d0 66 35 b9
       -0.0001984464 0.00023067775 2.1371043e-06 -0.00017299806
0000a0 e9 e6 ac 38 13 d4 bd b7 88 b0 83 38 18 a7 b8 b8
       8.2446095e-05 -2.262931e-05 6.279448e-05 -8.804927e-05
0000b0 74 68 b2 38 aa 8d 27 b7 4d d9 1c 38 20 4c cf 38
       8.507157e-05 -9.986959e-06 3.7395675e-05 9.8847086e-05
0000c0 30 55 8b b8 a8 ce bd b8 46 a0 1d 39 cd 58 aa b7
       -6.643904e-05 -9.050715e-05 0.00015032393 -2.030693e-05
0000d0 5a fa 94 38 19 4a d0 b7 af 16 47 b8 dc 19 b0 38
       7.1038216e-05 -2.4830037e-05 -4.7466423e-05 8.397151e-05
0000e0 1f e7 31 b7 21 3d 85 38 00 d7 1d b8 4c 85 ef 37
       -1.0603834e-05 6.35332e-05 -3.763195e-05 2.8553091e-05
0000f0 8a 52 52 b8 27 33 47 38 f6 15 c4 b8 34 40 c0 37
       -5.0144772e-05 4.7492937e-05 -9.350099e-05 2.291808e-05
000100 d8 39 70 38 3a 75 24 38 6f 00 ae b7 76 a3 43 38
       5.727433e-05 3.9209823e-05 -2.0742618e-05 4.6643858e-05
000110 6b 60 ed b8 40 e1 06 39 9b 1a bc 37 5e 9d 04 b9
       -0.00011319 0.00012863148 2.2423736e-05 -0.00012647125
000120 d4 6a 0f 39 3a 37 e7 37 b1 e9 8f 37 3e b9 ad 37
       0.0001367734 2.7563063e-05 1.715575e-05 2.0709467e-05
000130 5c cf 31 38 b8 34 78 37 2a 16 a2 b7 97 0d 11 38
       4.2393207e-05 1.4794226e-05 -1.9322226e-05 3.458335e-05
000140 f4 03 ec 36 f6 62 61 b8 58 a6 51 38 b7 19 99 38
       7.0338083e-06 -5.3736345e-05 4.9984403e-05 7.300398e-05
000150 fa 61 13 b8 44 dd 81 b7 2a d5 09 39 ca 55 64 b9
       -3.513878e-05 -1.5481033e-05 0.00013144748 -0.00021775733
000160 b2 c7 c7 b7 d8 44 15 39 29 08 67 b9 9b b2 4f b7
       -2.3815639e-05 0.00014235394 -0.00022032917 -1.2379746e-05
000170 3e 82 bb b8 e8 63 0b b8 7d 7c b3 b8 86 d7 8e 37
       -8.941114e-05 -3.3233227e-05 -8.558573e-05 1.702808e-05
000180 b7 66 91 b6 2a 23 92 b8 18 17 a7 37 7d 09 48 b8
       -4.3332943e-06 -6.968372e-05 1.9918705e-05 -4.7692552e-05
000190 6c e1 fb b8 71 a3 99 37 25 10 93 b7 7c 98 44 b8
       -0.00012010601 1.831513e-05 -1.7531283e-05 -4.6872054e-05
0001a0 ba 74 b0 38 38 82 82 b8 87 5f 22 37 bc 9a 97 38
       8.414076e-05 -6.223138e-05 9.678194e-06 7.2290626e-05
0001b0 b2 0d 46 38 97 89 e6 b7 ee a8 5a 38 3a 3e c4 b7
       4.7219633e-05 -2.7482207e-05 5.213258e-05 -2.3393997e-05
0001c0 89 03 17 b7 48 90 e3 b8 8e 07 8c 37 94 0d 58 38
       -9.001124e-06 -0.00010851078 1.6692818e-05 5.151106e-05
0001d0 1c d8 7b 38 88 1e b1 37 de ca b8 b5 3e a8 0c 39
       6.004433e-05 2.1114261e-05 -1.376811e-06 0.00013414116
0001e0 9d b0 56 38 16 5f a7 b7 38 f0 c7 38 68 fd 2e 38
       5.118606e-05 -1.995223e-05 9.533804e-05 4.1720836e-05
0001f0 53 88 ed 37 95 e6 b6 38 6a ea a3 38 bf a4 b6 38
       2.8316083e-05 8.7213855e-05 7.816109e-05 8.7091226e-05
000200 12 eb e1 37 fd 62 57 38 27 67 e6 38 ac 3f 74 38
       2.6931553e-05 5.1352185e-05 0.00010986468 5.8233432e-05
000210 3e 9f d3 b6 20 7f 70 36 d2 c2 d5 38 2e 0e 85 38
       -6.3068283e-06 3.5836783e-06 0.000101929196 6.3445754e-05

momentum_buffer f4 [8]
000000 56 e7 14 b8 c6 23 6c 38 c7 e3 7a 38 7c 46 d9 37
       -3.5501398e-05 5.63001e-05 5.981678e-05 2.5901238e-05
000010 76 d1 1e 38 93 78 d5 b8 d0 91 a5 37 7e 68 2d 39
       3.786521e-05 -0.0001017909 1.9737432e-05 0.00016537492

momentum_buffer f4 [8, 8]
000000 49 2e 8e 38 9d 19 5d b8 f6 75 04 b8 34 9b 58 37
       6.779709e-05 -5.271436e-05 -3.1581112e-05 1.2910739e-05
000010 ca 0c fa 37 7e ad 62 38 b8 65 1e b7 43 b0 0d b7
       2.9808278e-05 5.4044176e-05 -9.441217e-06 -8.445294e-06
000020 e0 20 35 b8 af ac 22 b8 c2 cf 87 39 8d c9 92 38
       -4.318438e-05 -3.8784634e-05 0.00025903998 6.999364e-05
000030 8d c4 fe 38 34 7d 1c 39 5c 2a 6b b8 1e 0c 6c 39
       0.00012148274 0.00014923961 -5.6067816e-05 0.00022511228
000040 04 00 00 00 04 00 00 00 04 00 00 00 04 00 00 00
       6e-45 6e-45 6e-45 6e-45
000050 04 00 00 80 04 00 00 80 04 00 00 80 04 00 00 00
       -6e-45 -6e-45 -6e-45 6e-45
000060 9c db 33 b9 8a 56 08 38 18 7d 26 39 62 a8 67 b7
       -0.00017152581 3.2505523e-05 0.00015877595 -1.3807878e-05
000070 d5 88 ce b8 b0 2f be b7 b4 42 a4 b8 d4 13 52 38
       -9.8483324e-05 -2.2671971e-05 -7.832554e-05 5.0086368e-05
000080 72 4b e1 38 f7 5a 7a 39 41 b4 00 39 f3 ed 13 39
       0.00010742889 0.00023875745 0.00012274181 0.00014107655
000090 a7 30 26 b8 3c a3 38 b9 f2 c7 33 38 f0 ea 2d 38
       -3.9622795e-05 -0.00017608417 4.286314e-05 4.1465217e-05
0000a0 93 c9 ce b9 3f c0 f5 38 fe 78 4f 39 f5 a7 f3 b8
       -0.00039441566 0.00011718319 0.00019786131 -0.000116184274
0000b0 87 e3 31 b9 4e ea 27 b9 01 7a b9 37 e2 95 1b 39
       -0.00016964796 -0.00016013646 2.2110531e-05 0.00014837788
0000c0 5d 9f 5b 39 6b 73 ce b7 4a 96 2d b9 09 7e b0 37
       0.00020944835 -2.461086e-05 -0.00016554553 2.1039525e-05
0000d0 81 da 05 39 0e 26 17 b9 1e 6a 9c 38 2b 18 aa 37
       0.00012765267 -0.00014414659 7.4584255e-05 2.0276833e-05
0000e0 e7 4f 42 38 e1 f9 d5 38 13 5a 68 b9 d0 d8 79 b8
       4.632762e-05 0.00010203175 -0.000221588 -5.956815e-05
0000f0 7d 22 c2 38 9c ec 67 b9 07 2a fe 38 a3 87 84 b8
       9.257065e-05 -0.0002211802 0.00012119492 -6.319515e-05

momentum_buffer f4 [8]
000000 d1 85 74 36 fe 2c 81 b8 04 00 00 80 68 f9 48 36
       3.6436725e-06 -6.15958e-05 -6e-45 2.9947496e-06
000010 74 3b c3 b8 4d a5 2a b8 e6 46 cb b8 30 c0 a4 b7
       -9.3093986e-05 -4.0685107e-05 -9.693e-05 -1.9639818e-05

momentum_buffer f4 [1, 8]
000000 2d 60 19 b9 30 81 cc b9 04 00 00 00 18 9f 5b b9
       -0.00014627045 -0.00039006164 6e-45 -0.00020944735
000010 43 41 c2 39 4d 89 09 ba 0b 29 b4 b9 62 7a ad b9
       0.00037051187 -0.00052465947 -0.00034362855 -0.00033088314
