src/logs/lightning_logs/version_21/checkpoints/epoch=499-step=2000.ckpt (torch, 8699 bytes, 11 tensors)

model.linear_input.weight f4 [8, 17]
0	0xbe7c7c8b	-0.24656884
1	0x3f296844	0.6617472
2	0xbf0d49bb	-0.5519063
3	0x3ede611a	0.43433458
4	0xbf4afefd	-0.7929533
5	0x3eea0ee5	0.4571449
6	0x3e3e4104	0.18579489
7	0x3c9557a1	0.018230261
8	0xbedf06cb	-0.4355987
9	0xbe3163eb	-0.17323272
10	0x3f17ff52	0.5937396
11	0xbe81b64f	-0.25334403
12	0xbe9cc620	-0.30619907
13	0xbedc376f	-0.43011042
14	0x3ca5eb00	0.020253658
15	0xbeb2625a	-0.3484066
16	0xbaa80a46	-0.0012820445
17	0xbe24a1ed	-0.16077395
18	0xbed0e916	-0.4080283
19	0x3ec8d767	0.3922684
20	0xbdbcd701	-0.09220696
21	0x3f0edca7	0.5580544
22	0x3e8c9c70	0.27463102
23	0x3ecc29d2	0.39875656
24	0xbea7805f	-0.32715127
25	0xbed2a074	-0.4113804
26	0xbebaa2ba	-0.36452276
27	0x3e0f6701	0.14004137
28	0x3ed4e1f3	0.41578636
29	0x3ea52da3	0.3226138
30	0x3e7257da	0.23666325
31	0xbef9c906	-0.4878618
32	0x3eb4322d	0.3519453
33	0x3ec9b90b	0.3939899
34	0x3f1398d8	0.57655096
35	0xbf9733c9	-1.1812679
36	0xbe194498	-0.14967573
37	0xbf371243	-0.7151224
38	0x3f89ebde	1.0775106
39	0xbe86bd0e	-0.26316112
40	0xbedeb9e8	-0.4350121
41	0xbe1c98a5	-0.15292604
42	0xbe2b768d	-0.16744442
43	0x3e9eacc5	0.30991188
44	0x3eadd07f	0.33948132
45	0xbee359e3	-0.44404516
46	0x3ec325d0	0.38114786
47	0xbdd1b59d	-0.10239718
48	0x3f367289	0.71268517
49	0xbece8d0f	-0.40341994
50	0x3e19e875	0.15030082
51	0x3f82b3bb	1.0211099
52	0xbcba702d	-0.022758568
53	0xbf08ddc1	-0.5346337
54	0x3f6140c6	0.8798946
55	0xbe0dab96	-0.13834986
56	0xbf3d4434	-0.73932195
57	0x3e344237	0.17603384
58	0x3ea7e9c2	0.3279553
59	0x3e041df5	0.12902053
60	0xbdf87568	-0.121317685
61	0x3e860d85	0.2618219
62	0xbf25b9cc	-0.6473663
63	0x3d9ec4b1	0.0775236
64	0x3e8f5438	0.2799394
65	0xbe635204	-0.22199255
66	0xbe3a44b7	-0.18190275
67	0xbe45e254	-0.19324619
68	0x3e5ffb40	0.21873188
69	0xbf816cef	-1.0111369
70	0x3ebe0f1e	0.37120908
71	0xbeda0fd6	-0.42590207
72	0x3d2d9beb	0.042385023
73	0xbdb20c14	-0.0869371
74	0x3c970c8d	0.018438602
75	0xbe95b607	-0.29240438
76	0xbd8f6f12	-0.07003607
77	0xbdab914d	-0.08377323
78	0x3e70de6e	0.2352235
79	0xbf97b0e2	-1.1850855
80	0x3f082f73	0.531974
81	0x3e1c76da	0.15279713
82	0x3ea8e1a0	0.32984638
83	0xbde59efe	-0.11211966
84	0xbc6ed843	-0.014577928
85	0xbf78922f	-0.9709806
86	0x3f6a4a31	0.9151946
87	0xbeafc5a5	-0.34330478
88	0xbefb6758	-0.49102283
89	0xbeae2162	-0.34009844
90	0x3f4450ce	0.766858
91	0x3e8867d1	0.26641706
92	0x3f1fe382	0.62456524
93	0xbe317c85	-0.17332657
94	0x3daf3c54	0.085564286
95	0x3dfe10b3	0.12405529
96	0x3f103af5	0.5633996
97	0x3e893c55	0.26803842
98	0xbf13b1f4	-0.5769341
99	0xbdcc1ee8	-0.099668324
100	0x3dcf0044	0.101074725
101	0x3f003bfd	0.50091535
102	0xbf45c547	-0.77254146
103	0x3ef49fba	0.47778112
104	0xbeab5801	-0.3346558
105	0x3f0b7594	0.54476285
106	0xbedb0e12	-0.42784172
107	0x3f4008c1	0.7501336
108	0xbe496c0e	-0.19670126
109	0xbe46fbb2	-0.19431952
110	0x3e581e9c	0.21105427
111	0x3edf9def	0.4367518
112	0x3e75556b	0.23958366
113	0xbf8c388c	-1.0954757
114	0x3dd826af	0.10554253
115	0x3ee185c6	0.44047374
116	0x3bf14785	0.007363262
117	0xbd536897	-0.051613417
118	0x3e12cc3d	0.14335723
119	0xbe357ec8	-0.17724144
120	0xbe6fb521	-0.23408939
121	0x3f0947e4	0.5362532
122	0xbf6d59a0	-0.9271488
123	0x3f4ccc10	0.79998875
124	0x3f2398fb	0.63905305
125	0x3ed34a49	0.41267613
126	0x3d1db688	0.038504153
127	0xbe4e5665	-0.20150144
128	0xbeb12f11	-0.3460622
129	0x3d1d0d3f	0.03834271
130	0x3f31f5a5	0.6951545
131	0xbf013801	-0.5047608
132	0x3db54b36	0.08852236
133	0xbe53169e	-0.20614097
134	0xbe80f1ed	-0.25184575
135	0x3c9f99c2	0.019482497

model.linear_input.bias f4 [8]
0	0xbec14464	-0.3774749
1	0x3e873d19	0.264138
2	0xbd41024f	-0.047121342
3	0xbe25fe34	-0.16210252
4	0xbe2360b1	-0.15954854
5	0xbde0cde2	-0.10976769
6	0xbe78d7f5	-0.24301131
7	0xbdf80374	-0.12110034

model.linear_1.weight f4 [8, 8]
0	0x3f90d150	1.1313877
1	0xbec2ca0a	-0.3804477
2	0xbfa0e360	-1.2569389
3	0xbd48ec13	-0.049053263
4	0xbe2b6e41	-0.16741277
5	0x3f1efaf9	0.62101704
6	0x3fb45370	1.4087963
7	0xbf4c37a4	-0.797724
8	0x3edd545e	0.4322843
9	0xbe0e7ce5	-0.13914831
10	0x3ed46cff	0.41489407
11	0x3eb48156	0.35254925
12	0x3ea70e64	0.32628167
13	0x3e2b0b49	0.16703524
14	0x3e833f2e	0.2563414
15	0x3e4cddb0	0.20006442
16	0x3e652606	0.22377786
17	0x3e6bb93d	0.23019882
18	0xbf4b3cb8	-0.79389524
19	0xbf4a9010	-0.7912607
20	0xbf91d7b2	-1.139395
21	0x3f92bf70	1.1464672
22	0xbee24c00	-0.44198608
23	0x3f23fa5d	0.640539
24	0x3f1fe134	0.6245301
25	0xbe9c96d0	-0.3058381
26	0xbefc1209	-0.4923251
27	0x3fa228e2	1.2668726
28	0xbf10167e	-0.5628432
29	0xbf34b736	-0.7059206
30	0xbee4c23e	-0.44679445
31	0xbf6d62ca	-0.92728865
32	0x3e753037	0.23944174
33	0x3e29cab9	0.16581239
34	0xbf23f966	-0.64052427
35	0xbf1eea62	-0.6207639
36	0xbf8079d0	-1.0037174
37	0x3f562296	0.83646524
38	0xbee1a2a7	-0.44069406
39	0x3ef6b44d	0.48184434
40	0x3ec94ee2	0.39317995
41	0xbe2fa663	-0.17153315
42	0xbf592be5	-0.848326
43	0x3e7522e5	0.23939092
44	0xbe6cb0bb	-0.23114292
45	0x3ee94789	0.4556239
46	0x3f3dd5f9	0.7415462
47	0xbe1643b0	-0.14674258
48	0x3eb94981	0.36188892
49	0xbe903a76	-0.28169602
50	0xbea0836d	-0.3135027
51	0x3ec8586a	0.39129955
52	0x3e92255e	0.28544134
53	0x3edced62	0.4314986
54	0x3ea2c97d	0.31794348
55	0xbde6b37c	-0.11264703
56	0x3e4222b6	0.18958554
57	0xbe873a90	-0.26411867
58	0xbdde609e	-0.10858272
59	0x3ef45299	0.47719267
60	0x3ce51f75	0.027969101
61	0x3d92b1e7	0.071628384
62	0x3e2d9845	0.16952617
63	0x3ea2c79c	0.31792915

model.linear_1.bias f4 [8]
0	0x3df7533d	0.12076423
1	0x3df30499	0.11866111
2	0x3e1f3985	0.15549286
3	0x3dc09f2e	0.09405361
4	0x3e90e6e9	0.2830117
5	0xbe95f0d8	-0.29285312
6	0xbe80745d	-0.25088778
7	0xbee797d2	-0.45233017

model.layer_output.weight f4 [1, 8]
0	0xc0145ac2	-2.3180394
1	0xbf021792	-0.50817215
2	0x40023cb2	2.0349545
3	0x3feb9e40	1.8407669
4	0x3fbf049c	1.4923282
5	0xbf914fac	-1.1352439
6	0xbe552036	-0.20813069
7	0x3e06c37c	0.13160509

best_score f8 []
0	0x3f4c070b9ad4272c	0.0008553320564328218

momentum_buffer f4 [8, 17]
0	0xb93ed946	-0.00018200753
1	0xb91d63f2	-0.0001500992
2	0x38fe09f5	0.000121135185
3	0xb9149161	-0.00014168538
4	0x38b32426	8.542118e-05
5	0xb92238ed	-0.0001547073
6	0xb8d7b4dc	-0.000102856866
7	0xb8e2bb9a	-0.00010811463
8	0xb7e8de47	-2.7760061e-05
9	0xb8785e3a	-5.9215563e-05
10	0xb90204e4	-0.00012399588
11	0xb85cdb7b	-5.2656495e-05
12	0xb880b541	-6.137277e-05
13	0xb7d2cd68	-2.51296e-05
14	0xb8969a20	-7.1812654e-05
15	0xb88d6526	-6.742244e-05
16	0xb91685a8	-0.00014354906
17	0x388a4eed	6.595054e-05
18	0x37282f5a	1.0024605e-05
19	0xb8900f15	-6.869264e-05
20	0x3883328e	6.255983e-05
21	0xb88b9ba6	-6.657028e-05
22	0x373d76de	1.1292954e-05
23	0x37032202	7.8161265e-06
24	0xb50f3e80	-5.33626e-07
25	0xb7796320	-1.4864636e-05
26	0x37652a59	1.36593235e-05
27	0x370e66e0	8.487812e-06
28	0xb8428f9f	-4.6386962e-05
29	0x373cb318	1.1247372e-05
30	0x37ad6408	2.0669788e-05
31	0x37b678b6	2.1752301e-05
32	0x367578dc	3.6578194e-06
33	0x36733f98	3.6246838e-06
34	0xb94fde1f	-0.00019823805
35	0x398c2ae7	0.00026734846
36	0xb8a1ee5c	-7.721476e-05
37	0x393c408c	0.00017953123
38	0xb983cf78	-0.00025140843
39	0x3885bdc5	6.3772815e-05
40	0x38124ba1	3.4879547e-05
41	0xb83449a6	-4.2983935e-05
42	0x37e5fcc0	2.7416623e-05
43	0xb833ef8c	-4.290002e-05
44	0x36f79918	7.378996e-06
45	0x392eb41f	0.00016661033
46	0xb7b99f60	-2.2127933e-05
47	0xb8bbb1a7	-8.949945e-05
48	0xb8844dbe	-6.308731e-05
49	0xb7ded3eb	-2.6563144e-05
50	0x379ad7e9	1.8458772e-05
51	0xb9a28ff3	-0.00031006298
52	0x38fcdf96	0.000120579425
53	0x39300768	0.00016787427
54	0xb93ecf36	-0.00018197004
55	0x388edba7	6.812001e-05
56	0x38c17169	9.2240814e-05
57	0xb7e1effc	-2.6933842e-05
58	0x36b2a9df	5.324589e-06
59	0x384a81b6	4.8281356e-05
60	0xb7ff7ecd	-3.0457415e-05
61	0xb8256506	-3.943315e-05
62	0x392c5a28	0.00016436784
63	0xb7e559c8	-2.7340735e-05
64	0xb8b9cdd4	-8.859826e-05
65	0xb892e167	-7.003807e-05
66	0x36a146fe	4.8064385e-06
67	0xb7dd9748	-2.6415699e-05
68	0xb875975e	-5.8553524e-05
69	0x39482f8a	0.00019091196
70	0x37a2477b	1.934519e-05
71	0x38fa4f95	0.00011935752
72	0xb64b2d00	-3.027555e-06
73	0x38145e30	3.537367e-05
74	0x38ccd5b4	9.767283e-05
75	0x38629f1f	5.4030792e-05
76	0x388ccb8c	6.713634e-05
77	0xb7c63aee	-2.363088e-05
78	0x38e2e879	0.00010819821
79	0x3981a9d2	0.00024731323
80	0x37147970	8.849762e-06
81	0xb89160ca	-6.932167e-05
82	0xb81360d5	-3.5137713e-05
83	0x3763de43	1.3582004e-05
84	0x3910d4be	0.00013812163
85	0x388a34e6	6.590206e-05
86	0xb970d0ea	-0.0002296601
87	0xb8a87d92	-8.0342536e-05
88	0x38993e92	7.307263e-05
89	0xb81277f6	-3.4920835e-05
90	0xb993fb47	-0.0002822524
91	0xb8c132d6	-9.212426e-05
92	0xb91f5bd5	-0.00015197632
93	0xb8be9580	-9.0877526e-05
94	0xb84bb69e	-4.8569047e-05
95	0xb8db79b0	-0.000104654
96	0xb973534a	-0.00023205313
97	0xb7f1ec5d	-2.8839504e-05
98	0x38229662	3.8763865e-05
99	0xb7b85006	-2.1971773e-05
100	0xb8dda66a	-0.00010569098
101	0xb911220d	-0.00013840962
102	0x3884131b	6.297809e-05
103	0xb8aa01ff	-8.1066035e-05
104	0x38cb117c	9.683051e-05
105	0xb797f207	-1.8113305e-05
106	0x3973ecd4	0.00023262511
107	0xb90e5d47	-0.00013576924
108	0x383d27e0	4.5098248e-05
109	0x380d1d51	3.3644323e-05
110	0x38098eec	3.279645e-05
111	0xb7b09467	-2.104994e-05
112	0x388c803a	6.699604e-05
113	0x38d3ac7f	0.00010093394
114	0x35beaea0	1.4206926e-06
115	0xb6b27659	-5.318591e-06
116	0xb79974e7	-1.8293458e-05
117	0xb7311314	-1.0554464e-05
118	0x38bb44fa	8.929703e-05
119	0xb7d78969	-2.5693984e-05
120	0x36306240	2.6283233e-06
121	0xb9312f9e	-0.00016897774
122	0x3943a8e7	0.0001865957
123	0xb974b448	-0.00023336813
124	0xb91853e1	-0.00014527097
125	0xb8549d71	-5.0691368e-05
126	0xb91437e8	-0.00014135207
127	0xb8879eea	-6.466902e-05
128	0xb83983b8	-4.423011e-05
129	0xb8ae5dc0	-8.314429e-05
130	0xb9096f1e	-0.00013106733
131	0xb7b94ed3	-2.2090424e-05
132	0xb6ff2db6	-7.6049137e-06
133	0xb8033372	-3.1280746e-05
134	0xb8c7236a	-9.495656e-05
135	0xb8cb9b1e	-9.708687e-05

momentum_buffer f4 [8]
0	0xb95d383d	-0.00021097153
1	0x36f45c20	7.2824914e-06
2	0xb707f808	-8.104376e-06
3	0xb7b54576	-2.1609227e-05
4	0x391f12a3	0.00015170364
5	0xb97ff540	-0.00024410058
6	0x38a52298	7.874257e-05
7	0xb9495f44	-0.00019204343

momentum_buffer f4 [8, 8]
0	0xb98d1862	-0.00026911782
1	0x38fcd605	0.000120561606
2	0x39a91687	0.00032250976
3	0x37b2b778	2.1304688e-05
4	0x392ef5a6	0.00016685444
5	0xb971142b	-0.00022991064
6	0xb96f2b12	-0.00022808861
7	0x391d9c22	0.00015030851
8	0x39b4fded	0.00034521465
9	0xb9880785	-0.00025945544
10	0xba0ff103	-0.00054909306
11	0xb9720d98	-0.00023083983
12	0xb905e3fc	-0.00012768799
13	0x3868894a	5.544097e-05
14	0x39729ca4	0.00023137272
15	0xb8e309c1	-0.0001082602
16	0x34325dd0	1.661167e-07
17	0xb8f7ab14	-0.000118097436
18	0x39301043	0.00016790726
19	0x390c7282	0.00013394098
20	0x3993a6b2	0.00028162223
21	0xb9969374	-0.0002872009
22	0x38880f1b	6.487799e-05
23	0xb9268ac3	-0.00015882686
24	0xb8ba3d29	-8.880563e-05
25	0x38428992	4.6381327e-05
26	0x35a138be	1.2011949e-06
27	0xb9ca1690	-0.00038545253
28	0x38220ec2	3.8637554e-05
29	0x39427ae8	0.00018547068
30	0x37dbabef	2.6186897e-05
31	0x398c7fea	0.00026798184
32	0x38a13d1b	7.68846e-05
33	0xb9329820	-0.00017032074
34	0x3857cd99	5.1451472e-05
35	0x391ebd4b	0.00015138571
36	0x392e38fe	0.00016615164
37	0xb967b469	-0.00022097085
38	0x390e793d	0.0001358734
39	0xb9114f70	-0.0001385787
40	0xb91078ab	-0.00013777862
41	0x38a0ecb6	7.6734854e-05
42	0x393ca10b	0.0001798907
43	0xb7a05295	-1.9111942e-05
44	0x383e5efb	4.5387987e-05
45	0xb8185ae2	-3.6324265e-05
46	0xb8dfca55	-0.00010671156
47	0x38dfb025	0.00010666278
48	0xb6d377f5	-6.302255e-06
49	0x371a3166	9.190617e-06
50	0x3809ec12	3.2883203e-05
51	0x387fe5ed	6.1010873e-05
52	0x37d56c9c	2.5442154e-05
53	0xb876f3b2	-5.887793e-05
54	0xb802e01f	-3.1203144e-05
55	0xb7ebb98a	-2.8100581e-05
56	0xb5500260	-7.7489494e-07
57	0xb71c358d	-9.310793e-06
58	0x358831fc	1.0147337e-06
59	0xb79b475b	-1.8510667e-05
60	0xb585bd55	-9.964375e-07
61	0x3741fc88	1.15624935e-05
62	0xb490768a	-2.690834e-07
63	0x36bc3674	5.609176e-06

momentum_buffer f4 [8]
0	0x37d19c30	2.4987472e-05
1	0xb9c4d163	-0.00037540038
2	0xb90fa429	-0.00013698697
3	0xb8478c89	-4.757618e-05
4	0xb8d0367d	-9.928362e-05
5	0x37a7d21a	2.0005788e-05
6	0x361eebd1	2.3681098e-06
7	0xb6fc0e9e	-7.511887e-06

momentum_buffer f4 [1, 8]
0	0x3a1a717e	0.00058915454
1	0x39a7b0c2	0.00031984417
2	0xba099e04	-0.00052496814
3	0xba0afafd	-0.00053016824
4	0xb9e1f3fb	-0.00043097124
5	0x39a2a9d2	0.00031025574
6	0x38a93836	8.069018e-05
7	0xb6b1193a	-5.277948e-06
