src/logs/lightning_logs/version_49/checkpoints/epoch=94-step=665.ckpt (torch, 9970 bytes, 14 tensors)

model.linear_input.weight f4 [8, 17]
000000 6a e6 f4 3d 10 26 9e 3d 37 23 a6 bd 84 96 be 3e
       0.119580105 0.077221036 -0.081121854 0.3722421
000010 ec 74 0a 3f 6a 8f ee be 9a 0b ab be d7 df 41 3e
       0.5408466 -0.4659379 -0.3340729 0.18933044
000020 ad 5c d3 3e 12 31 ac 3e f5 c2 9d 3c 82 58 8a 3e
       0.41281644 0.33631188 0.019258002 0.2702065
000030 b9 d8 17 3f 29 16 0b 3f 43 0f 42 3e c3 48 97 be
       0.5931507 0.5433069 0.18951134 -0.295477
000040 88 7f 1a 3f e8 8d 1f be 43 7e 98 3e a0 9c d6 be
       0.6035085 -0.15581477 0.2978383 -0.4191637
000050 c9 a4 2f 3f 4e d6 1b 3d 11 32 15 bf 69 f5 89 3b
       0.6861082 0.038046174 -0.5827952 0.0042101634
000060 9c 81 3c bb 78 d2 b4 3d 6c 89 72 3e df a3 81 3e
       -0.0028763777 0.08829206 0.23685235 0.25320336
000070 a3 64 84 3f 7d ae d1 be 4c 59 68 be 01 6a 72 be
       1.0343212 -0.40953436 -0.22690314 -0.2367325
000080 c9 06 a8 3e cd f1 69 3e b4 f3 53 3f 44 74 1d be
       0.32817677 0.22846146 0.82793736 -0.15376383
000090 69 1b 34 bf a7 85 2b 3f 42 ee 7b bf ff 23 15 3f
       -0.70354325 0.6700081 -0.9841043 0.5825805
0000a0 65 3f 3a 3d 12 da 1e 3e 8f f8 8e bd d0 73 bf be
       0.045470614 0.15512875 -0.069810025 -0.37393045
0000b0 cb 87 b9 bd bc c0 7e 3e 60 58 1d be 2d 72 c6 3b
       -0.090591036 0.2487821 -0.15365744 0.0060560913
0000c0 8e 55 e1 bd 53 1c e9 3e f8 dd 21 3f 13 a7 3b be
       -0.110026464 0.45529422 0.6322932 -0.18325453
0000d0 51 8c 22 3d aa 3c c5 3e b0 c0 6a 3c 3d 57 a8 be
       0.039684597 0.38522846 0.014328167 -0.32879058
0000e0 01 4b 2a bf 3c df ec be 80 ac 94 bd 66 8d 5f 3e
       -0.66520697 -0.46264064 -0.07259464 0.21831283
0000f0 8e c5 79 3e 40 f8 07 3e 79 0a 35 bd 4a 4c fc bd
       0.24391767 0.13278294 -0.04419944 -0.123192385
000100 19 b0 1a 3e 17 f7 44 bf c0 11 90 3d e0 b2 81 3e
       0.15106238 -0.7693953 0.070346355 0.25331783
000110 74 31 0a 3f 07 66 d6 be a5 0a 3a bf 01 bb fe 3e
       0.5398171 -0.41874716 -0.7267249 0.49752048
000120 54 6a d7 3e f7 df 70 be ad 1a 3a 3e 71 15 58 3e
       0.4207331 -0.23522936 0.18174239 0.21101929
000130 bb a7 fc bd 72 43 ff bd 45 18 57 bd 37 5f ad 3e
       -0.123366795 -0.12464036 -0.05251338 0.33861706
000140 d7 38 8d be fb d1 45 bd ac 9e a2 3e 22 95 a6 3e
       -0.27582428 -0.048295956 0.31761682 0.32535654
000150 37 33 0c be d3 b4 2b 3f b8 73 ae 3e 91 73 e7 3e
       -0.13691412 0.6707279 0.3407266 0.45205358
000160 9a 54 c3 3e 67 e2 2f 3e dc 28 05 be c1 10 e1 3d
       0.38150483 0.1717621 -0.13003868 0.10989524
000170 d0 e2 c3 be ac 61 4d 3e 41 9f 37 3e 13 27 ee 3d
       -0.38258982 0.2005679 0.17931844 0.116285466
000180 b5 50 07 3f c7 ea 03 3f 55 3c 61 be 8b 92 84 3e
       0.52857524 0.51530117 -0.21995671 0.25893053
000190 74 8d 7e 3d 54 ff 56 3e 04 89 54 3f 3d da 80 be
       0.06214662 0.20995837 0.8302157 -0.25166503
0001a0 ce e2 03 be 82 aa 21 3f b0 1f df be 5f 57 3c 3e
       -0.12879488 0.631508 -0.43578863 0.18392704
0001b0 39 a5 05 3e bc 43 32 3e 93 a3 35 be 0b 0d 0c be
       0.13051309 0.17408651 -0.1773818 -0.1367685
0001c0 ba 60 78 be 3a ea 9d 3f 5f 53 12 bf 7b 71 1f bf
       -0.24255648 1.2337105 -0.57158464 -0.6228253
0001d0 fe 2d 5a bf 26 c6 02 bd 8b 95 5a bd b4 04 03 3e
       -0.8522643 -0.03192725 -0.05336527 0.12794763
0001e0 fa 63 1f bf 44 be 2d 3f b4 a5 af be e0 d2 0f 3f
       -0.6226193 0.6786845 -0.3430611 0.56181145
0001f0 40 b5 d6 3d fc 5d 83 be 58 24 27 be 5d 8d 89 3e
       0.104837894 -0.25657642 -0.16322458 0.26865664
000200 2c 3f de be 5a 98 a9 3d 51 56 10 3d 97 90 f7 be
       -0.4340757 0.08281012 0.035238568 -0.483525
000210 f7 2e 36 be 2f 21 20 3d 08 4a 9c be c1 0e e3 bd
       -0.17791353 0.039094146 -0.3052523 -0.110867985

model.linear_input.bias f4 [8]
000000 7e 45 2b 3f 4e 6d 2b be 6e 48 de 3e 92 5a 41 be
       0.6690291 -0.16740915 0.43414634 -0.18882206
000010 37 3e ff be 29 85 91 be a2 5a 7c be 94 9a 13 3e
       -0.49852154 -0.28421906 -0.24643949 0.14414436

model.linear_1.weight f4 [8, 8]
000000 e4 ce 69 3e c8 0e 2c bc bc 15 4a 3f 3d 38 39 bf
       0.22832829 -0.010501571 0.78939414 -0.7235144
000010 d3 9a a3 3d 91 f2 05 3e 7f 3a 57 bd 8c 0e 03 bf
       0.07988515 0.13080813 -0.05254602 -0.5119407
000020 bb 45 19 3f 0c 4e ed be c5 84 3d bf cb a1 ce 3d
       0.59872025 -0.46348608 -0.74030715 0.10089453
000030 10 55 30 bf a7 b1 96 3e c3 99 49 bf bb b9 e5 3e
       -0.68879795 0.29432413 -0.78750247 0.44868264
000040 9c e8 2d 3e 4c f7 f3 be 30 71 96 be 03 63 c3 be
       0.16983265 -0.4764961 -0.2938323 -0.38161477
000050 f1 79 03 3f f3 0d fa 3e 40 05 a1 3e e9 d5 83 3e
       0.5135794 0.48838767 0.31449318 0.25749138
000060 1a c9 c3 be 4d a5 10 bf 50 9f 00 be 51 db 7f ba
       -0.38239366 -0.5650223 -0.12560773 -0.0009760159
000070 cb 07 1d bd a4 24 ec be ca dd 22 3d 44 d2 08 3f
       -0.03833751 -0.46121705 0.039762296 0.5344584
000080 92 55 d4 3e da b4 0d 3f 46 12 05 3f a1 cf ee 3d
       0.41471535 0.5535408 0.5198101 0.11660696
000090 36 5f ab 3e 21 9e 95 3e bf 54 a9 3e c9 05 57 be
       0.33471078 0.29222205 0.3307247 -0.209983
0000a0 00 7a 21 3f 93 97 97 be 80 ba 52 3f 9d e9 ae 3d
       0.6307678 -0.2960783 0.82315826 0.08540652
0000b0 54 91 e0 be cf 71 14 be cd 84 10 bf 77 c9 df be
       -0.43860877 -0.1449654 -0.5645264 -0.43708393
0000c0 8c 15 12 3f 0f 8f 5d 3f 35 50 53 3f ad 6d e1 3e
       0.5706413 0.86546415 0.8254426 0.44028988
0000d0 fe 70 99 3e ba 99 02 3f 35 3d a6 3f fd 01 05 3c
       0.2996902 0.5101582 1.2987429 0.00811815
0000e0 7b d5 2a 3f 35 76 cc 3e 85 38 0b bf d9 6d 4e bd
       0.66731995 0.39933935 -0.54383117 -0.050397728
0000f0 33 bb de 3e 40 cd 46 3c 35 9a 40 bf 40 91 43 be
       0.43502197 0.012133896 -0.752353 -0.19098377

model.linear_1.bias f4 [8]
000000 a2 2e 12 3e 43 1e f7 3e 37 f3 1c be d6 2e f7 3e
       0.14275602 0.48265275 -0.15327154 0.4827792
000010 91 e4 0a 3f e3 a7 c1 3d af 10 bb 3e 9f 73 12 bd
       0.54255015 0.0945585 0.36536166 -0.035754796

model.linear_2.weight f4 [8, 8]
000000 9a 9d 3e be 28 5f 6c be 68 75 bc 3d e1 27 9e be
       -0.18614808 -0.23083174 0.09202081 -0.308898
000010 4c a6 8d 3e ab e5 6c be 0a 7c 8e 3e 03 ef d5 3d
       0.27665937 -0.23134486 0.2782901 0.104459785
000020 68 8d 0d 3f 3d 10 14 3e 36 a1 9f 3e 62 81 dd 3e
       0.55293894 0.1445932 0.31177682 0.43262774
000030 a6 91 16 bf 8e d2 ac 3e 3f a2 24 3e 2f 4b 7d bf
       -0.5881599 0.3375439 0.16077517 -0.98942846
000040 98 f6 09 3e 80 89 72 bf b1 c7 2d be 1e 70 de be
       0.13472974 -0.9474106 -0.16970707 -0.43444914
000050 f9 f8 3d 3f e7 0c 5b bf 3b a8 d2 3f 04 9b 19 bf
       0.7420803 -0.8556656 1.645759 -0.6000216
000060 44 bf 13 3f d4 b2 07 bf 84 b3 9d 3e 5a 1a 5c 3e
       0.57713723 -0.53007245 0.30801022 0.21494427
000070 c3 f6 bf bd 53 3c 3a 3d d6 65 b4 be 2a a1 0c 3d
       -0.09373238 0.045467686 -0.35233945 0.034333386
000080 d4 50 95 be d8 9f 9e be cc e2 6a be 6c 62 7e 3e
       -0.2916323 -0.30981326 -0.22938079 0.24842232
000090 5e 88 f5 be 28 df c8 3d 76 15 c4 be 10 b7 ad 3d
       -0.47955602 0.09808189 -0.38297623 0.08482182
0000a0 60 27 6a be 38 33 6c be 80 63 19 be c4 09 29 be
       -0.22866583 -0.23066413 -0.14979362 -0.16507632
0000b0 aa 0f bf 3e 16 e6 e3 be be 93 c9 be f0 37 8a be
       0.37316638 -0.4451148 -0.3937053 -0.26995802
0000c0 7a 09 5a 3f 18 14 80 bf 73 90 11 3f 7b 9a c2 bd
       0.8517071 -1.0006132 0.56861037 -0.09502121
0000d0 d7 ef 2d 3f 37 ca 46 3f 7f 66 2d 3f 89 de 3b be
       0.6794409 0.77652305 0.6773452 -0.18346609
0000e0 d0 1b 66 3d 6a 76 d7 be ca ac 85 be d0 03 96 3d
       0.056178868 -0.4208253 -0.2610839 0.07324946
0000f0 94 df 89 be a0 34 5d 3d 98 c2 8f be a8 ad 21 3e
       -0.2692839 0.054005265 -0.2807815 0.15788901

model.linear_2.bias f4 [8]
000000 bc 8b 79 3d eb d8 25 3f 66 4a 68 be dd 18 ca 3e
       0.060924277 0.64784116 -0.22684631 0.39472094
000010 88 a9 0e be ea 82 df be df b0 1a be 64 20 95 be
       -0.13931859 -0.43654567 -0.15106533 -0.29126275

model.layer_output.weight f4 [1, 8]
000000 8d 45 a6 3e 11 b7 8e 3f 46 39 09 40 18 a4 6c bf
       0.32474938 1.1149617 2.1441207 -0.9243789
000010 04 ec 6a 3e 2a 25 f0 be fd ce d5 bf 6e ba b7 be
       0.22941595 -0.46903354 -1.6703793 -0.35884422

momentum_buffer f4 [8, 17]
000000 f8 df 19 38 0b 44 4c b9 56 5a e9 b8 e4 99 3d b9
       3.668663e-05 -0.00019480304 -0.00011127132 -0.00018081773
000010 f4 8d f3 b8 27 3d e7 37 0e b0 8b b9 04 47 46 b6
       -0.00011613584 2.7565822e-05 -0.00026643317 -2.9545636e-06
000020 84 c0 28 b9 f4 5f b3 38 b0 68 4b b9 f0 bc f1 37
       -0.00016093446 8.553258e-05 -0.00019398588 2.881742e-05
000030 bc 7e a0 b9 33 27 c6 b7 1f 46 04 38 c9 20 3e b9
       -0.00030612003 -2.3621693e-05 3.1536558e-05 -0.00018132025
000040 dd b0 b8 b8 79 0e 11 b8 dd 8b cf b9 01 38 b8 39
       -8.806747e-05 -3.4584173e-05 -0.00039586323 0.0003513694
000050 9c 58 12 ba 8f ba 00 b9 68 cc 1d 3a a4 b1 69 b9
       -0.0005582662 -0.0001227653 0.00060195336 -0.00022286788
000060 49 c6 16 39 4c 8f 31 b8 67 05 34 39 f1 8c 5a b9
       0.00014378982 -4.2333544e-05 0.0001716815 -0.00020842605
000070 71 f8 b1 b9 ec 15 28 b8 ea a6 92 38 8e b7 71 39
       -0.00033945174 -4.0074738e-05 6.992913e-05 0.0002305193
000080 77 8a a1 37 50 39 ce b8 50 b9 64 b9 a0 4f 2a ba
       1.9257173e-05 -9.833521e-05 -0.00021812809 -0.00064968504
000090 c8 08 0a 39 9d d0 1c ba 0a e7 ae b9 80 21 4d 39
       0.00013163977 -0.00059820135 -0.00033360004 0.00019562803
0000a0 09 4c 7c b9 c3 e8 01 ba 41 76 3b ba 84 50 c4 38
       -0.00024060918 -0.00049556437 -0.0007151105 9.3610055e-05
0000b0 8c 7c f0 b8 70 61 28 b9 58 6e 34 b9 a0 6a c0 b9
       -0.000114672905 -0.00016058027 -0.00017207244 -0.00036700536
0000c0 19 28 19 b8 70 0c da b8 37 ba 25 ba e2 bd 28 38
       -3.6515386e-05 -0.00010397367 -0.00063219987 4.0231163e-05
0000d0 b4 70 18 39 0e a6 35 b9 11 3e d7 b8 3f dd 3f 38
       0.00014537835 -0.00017323365 -0.0001026356 4.5744e-05
0000e0 aa 43 91 38 0a 42 31 b9 27 3c 3e 39 8d a0 36 39
       6.926742e-05 -0.00016904637 0.0001814222 0.00017416682
0000f0 40 36 73 b7 0e 73 1a b9 1b f8 40 b9 b4 b1 c9 36
       -1.449656e-05 -0.00014729446 -0.00018402973 6.010954e-06
000100 bc 2d 29 39 61 b7 f3 37 80 9d 53 b7 96 9f d1 37
       0.00016134133 2.905325e-05 -1.2613251e-05 2.4989055e-05
000110 ea 39 f6 b8 86 1c ce b9 0e 42 fa 39 bc 64 ba b9
       -0.000117409814 -0.00039312633 0.0004773293 -0.00035551738
000120 3a f4 d2 b8 d7 b8 dd 39 f2 43 e7 b7 f4 2c bd b6
       -0.00010059071 0.0004229012 -2.7568985e-05 -5.637872e-06
000130 d8 14 c7 b8 d4 37 0c 39 9c fe 96 b8 76 7d dc b8
       -9.492942e-05 0.00013372238 -7.199982e-05 -0.000105137864
000140 12 33 87 b8 89 d3 8b b8 22 f0 54 39 be c8 06 38
       -6.446814e-05 -6.667438e-05 0.00020307352 3.2135045e-05
000150 26 08 89 b8 fd d1 b3 b8 cb ce dd 37 ec 7e 5b 37
       -6.534187e-05 -8.5744985e-05 2.6441548e-05 1.30829685e-05
000160 b6 87 ec b8 77 01 ac b7 a7 99 b6 38 67 36 d9 b8
       -0.00011278635 -2.050468e-05 8.707056e-05 -0.000103574996
000170 f9 8f 70 38 b1 00 11 38 87 55 1d 37 75 19 bd b8
       5.7354544e-05 3.4571338e-05 9.377843e-06 -9.016964e-05
000180 c9 76 e4 b8 be 72 11 b8 3b 18 1e 38 3b 6b 7a 38
       -0.00010894013 -3.4677556e-05 3.7692702e-05 5.970451e-05
000190 b2 61 43 b8 00 6a c2 34 6b 9b a1 b9 c7 8c 14 b9
       -4.658261e-05 3.621244e-07 -0.00030824108 -0.00014166824
0001a0 c4 ac 88 38 5a e2 0f ba e3 26 d8 b8 d2 17 8c 39
       6.5171655e-05 -0.0005488746 -0.00010306926 0.00026720628
0001b0 a4 3b 8d b9 ed eb f1 b8 53 5b 02 b9 e0 a7 75 b7
       -0.0002693805 -0.0001153572 -0.00012431787 -1.4642224e-05
0001c0 b5 db 80 b9 00 c6 05 ba 7f af ad 38 bd 69 67 b8
       -0.00024577757 -0.00051030517 8.2819715e-05 -5.517317e-05
0001d0 f2 5a cd 38 4d ca 07 38 e8 af da b9 ba 29 ab 37
       9.7921016e-05 3.2374915e-05 -0.0004171126 2.0404219e-05
0001e0 fb f5 f4 39 cb 22 e3 b9 d5 28 81 39 c2 57 38 39
       0.00046722576 -0.00043322737 0.0002463522 0.000175803
0001f0 eb ce c0 b9 ce f3 dc b8 7f 85 27 39 23 cd a8 39
       -0.0003677526 -0.0001053583 0.00015976092 0.00032196296
000200 97 2f 26 b9 2d be e4 b8 03 0d 89 b8 91 d1 53 38
       -0.00015848722 -0.0001090731 -6.535093e-05 5.0501494e-05
000210 d8 26 2f 39 42 12 cd b8 c3 99 16 b7 6a ea 84 38
       0.00016703771 -9.7785625e-05 -8.976497e-06 6.3379135e-05

momentum_buffer f4 [8]
000000 9e 3c 8d b9 ba d6 a5 b8 c3 fb 40 ba c2 a1 4f 37
       -0.0002693878 -7.907809e-05 -0.0007361734 1.2375824e-05
000010 91 47 0b b8 db dc 41 b8 9f b6 c9 b9 5b 2e 64 38
       -3.3206834e-05 -4.6220473e-05 -0.0003847377 5.4402608e-05

momentum_buffer f4 [8, 8]
000000 35 92 29 ba ae e5 97 38 8e b0 91 b9 a9 d5 dc 38
       -0.0006468625 7.243022e-05 -0.000277881 0.00010530215
000010 95 c5 47 39 52 d9 86 b8 a4 45 c3 39 ec 7f d8 38
       0.00019051724 -6.430097e-05 0.00037245185 0.0001032351
000020 4b 7f 27 3a 4a ed 42 3a 5a 85 92 39 fa e3 86 39
       0.00063895126 0.00074358715 0.00027946645 0.00025728327
000030 1b 12 f4 39 72 6b aa 37 c4 10 57 39 47 ec 04 ba
       0.00046552796 2.0315612e-05 0.00020510243 -0.00050706085
000040 15 0b 17 b8 5e 3f 30 39 30 f5 de b8 b9 77 9e 37
       -3.6011526e-05 0.00016808274 -0.00010631455 1.8890818e-05
000050 72 8b ac b8 5e 7c d3 38 52 6a 84 38 81 3b 58 38
       -8.227573e-05 0.00010084429 6.314054e-05 5.155383e-05
000060 c8 b6 c6 b9 c0 aa cc 39 99 40 95 b9 53 7c 95 39
       -0.00037901686 0.0003903713 -0.00028467624 0.00028512123
000070 40 fa 09 3a 29 8c 6c b9 5f 79 c5 39 ff 88 07 b9
       0.00052634254 -0.00022558928 0.00037665197 -0.00012925638
000080 3a be 06 ba fa 28 d2 b9 c3 c5 a3 b9 98 3c df 38
       -0.00051400403 -0.0004008485 -0.00031237127 0.00010644755
000090 e0 a4 63 b8 93 bf c1 b9 36 7c a6 38 f8 be c8 39
       -5.427457e-05 -0.00036954563 7.938633e-05 0.00038289255
0000a0 0f 53 09 ba 72 bd 70 39 7a 5b 4f b8 e6 9f 5d 38
       -0.0005238512 0.00022958757 -4.943784e-05 5.2839423e-05
0000b0 34 02 57 39 c0 9f 5c b5 8c 71 13 3a 4e e9 ad 38
       0.00020504819 -8.2188853e-07 0.0005624525 8.292739e-05
0000c0 d8 b3 07 ba 4c d6 f3 b9 d1 9a c8 b9 9c 00 03 b7
       -0.000517664 -0.00046508235 -0.0003826232 -7.80835e-06
0000d0 74 a7 35 37 3a 42 f3 b9 a5 d5 cd b9 e4 48 03 b7
       1.0827429e-05 -0.00046397914 -0.00039259825 -7.82518e-06
0000e0 c8 5f 0e 37 8f e3 5e b9 42 9b 2f 39 b6 28 f3 b8
       8.48616e-06 -0.00021256342 0.00016747139 -0.00011594726
0000f0 8f 19 f6 b7 5c ea dc b7 a6 e7 1f 39 08 11 ac 39
       -2.9337387e-05 -2.6335176e-05 0.00015249717 0.00032819086

momentum_buffer f4 [8]
000000 76 f1 90 b9 2a 20 a6 b7 e6 42 9b 37 53 7d c9 b9
       -0.00027645723 -1.980372e-05 1.8508592e-05 -0.0003843108
000010 01 f5 7f b9 95 35 53 b9 ff e2 99 b9 4d 0f 9e 38
       -0.00024409966 -0.00020142489 -0.0002935156 7.536877e-05

momentum_buffer f4 [8, 8]
000000 aa d7 8e b8 ad 58 95 36 bc 3c 74 35 f6 d5 c0 b2
       -6.811258e-05 4.4508693e-06 9.0985463e-07 -2.244904e-08
000010 32 cb ed b8 02 7a bc b7 9f 06 5b b9 5b b9 fe 37
       -0.00011338889 -2.246816e-05 -0.00020887934 3.0365472e-05
000020 ae 69 de b9 0e ab d3 ba ab d7 0c 37 38 fe e7 b9
       -0.00042421877 -0.0016149001 8.394864e-06 -0.0004424916
000030 75 4c ad 39 eb 1e 61 ba 50 24 88 38 8a 18 c2 39
       0.00033054096 -0.0008587676 6.491749e-05 0.00037020847
000040 71 b3 ca b8 d6 60 bc 38 5e 65 0f b7 57 1f 2c 36
       -9.665534e-05 8.982576e-05 -8.547066e-06 2.564824e-06
000050 2c f3 0a ba db 65 76 39 0c 54 90 ba 51 87 16 39
       -0.00053005177 0.00023498332 -0.0011011376 0.00014355524
000060 90 3c e3 b8 b3 5d df 38 4a 56 81 b8 5b 76 d6 38
       -0.00010835484 0.000106509215 -6.167272e-05 0.000102263606
000070 a4 87 46 b7 8a 43 61 b9 62 84 a4 39 fc 4b 68 b9
       -1.1833301e-05 -0.00021482832 0.0003137915 -0.0002215355
000080 00 00 00 00 00 00 00 00 00 00 00 00 00 00 00 00
       0.0 0.0 0.0 0.0
000090 00 00 00 00 00 00 00 00 00 00 00 00 00 00 00 00
       0.0 0.0 0.0 0.0
0000a0 00 00 00 00 00 00 00 00 00 00 00 00 00 00 00 00
       0.0 0.0 0.0 0.0
0000b0 00 00 00 00 00 00 00 00 00 00 00 00 00 00 00 00
       0.0 0.0 0.0 0.0
0000c0 15 7e 9a b9 db 4b fc 39 17 16 93 b7 2d 71 86 39
       -0.00029467107 0.00048121702 -1.7534052e-05 0.00025642794
0000d0 8f 81 d7 b9 33 ba 07 ba 1a 7a 1e 39 d7 4b 0d ba
       -0.00041104524 -0.0005177587 0.0001511354 -0.0005390024
0000e0 00 00 00 00 00 00 00 00 00 00 00 00 00 00 00 00
       0.0 0.0 0.0 0.0
0000f0 00 00 00 00 00 00 00 00 00 00 00 00 00 00 00 00
       0.0 0.0 0.0 0.0

momentum_buffer f4 [8]
000000 d1 8c e5 b7 c6 54 e9 b9 d0 c9 92 b8 c8 cc 17 b6
       -2.73645e-05 -0.00044504384 -6.999413e-05 -2.2619952e-06
000010 00 00 00 00 00 00 00 00 92 8a 57 38 00 00 00 00
       0.0 0.0 5.1389048e-05 0.0

momentum_buffer f4 [1, 8]
000000 2d 5f 65 b9 19 a9 d1 ba 97 62 9d ba 6b 1c 8a 39
       -0.00021874598 -0.001599583 -0.0012007531 0.00026342584
000010 00 00 00 00 00 00 00 00 d1 c2 44 3a 00 00 00 00
       0.0 0.0 0.00075058365 0.0
