src/logs/lightning_logs/version_50/checkpoints/epoch=499-step=3500.ckpt (torch, 9970 bytes, 14 tensors)

model.linear_input.weight f4 [8, 17]
00000000: dd4d 27bf 1187 993f cf2c cdbd e1eb cf3e
00000010: 4ce4 1f3e e474 813e 29e3 ec3d afda 87be
00000020: 2927 173d cc13 d13d f39e 133e da79 b23d
00000030: 57ee 21be b91a 463e 2e19 ecbe 661c 37bd
00000040: b132 e13e b855 d63e 0264 f33e fb6d 0abf
00000050: 7ab9 b33e 3679 eb3e 550b 2abf b2dc b9bd
00000060: b324 9abe a570 883b 7951 87be 65b5 463d
00000070: bf1f 083f 39dd 813e 21dc fcbe 5347 013c
00000080: 6a21 1b3d aa8b a8be 523e 873b 27ef 75bf
00000090: 8e8b a2be 91e8 d1be ae8a 903d 4278 1c3d
000000a0: 46b8 a7be aa2c f9be f681 a8ba 0bf3 c9bd
000000b0: 8fde c43d 6a75 a93d f544 933c 4129 9d3e
000000c0: cdb0 b9bd 0a1c fe3d 633b 6fbe 81b3 953b
000000d0: 9715 91be 975c dcbd ca28 4e3f 7c58 e6be
000000e0: e7ed 4abf ec3f 1a3e 190a 70be ed58 d7bd
000000f0: 5a73 a53e 8683 883d 6e43 02bf d332 6d3e
00000100: b3d2 d5bc 4501 1dbe 6718 5b3e 6d25 873d
00000110: 32ac 0c3f c8e3 ee3b 541a 0b3c 841a 24bf
00000120: e81e 6b3f 7c35 35bd 37b7 7a3e 69e3 95be
00000130: 11bd e93d a357 cebd bd9c 7b3e 38e9 fcbc
00000140: 91b3 e23d 592f 1e3d 8b44 963d 0024 413d
00000150: 46e0 123f 2b52 82bf 4394 c73c cc21 3f3f
00000160: ffc6 e9be 8db6 93bd 8a5b 373f c8ed fcbc
00000170: 73c2 2ebe 3697 94bd 9d07 b83d e361 3f3d
00000180: 5762 0dbf f955 f23e 9ca2 1fbc e6e6 7a3e
00000190: c2fd a23d a2a8 bfbe 89eb 41be 8975 373e
000001a0: 13cf 07bf 8039 9abe 72e1 573f dcf1 cbbe
000001b0: 194b 67bd eb5c c73e 4f56 7f3d b477 e93e
000001c0: 5778 133e 8413 f53e 2db1 85be 65b2 f8bd
000001d0: af95 87bc 3fc1 d13e 7877 283d af68 2ebf
000001e0: 8666 69be 90e7 393f cb8d 17bf 710f 4d3c
000001f0: 7440 ef3e 9cde 35be 6103 ebbe 4869 9d3c
00000200: c928 ebbd 0555 95bd 264e 8d3f d543 a0be
00000210: 9057 01bf 9249 e2be cb10 93be 81c8 adbe
-0.65353185 1.1994344 -0.10018312 0.4060965 0.15614432 0.25284493 0.11566765 -0.2653403
0.03690258 0.10208854 0.14416103 0.087146476 -0.15813576 0.19346131 -0.4611296 -0.044704817
0.43983987 0.41862273 0.47537237 -0.54074067 0.35102445 0.45990914 -0.6642354 -0.090752974
-0.30106124 0.004163819 -0.26429346 0.048512835 0.5317344 0.25364092 -0.49386695 0.00789054
0.037873663 -0.32919055 0.004127302 -0.9606804 -0.31747097 -0.40997747 0.07057701 0.038200624
-0.32757777 -0.48666888 -0.0012856114 -0.0986081 0.09612762 0.08274348 0.017977217 0.30695537
-0.09066925 0.12407692 -0.23362498 0.0045685177 -0.28336784 -0.107598476 0.8053099 -0.44989383
-0.7926926 0.15063447 -0.23441352 -0.10515008 0.3231457 0.06665711 -0.5088414 0.23163919
-0.026101446 -0.15332516 0.21396028 0.06598935 0.5495025 0.0072903372 0.008490164 -0.6410296
0.91844034 -0.04424046 0.24483953 -0.29275063 0.11413015 -0.10075309 0.2457151 -0.030872926
0.11069406 0.038619373 0.07337292 0.047153473 0.57373464 -1.0181326 0.024362689 0.74660945
-0.45659634 -0.07212553 0.7162405 -0.030875102 -0.17066364 -0.07255404 0.08985827 0.04672421
-0.5522818 0.47331217 -0.009743359 0.24502143 0.07958557 -0.37433344 -0.18937506 0.1791593
-0.53050345 -0.30121994 0.8432838 -0.39832962 -0.056468103 0.38938078 0.06233817 0.4559914
0.14401375 0.47866452 -0.26111737 -0.12143401 -0.016550867 0.40967748 0.04112956 -0.68128484
-0.22793016 0.7261896 -0.59200734 0.012515889 0.4672886 -0.177607 -0.45901015 0.019215241
-0.114823885 -0.07291607 1.1039474 -0.31301752 -0.50524235 -0.44196755 -0.2872375 -0.33942035

model.linear_input.bias f4 [8]
00000000: f754 c93d 2943 c9bd 976e 1b3e c305 8dbe
00000010: 6355 eebe 88fd e23e f652 2f3d 0a4c 6bbd
0.09830659 -0.09827263 0.15178905 -0.27543458 -0.4654952 0.44334054 0.042803727 -0.057445563

model.linear_1.weight f4 [8, 8]
00000000: ab9f 92be 49e1 08be 4947 03be 1a1e f23e
00000010: b724 dabe 65bf d3be 7d53 b03e d794 9b3e
00000020: c541 883d cd0d 353f bfff bbbe 0591 213e
00000030: 7c59 543e 0b8e 6ebf 15f1 f13e 092e f6be
00000040: 50b8 393f a12b 273e 8fdc 7bbe b755 45bf
00000050: 677a 933e 2be4 ad3e eef1 4b3f 107e 833f
00000060: f529 f6be b158 0abf 5e7a 46be 062b 1ebf
00000070: 0cad e9be ac83 d33e e7b6 e8be 1978 463f
00000080: 7463 2b3e 2c8d 01bf 5deb ad3e d6f5 80be
00000090: e01f 223e 0ad8 533e 7cef e1be ba5c 2f3f
000000a0: cce9 9ebe 2b32 c7be 24cd 093f c661 19bf
000000b0: f106 ca3e 42d1 b33e cd7c c73d baf2 96be
000000c0: fc83 0a3f a22e dbbd 26b3 44bf d497 86be
000000d0: 12c0 9a3d 4d5e 333f 2e93 183e 3ea0 f4be
000000e0: 888d 5fbf 2fa5 efbd 7642 dd3e 42f7 afbe
000000f0: 91ea 743f 5416 ffbd 81e9 033e bbeb 99bd
-0.28637442 -0.1336719 -0.12820162 0.4728859 -0.42606136 -0.4135696 0.34438697 0.30386993
0.066531695 0.70724183 -0.36718556 0.15777977 0.2073726 -0.9318549 0.47254243 -0.48081997
0.72546864 0.16325237 -0.24595855 -0.77083915 0.28804323 0.3396314 0.7966603 1.0272846
-0.48078886 -0.5404158 -0.19382617 -0.617844 -0.45639837 0.41311395 -0.45452043 0.77527004
0.16737157 -0.50606036 0.3396863 -0.25187558 0.15832472 0.20687881 -0.44128025 0.68500865
-0.31037748 -0.38905463 0.53828645 -0.59914815 0.3945842 0.3512059 0.09740601 -0.2948206
0.5410764 -0.10702254 -0.7683586 -0.2628771 0.07556166 0.70065767 0.14899895 -0.47778505
-0.87325335 -0.11701428 0.43214768 -0.3436833 0.9567042 -0.124554306 0.12882043 -0.07515665

model.linear_1.bias f4 [8]
00000000: 2143 e5be b3c3 083f 70ff f23e 9211 fdbd
00000010: 8702 82be 6607 233e 4cf1 f73e a2b7 903e
-0.44777778 0.53423613 0.47460508 -0.12356867 -0.25392553 0.15920791 0.48426282 0.282651

model.linear_2.weight f4 [8, 8]
00000000: cdc1 183e bed0 dfbe 3053 26bf 3612 85bf
00000010: 86a2 f2be f59a 793f 8ee2 673f 8c4e 7a3f
00000020: a183 ccbe c7eb 253e ff0d 243e a35e f23d
00000030: 503a e0be 7732 793e 0a2b 5cbc b1ad b6be
00000040: e1dd b6bc be35 a7be 95fd e83e fcb9 a1be
00000050: b4a6 d63e 48cd 60be 588e 143e 6d5e 813e
00000060: 42f1 db3e 3044 903f 6c94 c03f fb7b 323f
00000070: 3815 093f 8e8b 293e c9f4 5cbf 4a8f 13bf
00000080: aa0d c9be a22c e9be 87f4 5fbe 5d5e 203e
00000090: f534 103f dbaa 773e 8558 a23e 664e 56bd
000000a0: 0290 32be 128e 8c3e bff3 c9be 5769 2c3d
000000b0: 3e42 39bd 052d e13d 035f 533e 0432 e43d
000000c0: ba4d c2be 1965 61bc 89b2 b6bd 7135 06bf
000000d0: a87b 083e b818 1abe ad74 093f bb8d 243f
000000e0: 2c7d d9be 22f4 49bd ced5 94be c663 f8be
000000f0: 0cd3 41be 0f77 bf3e b56d 9cbe 6352 d43e
0.14917679 -0.43713945 -0.64970684 -1.0396183 -0.4738962 0.9750207 0.9058007 0.97776103
-0.39944175 0.16203223 0.16020964 0.11834457 -0.4379449 0.24335657 -0.013437996 -0.3567939
-0.022322597 -0.3265819 0.45505968 -0.31587207 0.4192406 -0.21953309 0.14507425 0.25267354
0.42957503 1.1270809 1.5045295 0.6972043 0.53548 0.16557142 -0.8631101 -0.57640517
-0.39268237 -0.45541865 -0.21870624 0.15660997 0.56330806 0.2418627 0.3170816 -0.05232086
-0.17437747 0.2745214 -0.39443776 0.042092647 -0.04522919 0.10994915 0.20641713 0.11142352
-0.37949926 -0.013757014 -0.08920772 -0.52425295 0.13328421 -0.15048492 0.5369366 0.64278764
-0.4247831 -0.04930509 -0.2906937 -0.4851362 -0.18928164 0.37395522 -0.3055245 0.41469106

model.linear_2.bias f4 [8]
00000000: f86f 183f 2516 793e 777b 893e b640 8f3e
00000010: 9e92 cebe 95f6 c5bd 893a 97bd 714a 0bbd
0.5954585 0.24324854 0.2685201 0.27979058 -0.40346235 -0.096661724 -0.073842116 -0.03400654

model.layer_output.weight f4 [1, 8]
00000000: 94db f9bf f2a8 4c3e ad74 ef3d 83f6 0940
00000010: 85fb 9f3e 56dc 6bbe e3cb 1ebf 8c8c d9be
-1.9520135 0.19986323 0.11692176 2.155671 0.31246582 -0.2303327 -0.62029856 -0.4249004

momentum_buffer f4 [8, 17]
00000000: f556 4f38 efbf 8ab8 42d0 4636 bb82 cbb7
00000010: 2963 8337 e760 adb6 7225 6bb6 3a26 2cb7
00000020: 96e5 b2b7 9bce 3d37 14cc 7bb6 f829 8cb7
00000030: 4644 0b37 c79b b537 bd8b e2b7 9f48 9cb7
00000040: 4843 a336 54d9 09b6 4679 e6b7 1a32 b437
00000050: f213 eab4 7fc4 cab7 77ea 8a37 00f7 a733
00000060: a054 08b7 d6a6 8bb7 7f76 28b5 61d0 1a37
00000070: 5894 55b7 ccb6 16b6 c229 5a37 d4d8 cbb6
00000080: 182d 65b7 cc50 bc36 feee 09b8 0c97 6838
00000090: 3a54 a4b6 2ac1 b737 7f0a 95b7 b808 6337
000000a0: a7ae 7337 a21d 5336 57d3 f036 4257 48b6
000000b0: 3822 6237 b6c2 d336 f3a7 b8b6 8727 e2b6
000000c0: 3afe c537 e8ed 7137 9a20 5a36 5c36 80b7
000000d0: 172b 0db7 8640 e537 afa2 d3b7 6574 8f37
000000e0: d545 4537 1ed0 2c37 cbcd dfb6 cdea 51b7
000000f0: 144f 3137 e909 bb36 4cea 4637 cb14 96b6
00000100: 1024 2ab4 7238 71b6 6a38 7f36 2038 39b4
00000110: 8faa 98b6 3b37 ac37 eb96 9bb7 65ba 1538
00000120: 864f 8eb8 f83e f837 9a79 fe36 7451 2ab7
00000130: b5df bcb6 8ab7 78b7 5e09 9637 f003 1f37
00000140: 8761 afb7 5ef7 5eb7 e8d0 b937 41dd 52b7
00000150: 9bc8 2737 5512 3c38 5560 30b7 5698 03b8
00000160: f44c 92b6 f518 a737 cc83 53b7 50c5 00b5
00000170: f64f 6636 c490 4036 6073 3637 f00f 35b7
00000180: a338 8237 5140 ec36 ef5c 21b7 d9ac 27b7
00000190: d2b4 9736 fc95 d2b5 32af 7837 814b edb7
000001a0: 6082 ba34 720a 7537 0737 4bb8 f7de ad37
000001b0: 407b acb4 e0af 56b7 422a 95b7 3fdf eab6
000001c0: 66b0 4337 6448 7ab7 04d2 edb5 8ea7 1c37
000001d0: 4f71 c1b6 65a8 c4b7 0f3d 2d37 42b4 a437
000001e0: e221 5a37 de4c ddb7 0e99 d337 208a a836
000001f0: 4043 c9b7 bef5 25b7 3373 8737 8754 8737
00000200: b5b1 05b7 d81a 00b6 4ee0 2ab8 8120 c837
00000210: f038 a237 04fc 7e36 d0c9 ff36 0ea2 b7b5
4.943363e-05 -6.616103e-05 2.9625521e-06 -2.4260362e-05 1.5662592e-05 -5.1670827e-06 -3.5039525e-06 -1.0260899e-05
-2.1326163e-05 1.1313382e-05 -3.7520704e-06 -1.6708844e-05 8.300942e-06 2.164942e-05 -2.700637e-05 -1.8630466e-05
4.865611e-06 -2.0541092e-06 -2.7474609e-05 2.1481002e-05 -4.360041e-07 -2.4171777e-05 1.6560063e-05 7.8214725e-08
-8.125935e-06 -1.664778e-05 -6.275731e-07 9.227632e-06 -1.2730328e-05 -2.2458144e-06 1.3003535e-05 -6.0751136e-06
-1.3659963e-05 5.6122426e-06 -3.2885924e-05 5.5453784e-05 -4.897386e-06 2.1905249e-05 -1.7767072e-05 1.3532284e-05
1.4524593e-05 3.1458699e-06 7.1771606e-06 -2.9853113e-06 1.3478617e-05 6.3109574e-06 -5.503179e-06 -6.7399264e-06
2.3602614e-05 1.4420111e-05 3.2503508e-06 -1.5284102e-05 -8.414288e-06 2.7328973e-05 -2.5228916e-05 1.7101129e-05
1.1758374e-05 1.0300455e-05 -6.6698753e-06 -1.251204e-05 1.0568434e-05 5.574188e-06 1.1856271e-05 -4.472769e-06
-1.5845603e-07 -3.5944654e-06 3.8030798e-06 -1.7249886e-07 -4.5498086e-06 2.0529716e-05 -1.8547717e-05 3.569796e-05
-6.7859e-05 2.9593226e-05 7.583946e-06 -1.0151754e-05 -5.6288795e-06 -1.4824685e-05 1.7885755e-05 9.478055e-06
-2.090704e-05 -1.3289826e-05 2.2150998e-05 -1.256849e-05 1.0000683e-05 4.4839766e-05 -1.05128465e-05 -3.1374708e-05
-4.3600976e-06 1.9919573e-05 -1.2607266e-05 -4.7970843e-07 3.4319214e-06 2.8694494e-06 1.0874908e-05 -1.0792151e-05
1.5523581e-05 7.0408355e-06 -9.617986e-06 -9.99422e-06 4.521201e-06 -1.568987e-06 1.4822743e-05 -2.828776e-05
3.474006e-07 1.460557e-05 -4.845022e-05 2.0727033e-05 -3.2127173e-07 -1.2796343e-05 -1.7781862e-05 -6.9997327e-06
1.1663977e-05 -1.4918016e-05 -1.7718999e-06 9.337336e-06 -5.765039e-06 -2.3443436e-05 1.032582e-05 1.9634263e-05
1.30017015e-05 -2.6381047e-05 2.5224432e-05 5.02287e-06 -2.3992383e-05 -9.891983e-06 1.6146898e-05 1.6132615e-05
-7.968793e-06 -1.9089111e-06 -4.074006e-05 2.3856994e-05 1.9338418e-05 3.7995642e-06 7.6230863e-06 -1.3681727e-06

momentum_buffer f4 [8]
00000000: 95ef 66b7 b204 07b7 083b 9437 eba4 7336
00000010: 9552 2cb6 961e 4636 ba13 5cb7 44e1 d136
-1.376485e-05 -8.04772e-06 1.7670463e-05 3.6305817e-06 -2.5678066e-06 2.9522103e-06 -1.3117615e-05 6.2549097e-06

momentum_buffer f4 [8, 8]
00000000: d4e5 aa35 dd0d 5735 6358 0736 03f5 42b6
00000010: 21ed 5e36 689b 7536 a987 37b6 cea4 2837
00000020: 1e60 dfb6 b0ee 0cb8 c247 1837 b08b 1737
00000030: 5b47 5db7 37c0 0b38 e787 02b8 382c ac37
00000040: 604c e5b7 85c9 87b7 88f4 5d37 45de 3c38
00000050: 26c1 83b7 46c6 f3b7 8b7b 61b8 5b2a 8ab8
00000060: ab72 2536 3b57 1238 766b 32b7 7dfd 1137
00000070: 0483 e436 90de 0db7 f9d8 1f38 dd0e 0eb8
00000080: 196f d336 b83c a437 94a3 97b6 2f5b 1db6
00000090: 0e94 4637 8b03 4db7 cc43 9337 937b 85b7
000000a0: d159 ed37 b711 7536 f8c8 78b7 0421 f9b6
000000b0: d52e 0bb7 9dd9 5b37 1857 c236 6f98 a137
000000c0: bab0 7db8 3d99 a437 c795 3238 021c 0fb7
000000d0: 28da 0538 5fe8 76b8 a8c8 fd36 f9cb 0538
000000e0: 46c1 4338 28df 4937 6ca8 3bb8 6d6d 3437
000000f0: 77d2 8ab8 f8e8 5cb7 4b17 1bb8 6241 22b7
1.2732876e-06 8.0113915e-07 2.0168015e-06 -2.9050868e-06 3.3218605e-06 3.6598303e-06 -2.734809e-06 1.0051952e-05
-6.6571074e-06 -3.3600896e-05 9.076613e-06 9.032825e-06 -1.318924e-05 3.3319197e-05 -3.1120984e-05 2.0524589e-05
-2.7334492e-05 -1.6187094e-05 1.3229561e-05 4.5029698e-05 -1.5706359e-05 -2.9060186e-05 -5.375924e-05 -6.588242e-05
2.4653662e-06 3.4890352e-05 -1.0634647e-05 8.701693e-06 6.8101817e-06 -8.456074e-06 3.8110626e-05 -3.386928e-05
6.3012235e-06 1.9578598e-05 -4.5191937e-06 -2.34479e-06 1.1836191e-05 -1.2219777e-05 1.7555336e-05 -1.591238e-05
2.8294426e-05 3.6518156e-06 -1.4828744e-05 -7.424622e-06 -8.29595e-06 1.3104084e-05 5.7917896e-06 1.9263678e-05
-6.048449e-05 1.962168e-05 4.2577998e-05 -8.529985e-06 3.1912845e-05 -5.8867383e-05 7.563347e-06 3.1899635e-05
4.6671623e-05 1.2032491e-05 -4.474113e-05 1.0754314e-05 -6.619555e-05 -1.3167264e-05 -3.6976573e-05 -9.671176e-06

momentum_buffer f4 [8]
00000000: fd0a 81b6 5912 80b7 2dc4 a3b6 a024 a834
00000010: cc98 4cb6 95ab 98b5 00f8 6eb7 1c7c 3036
-3.845779e-06 -1.5267333e-05 -4.8806164e-06 3.1319087e-07 -3.0487308e-06 -1.137482e-06 -1.42436475e-05 2.6298285e-06

momentum_buffer f4 [8, 8]
00000000: f762 3836 6cc7 3738 3025 9138 bde1 1938
00000010: 0221 d637 f368 b6b7 e17d d5b8 8abc 8bb8
00000020: 47b8 9ab4 ef77 a0b6 b68a 04b7 955b 82b6
00000030: 17ab 33b6 0a3f 1536 76fc 2437 eceb e436
00000040: fd13 8ab1 ddad 8cb6 fecf 9bb6 3889 18b6
00000050: 2f3c d2b5 a6a8 72b5 514f 0f36 f10a 8434
00000060: 9598 50b6 b9ea 8cb8 2cb8 b2b8 dce6 2fb8
00000070: 5e3b f2b7 55a0 c837 2c89 ff37 0b34 9a38
00000080: 0000 0000 5cad dc34 96f2 2b37 8386 bdb6
00000090: ae6a 83b6 2033 1036 e46f bc37 9301 2f36
000000a0: 9a0d ae34 3519 8f36 bf8c 8f37 3fee 8936
000000b0: 2d4f 3a36 f261 a735 1c0a 6936 2ce3 e8b6
000000c0: 465e 6a35 5a6d 7837 6ec4 c737 57b3 3737
000000d0: b73f 0437 4602 ffb6 e986 04b8 48a4 b2b7
000000e0: 0000 0000 11e8 95b7 626e 9eb3 dde1 58ae
000000f0: 0400 0080 ceab 06b7 2716 fdb6 ac90 65b7
2.7475742e-06 4.3816326e-05 6.9210655e-05 3.6688278e-05 2.5526158e-05 -2.1744961e-05 -0.00010180078 -6.6631546e-05
-2.8818815e-07 -4.7823337e-06 -7.900109e-06 -3.8849635e-06 -2.6772666e-06 2.2239424e-06 9.833942e-06 6.8223944e-06
-4.018601e-09 -4.1925655e-06 -4.6435734e-06 -2.2729637e-06 -1.5663735e-06 -9.039744e-07 2.1354829e-06 2.4594877e-07
-3.108323e-06 -6.719441e-05 -8.522006e-05 -4.1938256e-05 -2.8876293e-05 2.3916518e-05 3.0462244e-05 7.352986e-05
0.0 4.110433e-07 1.0248876e-05 -5.648298e-06 -3.9165234e-06 2.148743e-06 2.246345e-05 2.6077948e-06
3.2419922e-07 4.2646666e-06 1.7112468e-05 4.1106537e-06 2.7762246e-06 1.2470975e-06 3.472559e-06 -6.940585e-06
8.730898e-07 1.4807412e-05 2.3814118e-05 1.0949406e-05 7.882648e-06 -7.599857e-06 -3.1596897e-05 -2.1295753e-05
0.0 -1.7870248e-05 -7.377527e-08 -4.931332e-11 -6e-45 -8.027024e-06 -7.5425664e-06 -1.3683148e-05

momentum_buffer f4 [8]
00000000: 78cd c3b7 12fc 0136 4a17 de34 1e60 ebb6
00000010: 24c6 eb36 9d14 9135 0f06 d8b6 1a28 c7b6
-2.334149e-05 1.9369222e-06 4.1367667e-07 -7.0147353e-06 7.0266124e-06 1.0809341e-06 -6.438007e-06 -5.9353306e-06

momentum_buffer f4 [1, 8]
00000000: c798 2439 213d 68b7 0003 13b2 a908 1ab9
00000010: d70d 36b6 c964 cc37 5107 7638 41f3 4f37
0.00015697173 -1.384251e-05 -8.557208e-09 -0.0001468981 -2.712817e-06 2.4365627e-05 5.8657784e-05 1.2394798e-05
