src/logs/lightning_logs/version_54/checkpoints/epoch=204-step=1435.ckpt (torch, 9970 bytes, 14 tensors)

model.linear_input.weight f4 [8, 17]
000000 38 98 91 3d e3 5f 72 3e 19 9d 8e bd 53 b7 eb 3e
       0.071091115 0.2366939 -0.06963558 0.46038303
000010 d9 c5 ea 3e 5d b4 82 3e b8 53 01 3d 2a f1 0d bd
       0.4585407 0.2552823 0.03157398 -0.03465382
000020 11 53 b6 3e 54 92 d7 3e 69 5a 82 3d c3 b9 87 bd
       0.3561025 0.42103827 0.063649006 -0.06627228
000030 1a d2 24 bc b4 97 16 be 9f e6 a1 be 0d 67 06 3e
       -0.010059858 -0.14706308 -0.31621262 0.13125248
000040 61 00 dc be ac c7 fb be 08 61 06 3f cb 9f 98 3e
       -0.4296904 -0.49175775 0.5249181 0.29809412
000050 dc 94 68 3e 64 3f e9 3e c9 51 9a be 61 5a b0 3d
       0.22713035 0.45556176 -0.30140522 0.086109884
000060 05 0f cd be 88 11 29 be cd 02 3f 3e 92 e1 bc 3e
       -0.40050521 -0.16510594 0.18653412 0.36890846
000070 0a 85 43 3f 21 e7 1d 3e 34 4c ae bc a6 6e 73 be
       0.76374876 0.154202 -0.02127657 -0.23772678
000080 ae 17 e1 be 9b d6 9d 3c 51 a3 0d bb 69 7d e0 3e
       -0.4396338 0.01926737 -0.0021612237 0.4384568
000090 2f 3a c5 be 8e a3 91 be a0 2d 07 bf 1e bb 82 be
       -0.38520953 -0.28445095 -0.52803993 -0.25533384
0000a0 16 27 03 3f 6d e2 09 bf 14 2f 8d be 01 6a ab 3e
       0.51231515 -0.53861123 -0.2757498 0.33479312
0000b0 48 f1 c6 be 3d e9 f8 be 2a 5e 6a be 3d 7a 3e bd
       -0.38855958 -0.48615447 -0.22887483 -0.046503294
0000c0 ac 83 f2 3e d4 6c d6 be 31 b1 8e bd 8e 5f 1c 3e
       0.47366083 -0.41879904 -0.0696739 0.15270826
0000d0 69 e4 d0 3e b7 05 7c 3d 31 80 62 3a 5e df 44 3e
       0.40799263 0.061528888 0.0008640318 0.19225833
0000e0 ff 5a 72 be 16 51 fd be 19 6f 7c 3e 93 7a ff 3e
       -0.23667525 -0.49475926 0.24651755 0.49898204
0000f0 60 15 d9 be ad 42 f0 3d 91 4d 62 be fd dc f9 3e
       -0.4239912 0.117314674 -0.22099902 0.48801413
000100 97 12 fa 3e 96 66 06 3e bc 6b 1a bf 2f 4f a4 bd
       0.48842308 0.13125071 -0.6032064 -0.080229156
000110 83 e6 90 3e c4 80 b8 3e d3 df 08 3e 30 23 c2 be
       0.28300866 0.3603574 0.13366632 -0.3791747
000120 5d 69 9a be c0 23 9b 3e 28 44 a6 3e b8 6c 13 3f
       -0.3015851 0.30300713 0.32473874 0.57587767
000130 29 da 97 3b 4b a7 7c 3e 3e f0 ca be f4 85 73 be
       0.004634161 0.24673192 -0.39636415 -0.23781568
000140 82 b7 6c 3e c7 d3 a6 be f1 e6 02 be 96 21 9f 3e
       0.23116878 -0.32583448 -0.1278341 0.31080312
000150 46 9f ce bd fa 97 9d 3e 27 9b 4d be 1a 25 1d bf
       -0.10088973 0.3078001 -0.20078717 -0.6138474
000160 a4 ce eb bc 8a 95 57 3e 73 32 29 3e 5d ad 63 3d
       -0.028785057 0.21053138 0.16523151 0.055585254
000170 b7 77 07 bf 36 ba 0d 3d 14 18 de be 0b e2 91 3e
       -0.52917045 0.034601413 -0.43377745 0.2849277
000180 c1 d2 3f 3e 9f 39 14 3f 75 68 e7 3e 81 bd 94 be
       0.1873274 0.5790042 0.45196882 -0.2905083
000190 92 05 3b 3e 8b 5a 9a 3e 15 9b 01 bf ef 3e ea 3e
       0.18263844 0.30147204 -0.5062726 0.4575114
0001a0 7e 27 17 be dc 25 cc 3d 2b 8e db 3e a7 0a 09 bf
       -0.14761159 0.099681586 0.42881903 -0.5353188
0001b0 7a 30 3c 3e 1c 18 bf 3e b9 dd 47 be 34 e3 f3 be
       0.18377867 0.37323081 -0.19518174 -0.4763428
0001c0 73 cd 7b 3e c7 de 3b be 8a 52 e7 bd cc ab 8e 3d
       0.24590091 -0.18346702 -0.1129504 0.069663614
0001d0 8d 4a ff 3e aa 6d 27 be 8f a1 a9 bb a1 9c db be
       0.49861565 -0.16350427 -0.00517673 -0.42892936
0001e0 9b 33 c5 be e4 d3 49 3e c7 0f 9b 3b af 08 50 be
       -0.38515934 0.19709736 0.0047321054 -0.20315813
0001f0 e7 e4 77 be dc b1 d0 3e c3 6b 2e be e0 46 1f 3f
       -0.24208413 0.40760696 -0.17033295 0.6221752
000200 50 03 e5 bd a6 a2 25 3c c4 aa 6f 3e 40 4e 79 be
       -0.111822724 0.010109579 0.23404986 -0.24346256
000210 6e 39 6c be 27 aa cd be 7d fc 0b bf c2 3c bf bd
       -0.23068783 -0.40168878 -0.5468214 -0.093377605

model.linear_input.bias f4 [8]
000000 09 6c 34 3e d7 c7 bd be 1d 67 af 3e 52 83 d3 3e
       0.17619337 -0.37066528 0.34258357 0.41311127
000010 43 5d 00 3e b0 80 90 be 84 3a c3 be 97 6f 95 be
       0.12535577 -0.2822318 -0.3813058 -0.291867

model.linear_1.weight f4 [8, 8]
000000 ca 72 84 3e 40 3c 99 3e e8 ea 25 3e f4 db ac be
       0.25868827 0.2992878 0.16202891 -0.3376156
000010 5e 92 73 bd 83 88 b8 3e 2d ee 07 bf 5b c5 08 3f
       -0.05946576 0.3604165 -0.530978 0.5342614
000020 3b b8 19 3d f2 0c 08 bf bf a6 e2 3c 20 88 c8 3e
       0.03752921 -0.5314475 0.027667401 0.39166355
000030 2b f9 28 be c2 e3 09 3f 67 15 48 3e 38 54 9c be
       -0.165013 0.53863156 0.19539414 -0.30533004
000040 6d 03 da bd f3 08 87 3d 25 39 0c 3e 7a 89 41 be
       -0.10645185 0.06593504 0.13693674 -0.189001
000050 4f 38 7c be b1 1e f8 3e 5a b0 0f bf ce 5e f0 3e
       -0.24630855 0.48460916 -0.56128466 0.4694733
000060 65 02 1c 3d d9 8b fc 3e 32 ce a2 bc 25 06 7e 3e
       0.03808822 0.49325445 -0.019873712 0.24807031
000070 52 5b 28 be 17 05 00 3f ea fa 5e 3e fe 2a 9f bc
       -0.16441086 0.50007766 0.21775404 -0.01942968
000080 fd a5 87 be bd a5 91 3e de 45 09 bc 41 32 e2 3e
       -0.26493827 0.2844676 -0.008378474 0.44178966
000090 a9 4e aa be a4 e1 03 bf 09 61 83 3e d6 16 37 3e
       -0.33263138 -0.51516175 0.2565997 0.17879805
0000a0 30 aa dc be fc 6f 93 3e d9 45 d9 be 5c 0c fa bd
       -0.43098593 0.28796375 -0.42436102 -0.122093886
0000b0 3d 06 6b 3e 81 1b 84 3e 18 34 b5 bc fe 8e 50 3e
       0.22951598 0.25802234 -0.022119567 0.20367047
0000c0 2e 4b 45 3e ac c7 16 3d eb e5 ef be 78 13 5f bc
       0.1926696 0.036811516 -0.468551 -0.013615482
0000d0 c9 4f b4 3e c0 a1 9b be 6b 2b 9a be e5 cc b7 be
       0.3521712 -0.30396843 -0.3011125 -0.3589851
0000e0 96 53 49 3e a5 ae 28 3f f3 3b d5 be 06 8f dc be
       0.19660792 0.65891486 -0.416473 -0.43077868
0000f0 af 8d 4f be c4 b0 a4 be 28 a6 22 3e d6 0e 36 be
       -0.20268892 -0.3216611 0.15883696 -0.17779097

model.linear_1.bias f4 [8]
000000 fa 57 5b be b1 4a 13 3d 2a 17 ea 3e 03 97 3e be
       -0.21420279 0.035959903 0.45720798 -0.18612294
000010 5f b8 bf 3e 6e 15 ef be 94 3d f6 ba 5a 0d ae bd
       0.3744535 -0.46696037 -0.0018786662 -0.0849864

model.linear_2.weight f4 [8, 8]
000000 c1 9e 59 3e de ee 16 be 9e 20 e6 3e 1e 4e eb 3e
       0.21251966 -0.14739558 0.4494676 0.45958036
000010 bc 9b 0f 3f 81 dc c2 3e d5 c5 88 3e 6a f7 0d bf
       0.56097007 0.38058856 0.26713434 -0.5545565
000020 dd 23 cd be c6 c7 a7 bd f6 88 cf be 06 ab f0 be
       -0.40066424 -0.08192401 -0.4053418 -0.4700548
000030 6e 90 ad 3e 0c 38 d3 3e b2 ab 90 3d dc fa a5 be
       0.33899254 0.41253698 0.07063998 -0.32417953
000040 00 3c 1f 3f e4 8f 02 3f 68 9c 3c bf 76 19 10 bf
       0.6220093 0.5100081 -0.73676157 -0.5628885
000050 32 7e 3a bd e6 ff b2 3e 4e a9 16 bf 26 47 28 3f
       -0.045530505 0.3496086 -0.5885209 0.65733564
000060 1c 2e 64 be 0c 9f a0 3e 60 d4 8d bc 7c 17 60 be
       -0.22283214 0.31371343 -0.017313182 -0.21883959
000070 40 59 c7 bc a4 5a 06 be 08 d5 65 be d0 c6 1f bd
       -0.02433455 -0.13120514 -0.22444546 -0.03900796
000080 e4 17 b5 be e0 f0 7e be c4 06 55 be 68 cb ae be
       -0.3536979 -0.24896574 -0.20803362 -0.34139562
000090 d2 9e cb be 32 2a af be 00 ca 1b 3c 1e 08 80 be
       -0.39769608 -0.3421188 0.00950861 -0.25006193
0000a0 1f 54 a6 3d 2e 02 d3 be ce 0b 21 be be 41 d3 be
       0.081215136 -0.412126 -0.1572716 -0.41261095
0000b0 5f 55 f8 3e be c1 e6 3e 0b 31 11 3e 44 54 91 3e
       0.48502633 0.4506969 0.14178865 0.28384602
0000c0 f8 d3 e9 3d 2c 70 89 be 34 51 ee be fa bd 89 3e
       0.11417383 -0.26843393 -0.46546328 0.26902753
0000d0 18 3b 89 bd ec e1 f9 3e a0 cf c5 3c 80 cd 74 bc
       -0.06700724 0.48805177 0.024146855 -0.014941573
0000e0 47 41 47 3e 8b e1 9f 3d d4 52 64 be c9 5c a4 be
       0.19458495 0.07806691 -0.22297221 -0.3210204
0000f0 69 60 16 bf e4 81 9a 3e f1 81 0e 3e fc 2c a4 be
       -0.5874086 0.30177224 0.13916756 -0.3206557

model.linear_2.bias f4 [8]
000000 33 e8 49 3e b1 f8 32 be 3a 6b 8b 3e b2 bc ea be
       0.19717483 -0.1747768 0.27230245 -0.45847088
000010 b2 6b fe be 6b 11 c4 be 0c 74 e7 be d2 b4 a6 3e
       -0.4969154 -0.3829454 -0.45205724 0.3255983

model.layer_output.weight f4 [1, 8]
000000 01 2c 28 3f 56 1e 01 bf 31 8a a1 bf d2 d9 9c 3e
       0.65692145 -0.50436914 -1.2620298 0.30634934
000010 70 1a ae bd e2 29 e2 3e e4 23 70 be 50 0b 5a be
       -0.08501136 0.4417258 -0.23451191 -0.21293378

momentum_buffer f4 [8, 17]
000000 5c 35 7f 3a 66 12 27 ba 61 a1 4d 3a e3 c0 dc b9
       0.0009735429 -0.0006373286 0.0007844177 -0.00042105382
000010 6a fa f2 3a 10 a0 a3 b9 83 d5 30 3a ae dd e9 39
       0.0018537764 -0.0003120904 0.0006745683 0.00044606387
000020 81 4a 30 39 5a 94 2d 3a bc 3a 98 39 58 93 82 3a
       0.00016812423 0.00066215324 0.0002903546 0.0009962125
000030 2a 2f 5a ba c8 59 ec b7 cf 17 81 3a de d1 2f b8
       -0.0008323068 -2.81752e-05 0.0009849014 -4.1918705e-05
000040 b9 60 98 3a 7c 76 aa 3b 88 65 b9 ba 3c e4 51 3a
       0.0011625505 0.0052021127 -0.0014144639 0.0008006727
000050 b4 b2 a1 3a e8 2a 2e 3b 14 bc 36 3a 52 88 52 3b
       0.0012336583 0.0026575867 0.0006970775 0.003212471
000060 e8 55 b4 3a 52 5a ed 3a 20 f0 cd 39 19 48 1c 3b
       0.0013758512 0.0018108583 0.00039279554 0.0023846684
000070 f8 a6 ac ba 32 92 0b 3b cd f8 57 3b 10 de fb 39
       -0.0013172319 0.0021296856 0.0032954693 0.000480399
000080 6b 9b 79 3b 75 5f 4c 3a 50 75 3a bb f7 34 11 3a
       0.003808702 0.00077962066 -0.0028451271 0.00055392034
000090 f4 1b 8d b9 e4 67 0f ba d0 9e c6 ba c2 88 02 ba
       -0.00026914442 -0.0005470498 -0.0015153531 -0.0004979485
0000a0 2e 1f 14 bb 21 63 9d b9 fa d0 f2 ba 24 9b 21 38
       -0.0022601592 -0.0003001923 -0.0018525415 3.8529877e-05
0000b0 00 a6 43 ba dc d1 0f 3a 75 ce 93 ba ca 48 ae ba
       -0.00074633956 0.00054862886 -0.0011276739 -0.0013296839
0000c0 a6 d1 2a ba dd e4 fc ba 8d 64 25 ba 1d 8e 4d bb
       -0.00065162254 -0.0019294281 -0.0006309234 -0.0031365224
0000d0 40 a7 48 b8 8d 45 a1 ba b4 65 61 ba 8a 14 5e bb
       -4.783948e-05 -0.0012304053 -0.0008598224 -0.0033886754
0000e0 a5 58 2e b9 3e 61 33 bb 86 e4 db ba 3f 22 0c bb
       -0.00016626956 -0.0027371193 -0.0016776479 -0.0021382717
0000f0 14 b7 dd ba e2 56 19 ba 5a 82 48 ba 5c 3e 74 ba
       -0.0016915523 -0.00058494334 -0.00076488184 -0.00093171536
000100 d8 ff 48 ba b9 c6 ff ba 43 18 13 bb 3e 3b 0e bb
       -0.0007667518 -0.001951418 -0.002244488 -0.0021702792
000110 01 84 4e 3a 89 68 fd 39 79 04 61 39 de 10 64 ba
       0.00078779465 0.00048333805 0.00021459338 -0.0008700023
000120 22 07 f1 3a f9 7b 07 3a f0 55 8f 3a 07 9b cd 39
       0.0018388967 0.00051683147 0.0010935646 0.0003921615
000130 c3 ef b3 3a cc 9b 82 b9 86 cf bd 39 70 5c 03 3a
       0.0013728071 -0.0002491161 0.00036203506 0.00050110277
000140 cc ac 06 39 6e de a4 39 89 02 0e 3a 5e cc 5f 39
       0.00012843608 0.0003144624 0.0005417248 0.0002134307
000150 26 c3 a6 3a 2e 36 cc 3a 7c 7b a1 ba a2 43 44 b9
       0.0012722954 0.0015580112 -0.0012320126 -0.00018717212
000160 9c ad c7 3a de 86 92 ba 03 d2 8b b9 57 1e 6c ba
       0.0015234235 -0.001117911 -0.00026668617 -0.00090072065
000170 68 41 88 3a b8 26 fa ba 63 b5 7a 3a 45 fe 8e 3a
       0.0010395469 -0.0019085025 0.0009563772 0.0010909518
000180 68 88 e1 39 80 49 a4 ba 5d 2d 66 ba 56 30 f1 3a
       0.00043016975 -0.0012534112 -0.00087805634 0.0018401246
000190 68 23 2c 38 55 12 cd 38 e0 1d c7 bb 5a 0f 50 ba
       4.104097e-05 9.778576e-05 -0.0060765594 -0.0007936858
0001a0 66 55 6e 3a 2d a8 25 bb 61 44 ca ba c6 bf f7 ba
       0.0009091705 -0.0025277243 -0.0015431755 -0.0018901757
0001b0 f1 4b 15 bb 50 5e 71 bb 31 02 36 bb ae 20 71 ba
       -0.002278086 -0.0036829896 -0.0027772302 -0.000919829
0001c0 de 5f 14 bb 43 e4 d4 3a 2e b3 65 bb 0d 7c 20 bb
       -0.002264015 0.0016242344 -0.0035049426 -0.0024488003
0001d0 50 da d5 ba 8c 7f 90 bb 54 56 cb ba 55 9e cd 3a
       -0.0016315673 -0.004409736 -0.0015513399 0.0015687445
0001e0 fe c1 25 3a 63 ca 3d ba 41 bf a1 3a 78 60 5d b9
       0.00063231576 -0.0007239936 0.0012340323 -0.0002111214
0001f0 cf 1b ee 39 30 19 94 b7 88 ea c3 3a b4 5f 38 39
       0.00045415616 -1.7654704e-05 0.0014947215 0.0001758326
000200 a9 4d 0b 3a b5 ce 49 3a a1 ef ce ba 66 d8 09 3b
       0.00053140015 0.0007698343 -0.0015787968 0.0021033525
000210 0e 0f 9a 3a 93 b0 69 b9 fa 01 d5 3a a4 3e 1b b9
       0.0011753754 -0.0002228639 0.0016251199 -0.00014805287

momentum_buffer f4 [8]
000000 2b e2 92 3a a3 59 96 3b 90 cb 27 bb c2 a9 90 bb
       0.0011206319 0.0045883222 -0.002560351 -0.004414768
000010 b1 bc c2 3a e6 91 11 39 21 55 c3 bb 1d 9a c1 3a
       0.001485726 0.00013882629 -0.005961076 0.0014770661

momentum_buffer f4 [8, 8]
000000 0b a5 7d ba c0 de f4 3a 96 87 09 3a e0 d7 d0 b7
       -0.00096757774 0.0018682107 0.0005246339 -2.4896057e-05
000010 50 e9 9a ba a2 ba 53 ba 56 f7 d6 3a 1f 10 03 39
       -0.00118188 -0.00080768217 0.0016400616 0.00012499139
000020 de 93 89 bb 8e 0c a1 3b 29 be 81 3b 68 b1 a5 bb
       -0.0041985353 0.0049148267 0.0039594364 -0.005056549
000030 fb 57 82 bb 77 9e 89 bb 04 c6 3d 3b 68 78 b7 3b
       -0.0039777732 -0.0041997987 0.0028957138 0.0055990703
000040 df 25 bf 3b d6 f6 40 bc ef d1 4a bb 6e bc 9d 3b
       0.005833372 -0.0117776 -0.0030947884 0.0048137223
000050 c4 b4 e3 3b d8 71 84 3b 7f 75 c0 bb a1 91 2c bc
       0.006949039 0.0040418915 -0.0058733816 -0.0105327675
000060 04 d0 11 3a 75 cb 91 bb 89 6f 33 bb 00 ad 06 3a
       0.0005562308 -0.004449303 -0.0027379713 0.00051374733
000070 78 69 a0 37 5c 0a 37 3b f9 06 15 bb 99 c3 65 bb
       1.9122599e-05 0.0027929759 -0.0022739752 -0.0035059212
000080 a7 30 02 ba a2 db 8a ba de 15 5c 3a 0b f1 77 3a
       -0.0004966356 -0.001059402 0.00083955924 0.00094582204
000090 ca a1 32 39 7e 39 2a 3b b0 e8 80 b8 11 db 2c 3a
       0.00017035674 0.002597421 -6.146857e-05 0.0006593923
0000a0 29 9b 01 39 1a ff 29 b9 d9 cd 54 3a 2e df f6 38
       0.000123602 -0.00016212129 0.0008117832 0.000117717645
0000b0 da cb 6e 38 00 09 fc 39 c8 cd fd 38 91 33 e6 38
       5.6933473e-05 0.0004807189 0.0001210231 0.000109768596
0000c0 14 d5 83 3b b5 22 0f bc cf 34 4e bb 45 96 b2 3b
       0.0040232036 -0.008736302 -0.0031464582 0.0054500424
0000d0 26 2d 92 3b 58 41 ba 3b 0c 36 82 bb 9f cd ec bb
       0.0044609485 0.005684059 -0.003973728 -0.0072266604
0000e0 88 29 9b 3a 00 70 7b 38 58 3b 35 b8 50 94 a4 ba
       0.0011837939 5.994737e-05 -4.320903e-05 -0.0012556408
0000f0 80 a7 09 b8 06 48 84 ba 0e ab 8f ba 08 70 bc 37
       -3.2819342e-05 -0.0010092265 -0.0010961012 2.2463515e-05

momentum_buffer f4 [8]
000000 d6 f7 66 ba 60 e4 b7 bb 05 fc d7 3b 9b 95 0f 3b
       -0.0008810734 -0.005611941 0.0065913224 0.002190924
000010 ce ec 29 bb 8e 52 2c b9 c4 fc b0 3b 24 0d cb 3a
       -0.00259285 -0.00016433952 0.0054012258 0.0015491587

momentum_buffer f4 [8, 8]
000000 07 23 82 ba 4b 6c ad 3b 7a 20 93 39 85 c4 f3 ba
       -0.0009928652 0.0052924505 0.00028062222 -0.0018597996
000010 a8 5b 1a bb 3a 97 5d b9 4e 71 9c 3b b8 93 13 ba
       -0.0023553167 -0.00021132539 0.004774249 -0.0005629617
000020 04 00 00 00 20 3a 7c 39 04 00 00 00 47 fa 10 39
       6e-45 0.00024054246 6e-45 0.00013826146
000030 33 eb 58 ba 3b 67 30 38 57 07 ba b7 7d 23 02 39
       -0.00082747935 4.205781e-05 -2.2176346e-05 0.00012410987
000040 7c e4 b2 b9 04 84 4a bc 6b a2 ba 3a 31 cb fe 39
       -0.0003412104 -0.012360577 0.0014239078 0.00048598045
000050 a0 11 bd 3a 2d 55 8a b9 8c ac 05 bc 91 d4 b5 3a
       0.0014424808 -0.00026384872 -0.008158814 0.0013872554
000060 00 00 00 00 00 00 00 00 00 00 00 00 00 00 00 00
       0.0 0.0 0.0 0.0
000070 00 00 00 00 00 00 00 00 00 00 00 00 00 00 00 00
       0.0 0.0 0.0 0.0
000080 00 00 00 00 00 00 00 00 00 00 00 00 00 00 00 00
       0.0 0.0 0.0 0.0
000090 00 00 00 00 00 00 00 00 00 00 00 00 00 00 00 00
       0.0 0.0 0.0 0.0
0000a0 80 4d 02 38 3a 8c 70 3a 5a 47 54 39 45 23 f6 b8
       3.1066593e-05 0.0009176169 0.00020244476 -0.000117367636
0000b0 78 4f 98 38 be 96 3d b9 3e 14 c1 ba 06 76 25 bb
       7.262727e-05 -0.000180806 -0.0014730764 -0.002524735
0000c0 00 00 00 00 00 00 00 00 00 00 00 00 00 00 00 00
       0.0 0.0 0.0 0.0
0000d0 00 00 00 00 00 00 00 00 00 00 00 00 00 00 00 00
       0.0 0.0 0.0 0.0
0000e0 81 8a 11 b8 62 07 db ba dd b7 7a b9 7b 5c 4e 3a
       -3.4699686e-05 -0.0016710574 -0.00023910352 0.0007872057
0000f0 5c 79 26 3a cd b3 2d 38 c3 97 4f bb 44 35 a1 ba
       0.00063504814 4.1413867e-05 -0.003167615 -0.00122992

momentum_buffer f4 [8]
000000 71 d9 7a 3b 78 8a 17 39 26 dd 00 bc 00 00 00 00
       0.0038276578 0.00014452066 -0.007865226 0.0
000010 00 00 00 00 c4 e7 56 b9 00 00 00 00 f8 d0 10 bb
       0.0 -0.0002049497 0.0 -0.0022097211

momentum_buffer f4 [1, 8]
000000 70 d5 3d ba 0a 6d 56 3a ca 7f 5e 3b 00 00 00 00
       -0.00072415825 0.00081797 0.003395068 0.0
000010 00 00 00 00 bb c2 38 bb 00 00 00 00 16 cd e4 3b
       0.0 -0.002819224 0.0 0.006982456
