src/logs/lightning_logs/version_18/checkpoints/epoch=499-step=2000.ckpt (torch, 8699 bytes, 11 tensors)

model.linear_input.weight f4 [8, 17]
0	0xbd038022	-0.03210462
1	0xbdc0c341	-0.09412242
2	0xbf71a3f9	-0.9439083
3	0xbd17a915	-0.037026484
4	0xbe5ab36b	-0.21357505
5	0x3d42a606	0.047521614
6	0x3e171590	0.14754319
7	0xbefa28ba	-0.48859197
8	0xbf16b12a	-0.5886408
9	0xbde28d45	-0.11062101
10	0x3ec4537f	0.38344952
11	0xbe736fb4	-0.2377308
12	0xbebcce22	-0.36876017
13	0xbb95b55a	-0.004568738
14	0x3e9e82aa	0.30959064
15	0x3eb5fd6a	0.35544902
16	0xbef83aa9	-0.48482254
17	0x3f7f13df	0.99639696
18	0xbf9eac4d	-1.2396332
19	0xbe59ee13	-0.21282224
20	0x3f4cbb3f	0.79973215
21	0xbf574fd3	-0.8410618
22	0x3e2a3555	0.16621907
23	0xbe19f71e	-0.15035674
24	0xbe84c17f	-0.25928876
25	0xbd5b35f1	-0.05351824
26	0xbe99dbd5	-0.3005053
27	0x3cc4d15a	0.024025608
28	0x3f57bed3	0.8427555
29	0xbf1a0711	-0.6016703
30	0xbe9da9ef	-0.30793712
31	0xbf19f48a	-0.6013876
32	0x3d8f2e35	0.06991235
33	0xbece7812	-0.4032598
34	0x3f5b3f5a	0.8564354
35	0xbed4007f	-0.41406628
36	0xbea4f9d2	-0.32221848
37	0x3d99e335	0.075140394
38	0xbe13ded0	-0.14440465
39	0xbcbf756c	-0.02337142
40	0x3e5749b8	0.21024215
41	0x3edc26c0	0.42998314
42	0x3ef5ca65	0.48005977
43	0x3ea50b64	0.32235253
44	0x3e6443c9	0.22291483
45	0xbeb0e4ce	-0.34549564
46	0x3e5d2fa3	0.21600203
47	0x3e22e661	0.15908195
48	0x3f03fc70	0.51557064
49	0x3befcdaa	0.0073182182
50	0xbd8a86d6	-0.06763999
51	0x3f23bd30	0.6396055
52	0xbe90450e	-0.28177685
53	0x3dda3202	0.106540695
54	0x3f40ba1d	0.75283986
55	0xbf24877d	-0.6426924
56	0x3e017917	0.12643848
57	0x3eaeaee9	0.3411782
58	0x3e0f79a1	0.14011241
59	0x3e157d97	0.1459869
60	0x3e103c76	0.14085564
61	0x3ec06d55	0.37583414
62	0xbf8767f5	-1.05786
63	0x3f22d0b9	0.63599735
64	0x3f474033	0.77832335
65	0x3ee180f4	0.44043696
66	0xbeaaf42b	-0.3338941
67	0xbe9e06df	-0.30864617
68	0x3caa0379	0.020753609
69	0xbc6a6074	-0.014305223
70	0x3e8bab3e	0.27279085
71	0xbed2ffdd	-0.41210833
72	0x3dbd9df9	0.092586465
73	0x3f965568	1.1744814
74	0xbdc7be4e	-0.097530946
75	0xbcfe5546	-0.03104652
76	0xbe3f4cf6	-0.18681702
77	0x3ed5fe91	0.4179578
78	0xbded47b8	-0.11585945
79	0x3d55e9d0	0.052224934
80	0x3ebf4851	0.3735986
81	0xbe005a32	-0.12534407
82	0x3f25a6c1	0.6470757
83	0x3f11f389	0.5701223
84	0xbedeead0	-0.43538523
85	0xbf3058af	-0.6888532
86	0xbf7b74cc	-0.9822509
87	0x3fc6d484	1.5533605
88	0x3d8332c5	0.06406168
89	0xbf2e7252	-0.6814319
90	0x3f9e5cc9	1.2372066
91	0x3e1ced07	0.15324794
92	0xbe2924e4	-0.16517979
93	0x3db3a1a2	0.087710634
94	0xbdeafaf9	-0.114736505
95	0x3e804ea2	0.25059992
96	0xbdb0137e	-0.08597468
97	0xbe3813a5	-0.17976244
98	0x3d800bc7	0.06252246
99	0x3dae5690	0.08512604
100	0xbef33e43	-0.4750844
101	0x3cefe03b	0.029281726
102	0xbf2184ac	-0.63093066
103	0x3e13fe22	0.14452413
104	0xbe9daa4a	-0.30793983
105	0xbf672f58	-0.90306616
106	0x3eb22f97	0.34801933
107	0x3f8bb965	1.0915953
108	0x3e1e76c6	0.15474996
109	0xbcf5e2a6	-0.030015301
110	0xbe084bf8	-0.1331023
111	0xbe0e6781	-0.13906671
112	0x3e50144d	0.20320244
113	0xbf011172	-0.50417244
114	0x3e259b0d	0.16172428
115	0x3f1e2d9a	0.6178833
116	0xbe87aa5a	-0.26497155
117	0xbea6ac64	-0.325534
118	0xbe972944	-0.2952367
119	0x3da7de6d	0.08196721
120	0xbf11b15a	-0.5691124
121	0xbe6acb8f	-0.22929214
122	0x3e34cd98	0.17656553
123	0xbf203054	-0.6257374
124	0x3ee997a6	0.4562351
125	0xbdb4cf9b	-0.0882866
126	0x3e97da48	0.29658723
127	0xbecec239	-0.40382555
128	0x3ddf7266	0.10910492
129	0xbd80652d	-0.06269298
130	0x3e995e8b	0.29954943
131	0x3eb5cd23	0.3550807
132	0x3e3fd47b	0.18733399
133	0x3d6c71f9	0.05772588
134	0x3ecccf74	0.40002024
135	0x3e3e0fee	0.18560764

model.linear_input.bias f4 [8]
0	0x3e4bba45	0.19895275
1	0xbe9556d1	-0.29167798
2	0x3ead7f00	0.33885956
3	0xbdb81de9	-0.0899008
4	0xbe7ecfb7	-0.24883924
5	0xbe7b688f	-0.24551605
6	0xbd25516a	-0.040360846
7	0x3dcc8211	0.09985746

model.linear_1.weight f4 [8, 8]
0	0x3e61ee50	0.22063565
1	0xbf7676ab	-0.9627482
2	0xbf698af7	-0.9122767
3	0xbfbd7405	-1.4801031
4	0xbd2c343e	-0.04204201
5	0xbf97e1ae	-1.1865747
6	0x3f291b38	0.6605716
7	0xbf31a271	-0.6938849
8	0xbe3fb66c	-0.18721932
9	0xbf3500c7	-0.7070431
10	0x3eae397c	0.34028232
11	0x3e627a55	0.22116978
12	0x3ebe374c	0.37151563
13	0x3e2ca01c	0.16857952
14	0x3e8e618e	0.27808803
15	0x3d2fdbdb	0.04293428
16	0xbf064d36	-0.52461565
17	0xbf8ad0ea	-1.0845006
18	0x3e01f1a4	0.12689835
19	0x3ead6038	0.33862472
20	0x3e13efef	0.14446996
21	0x3dab460e	0.08362971
22	0xbcb815d9	-0.022471355
23	0xbebbe382	-0.36697012
24	0x3f42cf83	0.7609789
25	0xbdf1ed59	-0.118128486
26	0x3ee9c2b4	0.4565636
27	0x3f02bde8	0.51071024
28	0x3f3a3df3	0.72750777
29	0xbf1527a5	-0.5826362
30	0x3f776be2	0.9664899
31	0x3ebdbc38	0.37057662
32	0x3ebb74ae	0.36612457
33	0xbece4b97	-0.40292045
34	0xbe4b8873	-0.1987627
35	0x3e4bd393	0.19904928
36	0x3cbbda9c	0.02293139
37	0x3f7affb9	0.9804645
38	0x3f47f5b0	0.78109264
39	0xbecc4dd4	-0.39903128
40	0xbf01740e	-0.5056771
41	0x3f19006c	0.5976627
42	0xbecd3855	-0.4008204
43	0xbf785993	-0.9701168
44	0x3f6d0eaa	0.926005
45	0x3fc42852	1.5324805
46	0x3e9cf81e	0.30658048
47	0x3eda81e6	0.4267723
48	0x3e0a9d2d	0.1353652
49	0xbe11ba2e	-0.14231178
50	0xbe930a0a	-0.28718597
51	0xbe5a35f3	-0.21309642
52	0x3eb49791	0.35271886
53	0xbedb54d0	-0.42838144
54	0xbf058d6c	-0.5216892
55	0x3effa7a6	0.49932593
56	0x3d81ed91	0.0634414
57	0x3fbc8775	1.4728838
58	0x3ec95d7d	0.39329138
59	0x3e017e51	0.12645842
60	0xbe6980ee	-0.22803089
61	0xbeb4fd84	-0.35349667
62	0xbf25f944	-0.64833474
63	0x3ee389d5	0.44441095

model.linear_1.bias f4 [8]
0	0x3dcba144	0.09942868
1	0x3ece483e	0.4028949
2	0x3f2362fa	0.638229
3	0x3ddc5981	0.10759259
4	0x3df5307c	0.11972138
5	0x3e350bde	0.17680308
6	0x3ed97bc3	0.42477235
7	0x3eb55b34	0.35421145

model.layer_output.weight f4 [1, 8]
0	0x401159fe	2.2711177
1	0xbf4247cf	-0.7589082
2	0xbf96c13f	-1.1777724
3	0xbfbaaad2	-1.458338
4	0x3f87b499	1.0601989
5	0x400a67a3	2.1625755
6	0x3efca1ab	0.49342093
7	0x3fd0a82e	1.6301324

best_score f8 []
0	0x3f2685049492d400	0.00017181092178977786

momentum_buffer f4 [8, 17]
0	0xb880e9b5	-6.147047e-05
1	0xb7deb355	-2.654797e-05
2	0x39115a2b	0.00013861868
3	0x378f25bc	1.70645e-05
4	0xb7101fb6	-8.590452e-06
5	0x3830b0a0	4.2126165e-05
6	0x3731522d	1.0569155e-05
7	0x3827e708	4.0031067e-05
8	0xb6c3f3d8	-5.83984e-06
9	0x3729e4cc	1.0126456e-05
10	0x384240dd	4.6313613e-05
11	0xb7e7ce12	-2.7633305e-05
12	0x381237cc	3.4861077e-05
13	0x37f9bcbc	2.9771e-05
14	0x376431d6	1.3601462e-05
15	0x373b0f43	1.1149622e-05
16	0x382577c4	3.9450606e-05
17	0xb912abc2	-0.0001398763
18	0x390f0ae3	0.00013641598
19	0x3944281d	0.0001870696
20	0xb8f5c5ca	-0.000117193515
21	0x3944c7fa	0.00018766514
22	0x38ed444e	0.000113137634
23	0x38362799	4.342906e-05
24	0x3912fd56	0.0001401802
25	0x390784f1	0.00012924128
26	0xb87ab58c	-5.9773723e-05
27	0x38ef5f5b	0.000114141694
28	0xb831c695	-4.2385032e-05
29	0x38a3b066	7.8053024e-05
30	0x38d54934	0.000101702666
31	0x3841f050	4.6238594e-05
32	0x38c4f42a	9.3914874e-05
33	0x38bc1a4a	8.969435e-05
34	0xb8da8a2b	-0.00010420786
35	0x387ce973	6.02989e-05
36	0xb7b6fc68	-2.1813627e-05
37	0xb921423a	-0.00015378828
38	0x3816d2e8	3.595921e-05
39	0x385a8cee	5.21065e-05
40	0xb8679a36	-5.5218312e-05
41	0xb7303b78	-1.0504264e-05
42	0x37eaaaaa	2.7974445e-05
43	0xb88d39cd	-6.73417e-05
44	0xb7dd15a0	-2.6355323e-05
45	0x38743ada	5.8228943e-05
46	0xb829e032	-4.0501538e-05
47	0xb82fb514	-4.1891893e-05
48	0xb82e4eaa	-4.1558094e-05
49	0xb70b801c	-8.314873e-06
50	0xb870c90e	-5.7407706e-05
51	0xb9109e8d	-0.00013791975
52	0x38cfb825	9.904829e-05
53	0xb8da4de8	-0.00010409561
54	0xb95891ad	-0.00020653634
55	0x3718a4f0	9.0983085e-06
56	0x386477cb	5.4471002e-05
57	0xb8afec56	-8.388671e-05
58	0xb877cd07	-5.9080336e-05
59	0x37386820	1.0991498e-05
60	0xb8cb6012	-9.697689e-05
61	0xb86eff93	-5.6981644e-05
62	0x38e4eeaf	0.000109163455
63	0xb8c2da38	-9.291287e-05
64	0xb87fe73b	-6.1012088e-05
65	0xb8cdf3af	-9.820551e-05
66	0xb84bdbe6	-4.8603768e-05
67	0xb8c5e4e6	-9.436328e-05
68	0x3826674d	3.967369e-05
69	0xb7ff63e8	-3.0444891e-05
70	0xb849d512	-4.812057e-05
71	0x3896ea50	7.1962015e-05
72	0x38675284	5.515154e-05
73	0xb92e11b6	-0.00016600531
74	0x37453180	1.175364e-05
75	0xb8546c17	-5.0645405e-05
76	0xb8624084	-5.3942684e-05
77	0x3801a7e2	3.091235e-05
78	0xb7850e3c	-1.5861464e-05
79	0x36c1a80a	5.7714105e-06
80	0x374eb042	1.2319595e-05
81	0xb88b82c6	-6.652395e-05
82	0x372012fb	9.541162e-06
83	0xb7e3c9f0	-2.7154543e-05
84	0xb744eb00	-1.1737226e-05
85	0x38f507b1	0.00011683943
86	0x38caee48	9.676494e-05
87	0xb98f9073	-0.00027382709
88	0x38a32178	7.77868e-05
89	0x39143120	0.0001413268
90	0xb99273e7	-0.00027933644
91	0x37f81f18	2.9578383e-05
92	0xb8bc539c	-8.980112e-05
93	0xb7f8d24e	-2.9661835e-05
94	0x3606ab10	2.0067127e-06
95	0xb808993c	-3.2567637e-05
96	0x3891812e	6.9382004e-05
97	0xb80bfeeb	-3.3377593e-05
98	0xb84f4fdc	-4.942702e-05
99	0xb8444b43	-4.6800134e-05
100	0xb882c44a	-6.235445e-05
101	0x360f0e88	2.1317119e-06
102	0x38a539b5	7.878562e-05
103	0xb8d63264	-0.00010213701
104	0x3730fc70	1.0549193e-05
105	0x392bac32	0.00016371979
106	0xb720f7d2	-9.594443e-06
107	0xb92f0946	-0.00016692755
108	0x374fe6d7	1.2391908e-05
109	0xb7d357ee	-2.5194106e-05
110	0xb8a0c78b	-7.666562e-05
111	0x38928c8a	6.988e-05
112	0xb6c9e1ff	-6.016576e-06
113	0xb70fba49	-8.566837e-06
114	0x37fd9ea1	3.0233818e-05
115	0xb8564421	-5.1085026e-05
116	0x378b623c	1.6615835e-05
117	0xb823be3e	-3.9039405e-05
118	0x37dc17f4	2.6237198e-05
119	0xb8a45004	-7.8350335e-05
120	0x388504f3	6.342856e-05
121	0x37df8b10	2.6648428e-05
122	0xb885e460	-6.384472e-05
123	0x38ace2a6	8.243816e-05
124	0xb6e66932	-6.8667805e-06
125	0x3698e387	4.5564407e-06
126	0x36f097a2	7.1702098e-06
127	0x37b6bb6d	2.1783368e-05
128	0xb7f90326	-2.968458e-05
129	0x37a4a67f	1.9627854e-05
130	0x3691c5a0	4.3443433e-06
131	0x3734e5bf	1.0782328e-05
132	0xb6574a78	-3.2080843e-06
133	0xb44e17e0	-1.9193931e-07
134	0x3744f2a2	1.1739003e-05
135	0xb2546000	-1.2361852e-08

momentum_buffer f4 [8]
0	0x38543b95	5.060023e-05
1	0x3940873b	0.00018360924
2	0xb889d48b	-6.572258e-05
3	0xb915e96b	-0.00014296702
4	0xb8231fbc	-3.8891783e-05
5	0xb87c97b3	-6.0222763e-05
6	0xb756c8fe	-1.2802191e-05
7	0x3744bd8d	1.1726644e-05

momentum_buffer f4 [8, 8]
0	0xb88d2e41	-6.7320194e-05
1	0x38771186	5.890571e-05
2	0x393d038b	0.00018025764
3	0x39970a59	0.00028808674
4	0x3898e30c	7.2902156e-05
5	0x397bd2dc	0.00024015777
6	0xb8ddc740	-0.000105752144
7	0x39066ff9	0.00012820949
8	0x3884c153	6.33026e-05
9	0x38ea81f4	0.00011182195
10	0xb7c3dadc	-2.3347726e-05
11	0xb896d26c	-7.1917515e-05
12	0x37514d7a	1.247541e-05
13	0xb88badbd	-6.660398e-05
14	0xb6065d48	-2.0021853e-06
15	0xb6bcb57e	-5.623965e-06
16	0x38c8e676	9.57967e-05
17	0x39362418	0.00017370319
18	0xb80d7dd2	-3.37342e-05
19	0xb8edf876	-0.0001134732
20	0x37949a42	1.7714807e-05
21	0xb8de51b1	-0.00010601001
22	0xb6b314f0	-5.337053e-06
23	0xb721d8a0	-9.646785e-06
24	0xb8686941	-5.5411136e-05
25	0xb8065b99	-3.2033397e-05
26	0xb8803274	-6.112913e-05
27	0xb82d8e3e	-4.1378888e-05
28	0xb6df9d3a	-6.6642215e-06
29	0x38c885ee	9.5616895e-05
30	0xb857c843	-5.1446503e-05
31	0xb7c0a6e0	-2.296589e-05
32	0x370f369b	8.536178e-06
33	0x3781ad5c	1.5458725e-05
34	0x38661536	5.4856027e-05
35	0x385983d5	5.185961e-05
36	0xb887430e	-6.4497915e-05
37	0xb8ab4c3d	-8.168116e-05
38	0xb87ec463	-6.074122e-05
39	0xb689bae8	-4.104677e-06
40	0x3787fe70	1.6211736e-05
41	0xb755015c	-1.2696106e-05
42	0x38c523e1	9.400375e-05
43	0x38865432	6.4053005e-05
44	0xb91cf380	-0.0001496803
45	0xb99456d8	-0.00028293463
46	0xb959f9cd	-0.0002078779
47	0xb870a44c	-5.7373472e-05
48	0x38109a0d	3.4475746e-05
49	0xb77a9562	-1.4935942e-05
50	0xb774c4ea	-1.4589381e-05
51	0x37acc917	2.0597638e-05
52	0x37b5f7c5	2.1692258e-05
53	0x381e04e8	3.7674705e-05
54	0x38488179	4.7804297e-05
55	0x35bbf2d2	1.4003256e-06
56	0xb91255eb	-0.00013955652
57	0xb9b30879	-0.00034147853
58	0x38419e13	4.6162004e-05
59	0xb70a594c	-8.246232e-06
60	0x3979ad74	0.00023811107
61	0x3996733b	0.00028696083
62	0x3984ec7f	0.00025353205
63	0x35a6f958	1.2440532e-06

momentum_buffer f4 [8]
0	0x388dfc92	6.770449e-05
1	0xb83647de	-4.3459113e-05
2	0xb88965a5	-6.551602e-05
3	0xb7510d6c	-1.2460496e-05
4	0x37c4c14e	2.3455035e-05
5	0x37bf4d3e	2.2804943e-05
6	0xb66a49c8	-3.4911664e-06
7	0x38c89c48	9.565853e-05

momentum_buffer f4 [1, 8]
0	0xb9fe866f	-0.00048546816
1	0x3940fab6	0.00018403944
2	0x39910810	0.00027662562
3	0x39153bfe	0.00014232096
4	0xb8fdab1e	-0.00012095853
5	0xb9bb25e3	-0.00035695647
6	0xb86ababb	-5.5963854e-05
7	0xb9faf3b3	-0.00047865286
