src/logs/lightning_logs/version_16/checkpoints/epoch=499-step=2000.ckpt (torch, 8699 bytes, 11 tensors)

model.linear_input.weight f4 [8, 17]
0	0xbf1e53fd	-0.61846906
1	0xbf658d64	-0.8966887
2	0x3ed32fff	0.41247556
3	0xbef3ad03	-0.47592935
4	0xbf7cd213	-0.9875805
5	0x3ec1c569	0.37845924
6	0xbeaf0725	-0.34185138
7	0x3b0312bf	0.0020000187
8	0xbeaaa342	-0.3332768
9	0xbeb7d432	-0.3590408
10	0xbccf2457	-0.025285883
11	0x3a44d41a	0.0007508412
12	0xbd444e17	-0.047926035
13	0xbd9892a5	-0.07449845
14	0x3e760a7a	0.24027434
15	0xbed0bbce	-0.40768284
16	0xbea411f6	-0.32044953
17	0xbf07ffdb	-0.5312478
18	0x3f3efa2a	0.7460047
19	0xbe035a49	-0.1282741
20	0xbf164d01	-0.5871125
21	0xbd8fc7b9	-0.07020516
22	0x3f70bd57	0.9403891
23	0x3e1743af	0.14771913
24	0x3ec7c949	0.39020756
25	0xbe93c168	-0.28858495
26	0xbec60f42	-0.38683516
27	0xbd99c141	-0.075075634
28	0x3f9532e7	1.1656159
29	0xbec1d77d	-0.37859717
30	0xbf08e0ec	-0.53468204
31	0xbe69b6ba	-0.22823611
32	0xbe0c1016	-0.13678011
33	0xbd7d4bc2	-0.061839826
34	0xbf4925dc	-0.78573394
35	0xbf0dcc75	-0.553901
36	0x3f566048	0.83740664
37	0xbe798b21	-0.2436948
38	0x3f080705	0.5313571
39	0x3ed26035	0.41089025
40	0x3eb9a114	0.36255705
41	0x3bf368f5	0.0074282833
42	0x3e39a6c8	0.18130028
43	0x3e80ffd1	0.25195172
44	0x3e83b772	0.25725895
45	0x3f248f66	0.6428131
46	0xbd40fdb9	-0.04711697
47	0xbf152871	-0.58264834
48	0xbe8402ae	-0.25783294
49	0xbde317f5	-0.11088554
50	0xbe7a4a4f	-0.24442409
51	0x3f5b0b18	0.855638
52	0xbea003eb	-0.3125299
53	0xbedbe43c	-0.42947567
54	0x3f73e3da	0.9526955
55	0xbf7690b3	-0.96314543
56	0x3e0cdcaa	0.13756052
57	0x3e0d4029	0.13794006
58	0x3e724af8	0.23661411
59	0xbdd30d24	-0.10305241
60	0xbd2f51f7	-0.042802777
61	0x3e955655	0.2916743
62	0xbf6c3c48	-0.9227948
63	0x3e443965	0.1916252
64	0xbe1a015f	-0.15039586
65	0x3e605f46	0.21911344
66	0xbebcb763	-0.36858663
67	0xbeda04cd	-0.42581788
68	0xbf4ca040	-0.7993202
69	0xbd2e901c	-0.042617902
70	0x3f06c19f	0.5263919
71	0xbf2f4b86	-0.68474615
72	0x3f3a78d2	0.7284061
73	0x3f563fb6	0.83690965
74	0x3ea86fef	0.328979
75	0x3e7524b7	0.23939787
76	0x3ece307e	0.40271372
77	0x3e5d2f44	0.21600062
78	0x3e95de77	0.2927129
79	0xbf4c6b5b	-0.7985131
80	0x3e9dff78	0.3085897
81	0x3da4a6a6	0.08039598
82	0x3f0fccfc	0.56172156
83	0x3e0b6c00	0.13615417
84	0xbd0f631c	-0.035006627
85	0xbf4f043a	-0.80865824
86	0x3f6c4ff3	0.9230949
87	0x3e25936c	0.16169518
88	0x3db262eb	0.08710273
89	0x3eb79be3	0.3586112
90	0x3ecfb79c	0.4056977
91	0xbe82ffcc	-0.25585783
92	0x3de33e60	0.110958815
93	0xbe8c11f5	-0.2735745
94	0xbdf743be	-0.12073468
95	0x3e3ada90	0.18247437
96	0x3d239535	0.039937217
97	0x3e315e02	0.17321017
98	0x3ef4aa36	0.4778611
99	0x3d9c8612	0.076427594
100	0x3d9ea0d5	0.0774552
101	0x3e6eda73	0.2332552
102	0x3e44075b	0.19143431
103	0x3f9bed87	1.2181863
104	0xbf125fb1	-0.57177263
105	0x3e8854f2	0.26627308
106	0xbea4439a	-0.32082826
107	0x3e9d4c81	0.3072243
108	0xbe793585	-0.24336822
109	0xbeb6481f	-0.356019
110	0x3e09e3a0	0.13465738
111	0x3ee23e01	0.4418793
112	0x3eb07da6	0.34470862
113	0x3e68241b	0.22670023
114	0x3e856177	0.26050922
115	0x3e8ee23b	0.27906975
116	0x3ee92627	0.4553692
117	0x3f00ea69	0.5035768
118	0x3cad76e5	0.021174857
119	0x3e9dc1bd	0.30811873
120	0xbe07ed96	-0.13274226
121	0xbf844bbb	-1.0335611
122	0x3f379b22	0.7172109
123	0x3f64ee38	0.8942599
124	0xbfa2036d	-1.2657295
125	0xbdb5148b	-0.08841809
126	0x3dad6dee	0.08468233
127	0x3ccdfc5c	0.025144748
128	0xbe93e0ec	-0.2888254
129	0x3e02c941	0.12772085
130	0x3e63cc05	0.22245796
131	0xbdfa7281	-0.12228871
132	0xbeab378d	-0.3344082
133	0x3e1a5cce	0.15074465
134	0x3ea6b829	0.32562378
135	0x3e88b219	0.26698378

model.linear_input.bias f4 [8]
0	0xbe44e882	-0.1922932
1	0xbe78bc08	-0.24290478
2	0xbeb22ea8	-0.3480122
3	0xbf015a12	-0.5052806
4	0x3f2ce235	0.67532665
5	0x3f331d1a	0.6996628
6	0x3f065589	0.52474266
7	0x3efc12de	0.49233145

model.linear_1.weight f4 [8, 8]
0	0xbdb9bd21	-0.090692766
1	0x3fb9632a	1.4483387
2	0x3f814a41	1.0100785
3	0xbfdba969	-1.7161075
4	0x3f5d5c9b	0.8646943
5	0x3f2f47d1	0.6846896
6	0xbd9d28a9	-0.07673771
7	0xbee71f01	-0.45140842
8	0xbfa55fcd	-1.2919861
9	0xbe20149f	-0.15632866
10	0xbefd89da	-0.49519235
11	0xbe423eb7	-0.18969236
12	0xbf6ba321	-0.9204579
13	0xbe5655ab	-0.20931117
14	0x3f3437f3	0.7039787
15	0x3fd61627	1.672551
16	0xbf4e6b2c	-0.8063228
17	0xbdd0c728	-0.10194236
18	0xbdc4e1da	-0.0961339
19	0x3df2ed60	0.11861682
20	0x3f71e01a	0.94482577
21	0x3f4432a9	0.766398
22	0x3f1222c7	0.57084316
23	0x3e98cabb	0.2984217
24	0xbe0beb52	-0.13663986
25	0xbf724cea	-0.9464861
26	0x3f264bec	0.649596
27	0xbeba6414	-0.3640448
28	0x3efd38c0	0.4945736
29	0xbea4ce6b	-0.32188734
30	0xbf83d381	-1.0298921
31	0x3f15a535	0.5845521
32	0x3dbe72cf	0.09299242
33	0x3e91cb1a	0.28475267
34	0xbe1389d3	-0.14408045
35	0x3e83f5d0	0.25773478
36	0xbe0db5e5	-0.13838919
37	0x3e9d4e95	0.30724016
38	0xbddf8b72	-0.10915269
39	0x3e97e815	0.29669252
40	0xbf096209	-0.53665215
41	0x3da2f29d	0.07956431
42	0xbf035038	-0.5129428
43	0xbe70c5ea	-0.23512998
44	0x3f198656	0.59970605
45	0x3ee6fbe2	0.45114046
46	0x3e3254b4	0.17415124
47	0xbe23b1f2	-0.1598585
48	0x3ebcb8aa	0.36859637
49	0xbd9bfec4	-0.07616952
50	0x3cfc15c9	0.030772107
51	0xbe0e7642	-0.139123
52	0x3f063dc9	0.52438027
53	0x3efc9a58	0.49336505
54	0xbdf7dd98	-0.121028125
55	0xbe06ee30	-0.13176799
56	0xbc063154	-0.008190472
57	0xbe864580	-0.262249
58	0xbed39599	-0.4132507
59	0xbec6b8bb	-0.38812813
60	0x3f2afa3d	0.66788083
61	0x3f2b2277	0.66849464
62	0x3f0edc30	0.5580473
63	0x3c8a1d27	0.016859604

model.linear_1.bias f4 [8]
0	0x3ecdf991	0.40229467
1	0xbc19a2f1	-0.009377227
2	0x3ed309c6	0.41218394
3	0x3c6cbf5d	0.014449921
4	0x3e25f0d1	0.16205145
5	0x3f2610a4	0.6486914
6	0xbe14a326	-0.14515361
7	0x3f2aee03	0.6676943

model.layer_output.weight f4 [1, 8]
0	0x4024024f	2.562641
1	0x4013f8a1	2.31205
2	0xbfba017a	-1.4531701
3	0xbfd52637	-1.6652287
4	0xbd5248e3	-0.05133904
5	0xbf82077b	-1.0158533
6	0x3eb8ea49	0.36116245
7	0xbf940dde	-1.1566732

best_score f8 []
0	0x3f1aa46893a155a5	0.00010163200650600017

momentum_buffer f4 [8, 17]
0	0x384dcd67	4.9067105e-05
1	0x392a986e	0.00016269248
2	0xb94417e4	-0.00018700917
3	0xb74d5dc5	-1.2240785e-05
4	0x392e8ce8	0.00016646425
5	0xb907c32a	-0.00012947308
6	0xb810dfc0	-3.454066e-05
7	0x3878af4f	5.9291076e-05
8	0xb8326282	-4.253025e-05
9	0xb708b292	-8.147808e-06
10	0x389e2f5b	7.542848e-05
11	0x3843fd7f	4.672771e-05
12	0x36c9c358	6.013008e-06
13	0x37f18158	2.878967e-05
14	0xb86e270b	-5.6779983e-05
15	0x360d44e0	2.1050728e-06
16	0x37bdf67c	2.2645334e-05
17	0x395e7216	0.0002121407
18	0xb95337ec	-0.0002014336
19	0x3883119a	6.249845e-05
20	0x363248e1	2.6566488e-06
21	0x393e1284	0.0001812671
22	0xb8e83162	-0.0001107182
23	0xb50f6780	-5.3422264e-07
24	0x389aa4c0	7.373979e-05
25	0xb8863f0d	-6.401362e-05
26	0x38c4dfa5	9.387665e-05
27	0x3835caac	4.3342516e-05
28	0xb8f8131e	-0.000118291224
29	0x36c03618	5.7283432e-06
30	0x38acbcb7	8.23675e-05
31	0x38d8d8f2	0.00010340092
32	0x380c8717	3.3504413e-05
33	0x382684be	3.970111e-05
34	0xb5aa9ae0	-1.2711062e-06
35	0x3946a259	0.0001894323
36	0xb943b2e0	-0.00018663285
37	0x38e27afc	0.000107994274
38	0xb8e08e66	-0.00010707676
39	0x3523faf0	6.1087394e-07
40	0x3880d24e	6.142688e-05
41	0xb87b3b85	-5.9898495e-05
42	0x3889ecd7	6.576784e-05
43	0xb7a3a1ae	-1.9506402e-05
44	0xb83b9fc2	-4.473306e-05
45	0xb8a7fa05	-8.00975e-05
46	0x3886b99c	6.42419e-05
47	0xb7969c21	-1.7954097e-05
48	0x381437fc	3.533809e-05
49	0xb867c6c6	-5.5259814e-05
50	0x386e2fe1	5.6788213e-05
51	0xb8b2e2f9	-8.5299784e-05
52	0x3840a878	4.5933266e-05
53	0x38561088	5.1036972e-05
54	0xb90370b8	-0.00012535125
55	0x393803a2	0.00017548961
56	0xb8215894	-3.8467886e-05
57	0xb86c6327	-5.6359127e-05
58	0x388eab1f	6.8029614e-05
59	0xb874d8a8	-5.837591e-05
60	0xb74986f0	-1.2011951e-05
61	0x38ac16be	8.205835e-05
62	0x390e0e8a	0.00013547592
63	0xb8386828	-4.396602e-05
64	0x3747c4c8	1.1907141e-05
65	0xb8c0680a	-9.174652e-05
66	0x3839070f	4.411401e-05
67	0xb80813f5	-3.2443513e-05
68	0x391869b4	0.00014535227
69	0xb8ec3dfa	-0.00011264901
70	0xb94cd2da	-0.00019533504
71	0x38bccfa8	9.0032176e-05
72	0xb966ba47	-0.00022003903
73	0xb808d6be	-3.262492e-05
74	0xb8a88a80	-8.036662e-05
75	0xb8ac85c5	-8.226516e-05
76	0xb6d29020	-6.275266e-06
77	0xb895fc64	-7.151885e-05
78	0xb8b1eadf	-8.483766e-05
79	0x38b11586	8.444027e-05
80	0xb8928b4c	-6.9877686e-05
81	0xb87ea591	-6.0712515e-05
82	0xb8f447b8	-0.00011648185
83	0xb854b930	-5.0717208e-05
84	0xb8eab3ae	-0.000111914575
85	0x39339360	0.00017125672
86	0xb987fae7	-0.00025936143
87	0x376091ba	1.338537e-05
88	0x378401b0	1.5736412e-05
89	0xb84f0b06	-4.9362912e-05
90	0xb82c5b0f	-4.10928e-05
91	0xb8a1cf42	-7.715683e-05
92	0x36239448	2.4375204e-06
93	0xb857377b	-5.1311665e-05
94	0x351e96c0	5.9078957e-07
95	0xb7c95038	-2.3998422e-05
96	0x380c9bba	3.3523633e-05
97	0xb8900012	-6.866468e-05
98	0xb6375870	-2.7320602e-06
99	0xb81a8b52	-3.6846213e-05
100	0x36f60b30	7.3326737e-06
101	0xb8ac1353	-8.2051985e-05
102	0x38e78150	0.00011039025
103	0xb9b437e2	-0.0003437391
104	0x3983123e	0.0002499986
105	0xb8b8e012	-8.81554e-05
106	0x390388d9	0.00012544113
107	0xb7ad1b8f	-2.063604e-05
108	0xb8629cd8	-5.402867e-05
109	0x38943928	7.067836e-05
110	0xb8adcfc8	-8.287985e-05
111	0x3886e46b	6.432164e-05
112	0x3813ac35	3.520791e-05
113	0x36a04a6a	4.7770345e-06
114	0xb887daf4	-6.478085e-05
115	0x38458f01	4.7101643e-05
116	0x37f7e629	2.9551871e-05
117	0x3886c06a	6.425458e-05
118	0xb847ab58	-4.7604874e-05
119	0xb94e6368	-0.00019682723
120	0x380b950c	3.3278993e-05
121	0x394284b6	0.0001855072
122	0x37c09a87	2.2960141e-05
123	0xb9560a58	-0.00020412484
124	0x3954fd93	0.00020312359
125	0x38bc720c	8.9857815e-05
126	0xb88e64ee	-6.789887e-05
127	0x38d4c414	0.0001014547
128	0xb6fd4900	-7.548486e-06
129	0xb896e265	-7.194727e-05
130	0xb89bfd7a	-7.43819e-05
131	0x385ba904	5.2371077e-05
132	0xb83eaa11	-4.5457917e-05
133	0x38bb8b1f	8.942768e-05
134	0xb7500098	-1.2397904e-05
135	0x38101a62	3.4356846e-05

momentum_buffer f4 [8]
0	0x37cf9f1c	2.4750414e-05
1	0x389985f2	7.320558e-05
2	0x35cd22d0	1.5283822e-06
3	0x3743cc70	1.1670505e-05
4	0xb92a8823	-0.00016263178
5	0xb89cb2a0	-7.471931e-05
6	0x378baaf7	1.6649703e-05
7	0x37b83474	2.1958935e-05

momentum_buffer f4 [8, 8]
0	0xb7d2db58	-2.513609e-05
1	0xb97af2a0	-0.00023932243
2	0xb9273575	-0.00015946275
3	0x3979b5ae	0.00023814171
4	0xb7aecf40	-2.0838925e-05
5	0xb8e1666d	-0.00010747914
6	0x37a19bb8	1.9265208e-05
7	0x3840fd6e	4.6012392e-05
8	0x3938d1e0	0.00017625792
9	0xb89b1dd1	-7.39653e-05
10	0x39106352	0.0001376991
11	0x367bf540	3.754467e-06
12	0x39b2d481	0.00034109133
13	0x389bb7ef	7.425236e-05
14	0xb83f6314	-4.5630222e-05
15	0xb9a2b15e	-0.00031031197
16	0x39497d5c	0.00019215554
17	0x37381d50	1.09740795e-05
18	0x3892d7ff	7.002055e-05
19	0x38dbbc29	0.00010477781
20	0xb95bddce	-0.00020968096
21	0xb9637ed8	-0.0002169566
22	0xb936598c	-0.00017390231
23	0xb89e748f	-7.555738e-05
24	0x389a56f6	7.35949e-05
25	0x39983f52	0.00029038877
26	0xb92446e9	-0.00015666675
27	0x395b29fe	0.00020901111
28	0xb94758da	-0.00019011219
29	0x38b4933f	8.6104956e-05
30	0x399d56a3	0.00030009923
31	0xb95b0192	-0.00020886053
32	0x360a60d9	2.0619975e-06
33	0xb6ce2782	-6.1438777e-06
34	0x3636d938	2.7246551e-06
35	0x360cc2ea	2.097508e-06
36	0xb7171b6f	-9.006689e-06
37	0xb755ff6a	-1.2755258e-05
38	0xb72781a9	-9.9841645e-06
39	0x36f4d9e4	7.2971325e-06
40	0x390cdac0	0.00013432931
41	0x3700b4c8	7.671486e-06
42	0x384d4eb5	4.894911e-05
43	0x38999be4	7.3246454e-05
44	0xb919b371	-0.00014658064
45	0xb91f08cd	-0.000151667
46	0xb8fef2fe	-0.00012156925
47	0xb85d8a9c	-5.2819596e-05
48	0x361d22a0	2.3414977e-06
49	0xb6446136	-2.926286e-06
50	0xb8007d81	-3.0634463e-05
51	0x382de727	4.146169e-05
52	0xb68f2850	-4.266425e-06
53	0x37544bca	1.2653831e-05
54	0x37cdb57f	2.452242e-05
55	0x37489a52	1.1956859e-05
56	0x39206176	0.00015295096
57	0x37128bfe	8.734873e-06
58	0x3869c4dc	5.573487e-05
59	0x38aee72e	8.340027e-05
60	0xb92f0204	-0.00016690051
61	0xb93514a9	-0.00017269202
62	0xb9112562	-0.00013842204
63	0xb87c40c9	-6.0141818e-05

momentum_buffer f4 [8]
0	0x3734455c	1.0744985e-05
1	0x3835225e	4.318577e-05
2	0xb877bcdd	-5.906528e-05
3	0xb8616b7b	-5.374428e-05
4	0xb61a8c68	-2.3029515e-06
5	0xb82d2f49	-4.1290452e-05
6	0x374117b5	1.1509216e-05
7	0xb845314c	-4.701437e-05

momentum_buffer f4 [1, 8]
0	0xb9d16c90	-0.00039944472
1	0xba0436ef	-0.0005043586
2	0x39ee741c	0.00045481406
3	0x3a200415	0.0006104124
4	0x37c4311b	2.3387887e-05
5	0x399fcfc7	0.0003048165
6	0xb7b5e264	-2.1682303e-05
7	0x39b345c0	0.00034193508
