src/logs/lightning_logs/version_79/checkpoints/epoch=114-step=460.ckpt (torch, 8699 bytes, 10 tensors)

model.linear_input.weight f4 [8, 17]
000000 0d 02 cf 3e af 86 1c 3d c3 8b a7 3e 57 d5 14 3e
       0.40431252 0.03821438 0.32723817 0.14534508
000010 41 b9 37 be 6a ca 98 be ad cd c9 bc a8 42 c9 3d
       -0.17941763 -0.2984193 -0.024634207 0.09827167
000020 00 45 03 3f 1f c2 87 be 6f ab f5 be 45 f7 26 bf
       0.5127716 -0.2651529 -0.47982356 -0.65221053
000030 82 ed ff be 72 e1 17 3f 5b 93 d8 3e e0 47 51 be
       -0.49985892 0.5932838 0.42299923 -0.20437574
000040 00 18 47 3e 3b de 71 3c 98 d6 a5 be dc 99 7a 3e
       0.19442749 0.0147624565 -0.32390285 0.24472755
000050 12 58 0d 3f 18 0d 8b bf 2d e3 77 3f c7 da 59 3e
       0.5521251 -1.0863371 0.9683102 0.21274863
000060 a7 70 16 be 4f 80 04 bf 47 9c 47 be 43 5b c7 3d
       -0.14691411 -0.51758283 -0.19493209 0.09734204
000070 cf 2c 46 3e 64 e6 da bb 8b 88 01 bf 2c 38 de 3e
       0.1935303 -0.0066802967 -0.50598973 0.4340223
000080 dc 17 dd 3e e2 a9 da 3d c8 3a e2 be 16 76 82 be
       0.43182266 0.10676934 -0.44185472 -0.25480717
000090 f6 9f 45 3f af b2 86 bf 40 d0 22 3f 8f ad 51 3f
       0.77197206 -1.052328 0.63599014 0.81905454
0000a0 17 e2 d3 bc bb e3 88 3e c6 77 55 3e 71 3c b4 3e
       -0.025864644 0.26736245 0.20846471 0.35202363
0000b0 0d 88 a0 be 5d 71 ec 3e 85 a2 81 be 7c 8c 86 bf
       -0.31353799 0.4618024 -0.25319305 -1.0511622
0000c0 52 dd aa be 7d 39 b7 3d 6d 05 91 be 1d 5f 46 be
       -0.3337198 0.08946512 -0.28324452 -0.1937222
0000d0 4c 54 3a 3f de 2b a7 3d ac cb ba be 37 61 2a 3f
       0.72784877 0.08162664 -0.36483514 0.6655459
0000e0 38 4c 11 bc f3 6d ff bd 1b 9f 9b be 37 37 c4 be
       -0.00886827 -0.12472143 -0.30394825 -0.38323376
0000f0 51 ba 01 3f fe 57 14 3f 91 9b 9d bf df ef 02 3f
       0.5067492 0.57946765 -1.23131 0.51147264
000100 75 a2 56 3e 6f 31 0d 3e a1 19 16 3f 3b ba b1 3e
       0.2096041 0.13788389 0.58632857 0.34712395
000110 b8 99 8a bf 16 56 6f 3f f2 35 b8 be 8d 7d 39 3d
       -1.0828161 0.9349073 -0.35978657 0.04528575
000120 c6 36 c2 bd f5 61 a7 be 35 a3 d0 3e 0c 9e 6a bd
       -0.094831035 -0.32691923 0.40749517 -0.05727963
000130 68 72 80 be cb ec 64 3e a3 58 ed 3e cc 0c 77 3f
       -0.25087285 0.22355954 0.46356687 0.965039
000140 8d 76 b4 be 01 c5 bd be bd 8d 3e be 21 89 25 3d
       -0.35246697 -0.37064365 -0.18608756 0.04041398
000150 7b 81 fc be 1f 02 dc 3e 7b 5d a2 3e 0f 81 a3 be
       -0.49317536 0.42970368 0.31711945 -0.319344
000160 9e 63 ea 3d 83 51 b8 3e 28 05 85 be b2 d7 03 bf
       0.11444782 0.35999689 -0.25980496 -0.51501
000170 c3 96 9a 3e cd 12 3c 3e 3b db ce 3e f3 04 a9 be
       0.30193147 0.18366547 0.40401635 -0.33011588
000180 08 7c 8f 3a 77 11 ab 3e 7f 67 85 be ac 7e 0f be
       0.0010946998 0.33411762 -0.26055524 -0.14013165
000190 3d 6e f7 bb 84 a1 6b be e1 85 ac be f0 42 3e be
       -0.007550983 -0.23010832 -0.33695891 -0.18580222
0001a0 4b e0 63 3f f9 67 9e bd 1c 69 84 bf bc ff 88 3e
       0.8901412 -0.07734675 -1.0344577 0.2675761
0001b0 5a d4 12 3f 66 53 9b 3e 59 24 04 bf 0d 7e 5a 3e
       0.5735527 0.30337065 -0.5161796 0.21337147
0001c0 40 ef 4c 3e 41 81 45 3f 07 bb be 3e ae 4c 9e 3e
       0.20013142 0.7715035 0.37252066 0.30917877
0001d0 f4 0a 33 bf f9 2c 7d 3e c9 5a d3 3e 11 78 58 3f
       -0.6993859 0.24724187 0.412802 0.84558207
0001e0 b4 77 8a be 26 0b 05 bf 2c e1 8a 3f 17 05 9b be
       -0.2704445 -0.51970136 1.0849967 -0.3027732
0001f0 2b da ab be d8 48 3c 3e 25 bd 86 be ad 3c 29 bf
       -0.33564886 0.18387163 -0.2631618 -0.6610821
000200 30 49 c6 3e 0d 67 f6 3e c9 71 12 bf 61 05 1d 3f
       0.38727713 0.48125497 -0.5720487 0.6133633
000210 13 16 e4 3d 23 21 5c 3d 16 30 8e 3d 0f 50 14 bf
       0.11137023 0.05374254 0.069427654 -0.5793466

model.linear_input.bias f4 [8]
000000 ca 8b 6e be 21 e3 2e bd 7b 62 1e be 6f e5 54 be
       -0.23295513 -0.042697076 -0.15467255 -0.20790647
000010 34 e7 13 3d 16 e1 ad bc 2d d2 c2 be f0 fb 9d be
       0.036109164 -0.021225493 -0.38050976 -0.30856276

model.linear_1.weight f4 [8, 8]
000000 eb 30 55 3e 37 7f 6c 3e cf fd d6 3e 70 10 e3 3e
       0.20819442 0.23095404 0.41990516 0.44348478
000010 03 26 87 bf 8c 65 97 be 59 97 45 bf 7f e0 0c bf
       -1.0558475 -0.29569662 -0.77184063 -0.55030054
000020 58 c9 d1 3d 50 b5 fd 3e dd d7 08 3f 38 8f 74 be
       0.102434814 0.49552393 0.5345438 -0.23882759
000030 71 24 dd bd 87 b2 e1 bd 88 d1 fb 3e 64 03 8b be
       -0.10797966 -0.110203795 0.49183297 -0.27151024
000040 0b 4b 63 be dd 3b 18 bf e1 ec d8 3e 51 6b 61 be
       -0.22196595 -0.59466344 0.42368224 -0.22013594
000050 b2 5e 00 bf 55 96 b5 3d ee 24 9a 3e 1e ce cb 3e
       -0.50144494 0.08866564 0.301063 0.39805692
000060 82 13 4d bf 10 6c 12 3f b9 ff b3 3f d2 c5 8b bf
       -0.8010789 0.5719614 1.4062415 -1.0919745
000070 3b e2 29 3f 3f 4e 7c be 80 03 7e 3f 6c 37 6d bf
       0.66360825 -0.24639224 0.9922409 -0.9266269
000080 00 56 3c bf 10 24 29 3f b8 83 0c 3f 31 b7 3d 3f
       -0.73568726 0.6607065 0.54888487 0.7410765
000090 6f 97 c9 3e a0 33 ae 3e b2 8e 37 3e b6 8b 23 3f
       0.39373347 0.34023762 0.17925528 0.63885057
0000a0 d9 79 21 3d 8f bc 95 3e 84 c3 c4 be ec 72 80 bf
       0.039422844 0.2924542 -0.38430417 -1.0035071
0000b0 19 3e e3 be a6 9b 04 3f a3 fd 9f be 89 68 9a 3f
       -0.44383314 0.518 -0.31248197 1.2063152
0000c0 0c 71 c3 be fc aa f4 be a8 09 bd 3e 83 c5 c5 bc
       -0.38172185 -0.477867 0.3692143 -0.024142032
0000d0 2d ef 6b 3e 5a 6c 20 3f 59 83 64 bf 76 c3 e8 bd
       0.23040457 0.6266533 -0.8926292 -0.11365406
0000e0 af f6 ff be 57 b8 5d bf 39 78 bf 3e a8 ef ff 3e
       -0.49992892 -0.86609405 0.3739641 0.4998753
0000f0 b8 b4 69 3f e7 22 a9 3e 2b 7e 0e bf 0d b5 c7 be
       0.9129138 0.3303444 -0.5566127 -0.39005318

model.linear_1.bias f4 [8]
000000 74 05 1d 3e c5 00 b9 be f7 93 99 3e a2 b0 77 3d
       0.15334111 -0.361334 0.299957 0.060471185
000010 3b 98 02 3f 21 62 ae be e9 5b 94 be 55 3f 8d be
       0.51013535 -0.3405924 -0.28976372 -0.2758738

model.layer_output.weight f4 [1, 8]
000000 ff 35 a4 bf 85 40 4c 3f 32 e3 ee be f3 13 19 40
       -1.2828978 0.7978595 -0.4665771 2.3918426
000010 30 ca bc bf 85 f0 d3 3f 9d 25 93 3f 3b 03 c6 3f
       -1.4749203 1.6557776 1.1495854 1.5469736

momentum_buffer f4 [8, 17]
000000 aa 17 44 ba 7a 87 16 ba 9f 18 c1 3a eb ad a8 3a
       -0.0007480333 -0.00057422335 0.0014732069 0.0012869214
000010 bf df f0 b9 e1 59 31 ba 3e 57 94 39 28 66 0a b9
       -0.0004594307 -0.0006765407 0.0002829376 -0.00013198762
000020 88 79 5f ba 24 73 9a 3a 93 6a 37 b9 c0 9a 25 3a
       -0.00085248845 0.0011783582 -0.00017491942 0.000631731
000030 3b b5 8a b8 08 b0 11 39 03 1e 11 ba b4 99 24 ba
       -6.6141096e-05 0.00013893854 -0.0005535783 -0.0006279007
000040 c8 2b 4c 3a 71 7d 0b bb 8a 11 15 3b 93 b3 2d 3a
       0.00077885063 -0.0021284486 0.002274605 0.0006626185
000050 f0 82 8b 39 45 cc 55 3b a7 3b 32 bb c4 3f d1 39
       0.00026609702 0.0032622975 -0.00271962 0.00039911096
000060 1e c8 d6 39 70 ac 2d ba 36 2b aa 39 61 4d 96 3a
       0.0004096636 -0.00066251215 0.0003245712 0.0011467153
000070 d4 d3 39 39 96 55 d2 39 d7 5e a0 3a be 2c 82 ba
       0.00017721887 0.00040118088 0.0012235296 -0.0009931547
000080 3e 9f 49 3a 2c 4b 26 38 03 e3 b2 3a 78 95 cd b9
       0.00076912704 3.9647493e-05 0.0013647977 -0.0003921201
000090 bf 12 18 bb fa 78 2e ba f9 b0 20 3a d4 c3 a9 ba
       -0.0023204533 -0.00066556 0.00061298866 -0.0012952038
0000a0 f3 03 14 ba b4 4b 4d ba 44 de 1d ba 44 84 f4 b9
       -0.00056463404 -0.000783141 -0.0006022195 -0.00046637852
0000b0 86 5e 92 b9 bc c9 9f ba b3 b9 10 3a 30 97 98 ba
       -0.00027917715 -0.0012190859 0.00055208354 -0.0011641737
0000c0 ed 70 fd 39 3b 8f 12 b9 ed 55 9e ba 95 1c 79 3b
       0.00048340057 -0.00013977003 -0.0012080051 0.003801142
0000d0 05 49 02 bc 6e c5 b0 39 34 a7 14 bb ee ce 09 bb
       -0.0079519795 0.00033716433 -0.0022682669 -0.002102788
0000e0 4a 1d 12 3a b5 69 a6 39 03 5e 87 bb 6f 30 47 bb
       0.00055738224 0.00031740745 -0.00413108 -0.003039386
0000f0 97 29 ac ba a9 59 0d 3a 21 1d d0 3a c2 14 f4 b9
       -0.0013134953 0.00053920835 0.0015877822 -0.00046554772
000100 a1 3d 84 bb 15 fe 6b ba a2 fa 80 bb 60 67 00 39
       -0.004035667 -0.00090024 -0.0039361278 0.00012245541
000110 d2 e7 61 3a 88 90 18 ba 6a d7 15 3a ea b6 d5 b9
       0.0008617613 -0.00058198767 0.0005715998 -0.00040762807
000120 9d 8c 55 ba b0 e5 07 3b 03 0e a4 b9 da 9a 98 3a
       -0.0008146258 0.002073627 -0.00031290957 0.0011642829
000130 4c c0 d3 39 21 35 43 3a 25 cd 9b b9 15 93 68 ba
       0.00040388328 0.00074465765 -0.00029716748 -0.00088720146
000140 2d 80 ab b8 82 08 17 3a a9 14 a3 3a 28 b6 ae ba
       -8.17779e-05 0.00057614606 0.001244207 -0.0013329433
000150 c0 26 0f 3b e3 9e 48 39 b2 95 cb 3a 45 2c a2 3a
       0.0021843165 0.00019132676 0.0015532284 0.0012372812
000160 c2 bd b3 3a 45 4f ed b7 4b cd d6 3a 16 e8 e3 38
       0.0013713168 -2.8289514e-05 0.0016388086 0.00010867433
000170 a7 4b 3c 3b dc 9a 1e 3b e8 f2 9a 39 7e 8d 8b 39
       0.0028731616 0.002420119 0.00029554148 0.00026617566
000180 a6 c9 bd 38 f2 62 b0 b5 0b 9f 0e 3b 73 ce 3b 3a
       9.049782e-05 -1.3141819e-06 0.0021762277 0.0007164247
000190 22 d9 04 3b 1f 47 7a 3a 3e 21 ee ba 31 75 11 3b
       0.0020271023 0.0009547341 -0.0018167866 0.0022195096
0001a0 44 7a 18 bb 01 9c 15 bb 38 17 ee 3a 9d 0a bf ba
       -0.0023266235 -0.0022828581 0.0018164879 -0.0014575307
0001b0 97 c5 89 39 68 4e 0f bb 70 44 32 ba fa bd bc ba
       0.00026277892 -0.0021866802 -0.0006800359 -0.0014399879
0001c0 71 a6 4d 39 84 2e c0 b9 1c 86 95 39 63 fd c3 ba
       0.00019612328 -0.0003665575 0.00028519414 -0.0014952834
0001d0 ad 0f b6 b9 97 aa c3 ba 38 03 e2 b9 61 c8 08 bb
       -0.00034725424 -0.0014928159 -0.00043108477 -0.0020871388
0001e0 e8 cd 93 3b 49 38 8d 3a c9 5b 2d 39 eb bd dc 3a
       0.00451063 0.001077422 0.00016532758 0.0016841268
0001f0 c6 75 d8 3a 70 81 4d 3a 38 0f 32 3b b4 93 74 3b
       0.0016514591 0.0007839417 0.0027169716 0.0037319483
000200 49 22 c0 ba 0a da a1 3a 99 58 b4 3a 23 0c 3e b9
       -0.0014658655 0.0012348306 0.0013759314 -0.00018124333
000210 9c 1e 44 3b 4b ea 33 ba 33 15 79 3b ee 2c 9d b9
       0.0029925471 -0.00068632205 0.003800702 -0.0002997885

momentum_buffer f4 [8]
000000 58 48 1e 39 f2 03 54 3a d4 a7 b0 ba d0 ee 79 bb
       0.00015095004 0.0008087746 -0.0013477751 -0.0038136728
000010 b0 2e 5f 3a ea 6a 43 3b 69 2b fc ba 92 6f 65 3b
       0.0008513732 0.0029818364 -0.0019239011 0.0035009128

momentum_buffer f4 [8, 8]
000000 be d7 7a ba aa fe 13 b9 2c 0a 64 b9 ff b3 12 ba
       -0.0009568891 -0.00014113882 -0.00021747564 -0.00055962795
000010 c0 7c 83 b9 70 04 46 3a 88 45 d9 b8 b4 46 70 3b
       -0.00025079213 0.0007553762 -0.000103603175 0.0036663236
000020 94 a4 dd 3a 31 03 31 b9 e2 39 5b bb 58 49 03 3a
       0.001691001 -0.00016881224 -0.003345125 0.00050081825
000030 82 41 0b bb 9f 30 5b 3a ab 50 3f 3b 66 61 80 3a
       -0.0021248762 0.0008361432 0.002919237 0.0009794652
000040 db 27 97 ba 5c eb 74 39 4c 4b 93 3a d0 ad ae ba
       -0.0011532264 0.00023357332 0.001123765 -0.0013326947
000050 96 a2 c4 3a 49 57 da 39 b8 e8 65 bb 9d a8 a4 39
       0.0015002068 0.00041645233 -0.0035081338 0.00031406144
000060 00 98 07 38 f6 2d 45 bb a5 aa 82 ba 42 1d 64 3b
       3.232807e-05 -0.003008721 -0.0009969069 0.0034807478
000070 2a 06 0b 3b 32 23 cb 3a 41 94 78 bb 90 42 33 39
       0.002121339 0.001549816 -0.0037930163 0.00017095567
000080 20 89 b6 ba 37 a5 90 ba 7c 90 01 3b 53 a7 e4 b9
       -0.0013926364 -0.0011035566 0.0019769957 -0.00043612215
000090 4e 5a 84 39 f5 04 24 ba 40 90 4f ba 6e 55 6a ba
       0.00025244284 -0.0006256842 -0.0007917918 -0.00089391216
0000a0 86 2e eb 3a 44 e8 65 bb 05 3a 25 bb 0c 81 9f 3b
       0.0017942942 -0.0035081068 -0.0025211584 0.0048676785
0000b0 d2 74 62 3b 35 b3 ee 3a 0e 25 24 3a 16 ae 96 bb
       0.0034554494 0.0018211367 0.0006261625 -0.0045983894
0000c0 19 b7 e6 3a ec f6 d3 3a 34 31 0f bb 7a 27 87 ba
       0.0017602175 0.0016171611 -0.0021849396 -0.0010311448
0000d0 ce 17 2d bb 6e 81 57 38 9c f3 0d ba 25 ac 87 3a
       -0.0026411894 5.1380535e-05 -0.0005415024 0.0010350986
0000e0 b6 a7 fe 3a bc 55 37 3b 87 a6 0b ba c9 99 96 ba
       0.0019428644 0.0027974686 -0.00053272437 -0.0011489923
0000f0 74 1a 92 bb 2e be d2 39 be b4 28 3b b4 2a a1 39
       -0.00445872 0.00040196016 0.0025742496 0.0003074013

momentum_buffer f4 [8]
000000 9e 57 87 ba cb 70 16 3b dc 8e cd ba 10 f7 df b9
       -0.0010325795 0.0022955413 -0.0015682834 -0.0004271795
000010 15 8e e9 b9 2b 7a 7f 3b 77 33 8c 3a 04 c7 a8 3a
       -0.00044547083 0.003898273 0.001069649 0.0012876694

momentum_buffer f4 [1, 8]
000000 0e 45 05 3b 75 ec d9 ba f5 9d 2a 3b 1d af 86 bb
       0.002033535 -0.0016626256 0.002603409 -0.0041102306
000010 e5 3b 46 b7 fc c8 f7 bb 5b 6f 1b bb 29 0f d4 bb
       -1.1815665e-05 -0.007561801 -0.0023717496 -0.006471534
