models/pytorch_model.pt (torch, 29415 bytes, 8 tensors)

weight f4 [50, 9]
000000 9b 9c 85 be 62 a2 89 3e 06 bd e9 bd 3b 3f 24 3e
       -0.26096043 0.268817 -0.114130065 0.16039746
000010 43 f7 6e 3e 6e 4a 1d be b0 b8 3a 3e 63 f1 0c 3e
       0.2333651 -0.15360424 0.18234515 0.13763957
000020 d8 88 69 be 50 c3 a1 3e 86 f6 91 3e 67 5c aa be
       -0.22806108 0.31594324 0.28508395 -0.33273622
000030 6b f7 ae bc 6b bd db 3d f2 72 9e 3e 5e d6 47 be
       -0.021358212 0.10729488 0.3094707 -0.19515368
000040 d7 56 93 be 4e aa 36 3e ab ae 43 3d b3 77 17 be
       -0.2877719 0.17838404 0.047774 -0.14791755
000050 f3 49 7d 3e 4b 64 be bd 18 fb 78 3e 40 07 34 3d
       0.2473524 -0.09296473 0.24314535 0.043952227
000060 f6 b3 a6 bd 80 74 1a bc 9b 1a bf bd 00 f8 4d be
       -0.081397936 -0.00942719 -0.093312465 -0.20114136
000070 18 67 8f 3e 36 04 95 3e 33 b6 97 3e a8 82 48 be
       0.28008342 0.29104775 0.29631194 -0.19581091
000080 f6 76 1c 3e a2 40 a6 3e df 93 9b be 43 14 43 be
       0.15279755 0.32471186 -0.30386254 -0.19050698
000090 d6 12 b3 3c 73 79 82 be 20 ec 0c 3e cb a9 58 bd
       0.021859568 -0.25483283 0.1376195 -0.052896302
0000a0 96 83 6a bd 3e f5 32 3e fb 11 0b be 48 ca 17 3e
       -0.057254396 0.17476365 -0.13581078 0.14823258
0000b0 76 99 db bd 00 f9 e8 bd 86 b8 83 be a0 a5 6e 3d
       -0.1072263 -0.11375618 -0.25726718 0.05826342
0000c0 ae 3c 33 3e 83 a8 4f be 7e 93 22 3e 5b e5 9f be
       0.17503616 -0.20279126 0.15876576 -0.31229672
0000d0 7e 93 aa 3e 90 cb 6c be 60 8a 43 be 63 3e a4 3e
       0.33315653 -0.23124528 -0.19095755 0.32078847
0000e0 d6 ba 96 bd 3e 35 19 be cb 5b a3 be 80 18 ff bd
       -0.07359855 -0.14961717 -0.3190597 -0.12455845
0000f0 56 28 fb 3c 0e 41 0a be f6 30 5e bd 5b cf ad 3d
       0.030658882 -0.13501379 -0.05424591 0.084868155
000100 98 0e a1 3e 07 cd 96 3e 26 9b a3 3d b8 2d 9f 3e
       0.31456447 0.29453298 0.079885766 0.31089568
000110 a6 36 9b 3d 06 d2 a2 3e e0 7f 59 be 4f 24 a2 3e
       0.07578783 0.3180086 -0.21240187 0.31668326
000120 10 57 f4 3d 8e ee 3c be 68 91 a9 3e 00 f6 b5 bb
       0.11930668 -0.18450376 0.3311875 -0.005553007
000130 d6 ab 88 3e 40 ba ef bc 24 45 a5 be 80 52 8b 3d
       0.266936 -0.029263616 -0.32279313 0.06802845
000140 10 c5 d2 bd c0 31 82 3d 16 f5 aa 3c de c9 34 be
       -0.10291493 0.06357145 0.02086882 -0.17655131
000150 d6 a1 68 bc ab 72 95 3c a0 45 22 3d 8b 86 cd bd
       -0.014198741 0.018243155 0.03961718 -0.10035428
000160 9a a4 8f be 3e fe 44 3e 40 3b d1 3c a0 bf 35 bd
       -0.2805527 0.1923761 0.025540948 -0.0443722
000170 ae 10 5b 3e 70 d0 07 3e 46 c5 df 3d 4e a6 5e be
       0.21393082 0.13263106 0.10926299 -0.21743128
000180 70 b6 16 3e e6 f0 e9 bd 98 eb 88 be db d0 46 be
       0.14718032 -0.11422901 -0.26742244 -0.1941561
000190 93 dc 92 3e e6 5d 59 3e 40 59 10 be db a0 a6 3d
       0.2868391 0.21227226 -0.14096546 0.081361495
0001a0 7e 29 18 3e cb a6 13 bd e0 14 51 3e b3 18 4d be
       0.14859578 -0.036047738 0.2041812 -0.20028953
0001b0 98 69 16 3e e3 40 2a 3e 28 c3 5b 3e a6 55 0f be
       0.14688718 0.16626315 0.21461165 -0.13997516
0001c0 e4 38 8f be 36 79 0b be f6 1e 76 3e 78 29 98 be
       -0.27973092 -0.13620457 0.24035248 -0.29719138
0001d0 10 78 a2 bd 80 57 74 bc 00 08 6a 3e eb 76 88 3e
       -0.07933056 -0.01491344 0.22854614 0.26653227
0001e0 06 81 a5 bd ee 71 a9 be 8b b9 88 3d ea de 85 be
       -0.0808125 -0.33094734 0.066760145 -0.26146632
0001f0 00 8e d7 bb 3b 9b 84 3d f6 40 8f 3e d6 c6 4f 3e
       -0.006578207 0.0647492 0.2797925 0.20290694
000200 8b 81 a8 be 10 f1 b4 3d 20 b7 3c bd 92 45 8e 3e
       -0.32911333 0.088350415 -0.04607308 0.27787453
000210 0b 8a a5 be b0 ce 87 bd 56 c1 47 3c 76 17 30 bd
       -0.3233188 -0.066312194 0.012192091 -0.042991124
000220 db 05 03 3e 46 02 e9 bd 40 01 4d 3d 83 6c a0 be
       0.12795202 -0.11377387 0.05005002 -0.31332788
000230 d8 82 27 be 53 c6 a3 3e e6 20 98 3e 53 3d 0e 3e
       -0.16358507 0.31987247 0.297126 0.13890581
000240 ab da f3 b9 c0 d8 f5 bd 8b f6 6d be ab ce bc 3a
       -0.00046511492 -0.120042324 -0.2323858 0.0014404854
000250 1a 75 9f be 90 61 ee bd c6 b0 97 3d 8b 0c 47 3e
       -0.3114403 -0.11639702 0.07406764 0.19438379
000260 ab 02 2b bc 53 9b 6e 3e 86 10 9a bd a2 56 99 be
       -0.010437648 0.23301439 -0.07522683 -0.29948908
000270 76 5c a5 be 43 90 41 3e ba 84 90 3e 1e 81 8d be
       -0.32297105 0.18902688 0.28226262 -0.2763757
000280 7f b3 a5 3e f6 04 e6 3d 4b d4 41 3e e0 fd 74 bd
       0.32363507 0.11231415 0.1892864 -0.059812427
000290 8b 2f 9d be 14 56 97 3e b6 30 4f bd e8 be 8b be
       -0.30700335 0.2955786 -0.050583564 -0.27294087
0002a0 2b 9d 41 bd 6b 04 83 bc c3 7a 0e be d8 ab 83 be
       -0.047269028 -0.015993318 -0.13914017 -0.25717044
0002b0 c2 72 86 3e 30 47 87 3e 80 c7 05 be ea 07 88 be
       0.26259428 0.264215 -0.13064384 -0.26568538
0002c0 de d0 a2 be 1b 10 99 3e 36 64 7d be 0e 49 aa be
       -0.31799978 0.298951 -0.24745259 -0.3325886
0002d0 c0 df fd 3d b6 79 18 bd 18 eb 10 be 48 82 18 be
       0.123961926 -0.037225448 -0.14152181 -0.14893448
0002e0 60 6e 13 3e f6 b7 3a bd 13 6d 29 3e a3 99 11 be
       0.14397573 -0.045585595 0.16545515 -0.14218764
0002f0 b6 3e 26 3e 3b d4 dc 3d d0 96 17 3e 93 5c 99 3e
       0.1623486 0.10782667 0.14803624 0.2995344
000300 73 46 9f be da a6 80 3e 96 26 50 bd 90 ce e6 3d
       -0.31108436 0.25127298 -0.05081805 0.112698674
000310 c8 cb 4c 3e 66 8f 8b 3d d6 14 9b be 9b 0f d1 bd
       0.19999611 0.068144605 -0.30289334 -0.10208055
000320 3b 04 ea 3d fc 81 97 be 8b d8 7e 3d fb 27 88 3e
       0.11426588 -0.29591358 0.06221823 0.26593003
000330 66 f3 83 3e 2e 5d 54 be 60 91 0b 3d 4c bd 99 3e
       0.25771636 -0.2073867 0.034074187 0.30027235
000340 80 3b a3 bd 13 d6 3d be 90 8d 9a 3d 60 06 31 bd
       -0.07970333 -0.18538694 0.07546532 -0.04321897
000350 56 88 bd bd 53 f1 82 3e 46 b9 99 bd 22 cf 96 be
       -0.0925452 0.2557474 -0.07506041 -0.29454905
000360 bb a7 23 be e6 2d e3 3d e3 79 a4 be 92 60 8f be
       -0.15981953 0.11092739 -0.32124242 -0.28003365
000370 13 74 36 be 33 3c 07 3e 96 dd 84 be 50 c4 97 3d
       -0.17817716 0.13206558 -0.25950307 0.074104905
000380 16 9f a0 bc 26 d6 de 3d fe c7 6a 3e 56 d0 df bd
       -0.019607108 0.10880689 0.22927853 -0.10928409
000390 70 4f d0 bd ab 59 92 bc 88 dd 2d 3e 83 b8 33 be
       -0.101714015 -0.017865023 0.16979039 -0.17550854
0003a0 f0 cd a0 bd 5e ec 30 3e 96 c7 64 3e be b4 4e be
       -0.078517795 0.17277667 0.22341761 -0.20186135
0003b0 d3 68 1e 3e fb 5e 21 3e a6 ff 85 3e da 4d 8c 3e
       0.15469675 0.15758888 0.26171607 0.27403146
0003c0 c3 39 33 3e af b1 9a be ee b2 28 be 20 86 cb 3d
       0.17502503 -0.30213687 -0.16474506 0.09937692
0003d0 b6 0f 64 bd 96 7c 2c 3e 43 ef 2d 3e 6b 93 08 3e
       -0.055679046 0.16844401 0.16985802 0.13337485
0003e0 33 bc 06 be 66 c0 8b 3d 9c 7c a9 be 80 09 20 3c
       -0.1315773 0.068238065 -0.33102882 0.00976789
0003f0 73 b5 69 be 16 0c ee bc 22 62 a4 3e f3 79 53 be
       -0.22823124 -0.029058497 0.3210612 -0.20651989

bias f4 [50]
000000 23 c8 9b 3e ee 6b 3c be c0 43 08 bd b4 33 8c 3e
       0.3042613 -0.18400547 -0.033267736 0.27383196
000010 36 2f 43 be a3 eb 6e 3e 2b 7d 9a be de 9d 3d 3e
       -0.19060978 0.23332076 -0.3017362 0.18517253
000020 b8 d5 68 be ef 69 a2 3e f7 5e 98 be 7b f4 c3 bd
       -0.22737777 0.31721446 -0.29759952 -0.09568115
000030 d6 be 28 bd 76 36 c3 3d 56 e5 9c 39 56 34 26 3c
       -0.04119762 0.09531872 0.00029925507 0.010144314
000040 3a 88 8a 3e 96 19 18 be 7e f9 7d be 00 9c 44 be
       0.27057058 -0.1485351 -0.24802205 -0.19200134
000050 2f 6e 8b 3e d0 78 f2 3d 80 f5 0c 3c 66 1c f1 bd
       0.272325 0.118394494 0.008603454 -0.11772995
000060 eb 3a a3 be 2b c2 99 bc d6 50 be bd c3 69 56 be
       -0.31880888 -0.018769344 -0.09292762 -0.20938782
000070 1b 8f 85 3d e0 f8 25 bd 5e 1b 20 3e 13 9f 8a 3e
       0.06521436 -0.04052055 0.1563544 0.2707449
000080 00 54 2b 3e 36 f1 bf 3d 46 b1 6a 3e ac 50 91 be
       0.16731262 0.09372179 0.22919187 -0.2838186
000090 10 b3 11 be fb 91 1a be d2 a0 8f 3e f3 76 68 3e
       -0.14228463 -0.1509475 0.28052384 0.22701626
0000a0 1a 01 8d 3e f3 a2 48 be e6 e2 a6 be 83 14 20 be
       0.27539903 -0.1959341 -0.32594985 -0.15632825
0000b0 00 58 05 bd 80 2f 29 bd d3 2a a2 3e b8 b7 68 3e
       -0.032554626 -0.041305065 0.31673297 0.22726333
0000c0 00 23 12 3e 40 38 9d be
       0.14271164 -0.30706978

weight f4 [50, 50]
000000 15 15 81 bb 7a bc 44 bd df f5 eb 3d b7 80 54 bd
       -0.0039392808 -0.048031308 0.115215056 -0.051880565
000010 63 eb ad 3d 1e 44 05 3d e4 a2 ef ba 12 67 36 3b
       0.08492162 0.032535665 -0.0018282798 0.002783243
000020 90 7b ea bd 0c f0 0a be cc 25 c2 bc aa 02 d5 bc
       -0.11449349 -0.13568133 -0.023699664 -0.026002247
000030 a0 55 c1 3c e9 f6 a7 bd 2c 65 b3 3a d0 27 0c 3e
       0.0236004 -0.08201391 0.0013686768 0.13687062
000040 95 07 23 3d 69 a7 00 3e 98 7e eb 3d 28 94 ad 3d
       0.039802153 0.12563862 0.11498755 0.08475524
000050 18 4b 25 3d 33 58 5b 3b f5 da 00 bd a8 ce 09 be
       0.040354818 0.003346932 -0.031458814 -0.1345774
000060 99 87 6f bd cf cb 04 3e ed 00 b1 bd 12 01 f8 bd
       -0.058478925 0.12968372 -0.08642755 -0.12109579
000070 9d bb cd bd 64 84 37 bd 3f 57 c4 3d bb 3b 99 3d
       -0.1004555 -0.044803992 0.09586953 0.07482096
000080 57 48 d3 bd d0 2c ae 3d 28 b3 bf 3d 8f e8 98 bd
       -0.10316532 0.08504641 0.09360343 -0.07466232
000090 48 18 c1 3d 37 8c 89 bd 40 28 8e bd ae 6e e4 3d
       0.094284594 -0.06716197 -0.06941271 0.11153923
0000a0 55 ad 16 3d 73 08 4d bd ab 4d e4 bc 22 f5 3b 3c
       0.036786396 -0.050056886 -0.027869066 0.011472018
0000b0 59 07 1e 3c 03 03 5d bd 1a 0c cb bd fd a7 48 bc
       0.0096453065 -0.05395795 -0.099144176 -0.012247083
0000c0 be 44 f4 bd f0 48 58 bc 55 76 5a bd 67 09 ce 3d
       -0.11927174 -0.013200983 -0.053335506 0.10060387
0000d0 e6 10 6e bc 42 9d f2 3d 08 4d 80 bd a6 c3 03 3e
       -0.014530396 0.11846401 -0.062646925 0.12867603
0000e0 ec 3c 47 bd be 6c cf bd 35 7a 08 3e c2 02 c1 3d
       -0.048642084 -0.10128163 0.13327868 0.09424354
0000f0 9f d3 35 bd c1 b5 9f bd 0f 25 e6 bd 43 a4 8e 3d
       -0.04439127 -0.07798339 -0.11237537 0.06964924
000100 e2 53 05 3e e8 1c f7 3d 13 cd 92 3d ae 2a e5 3d
       0.1302028 0.1206606 0.07168021 0.11189781
000110 c6 2a 0a 3e 5b 5b d1 bd 97 66 dc 3d 5a c5 bb 3d
       0.1349288 -0.10222503 0.10761755 0.09168501
000120 bf 82 b5 bd 73 51 cc bd 1a 08 26 3d 41 e2 bb 3b
       -0.088628285 -0.09976473 0.04053507 0.0057337587
000130 cb d3 09 be a2 5a 2e 3d b6 1c 16 bb f0 0c 48 bd
       -0.13459699 0.042566903 -0.0022905297 -0.048840463
000140 22 15 fa bc 18 c8 f0 3d 58 1a 89 3d c0 bb d5 bd
       -0.030527655 0.11756915 0.06694478 -0.10436201
000150 cb be 51 3c c3 1d 89 3d 85 a5 49 3d 8b 69 ba 3c
       0.012801836 0.0669513 0.049230117 0.022755405
000160 b6 11 91 bd c9 78 00 3e 5b 8a 55 bd fd f9 c1 3b
       -0.07083456 0.12546076 -0.0521339 0.0059196935
000170 44 42 e4 3d 99 d5 f1 bd a4 42 30 bd 5f 5d 10 be
       0.11145452 -0.11808319 -0.043032303 -0.14098118
000180 6d b5 7b 3d 61 08 08 3e e9 21 a8 bc 2a de 19 bd
       0.061452318 0.13284446 -0.020523982 -0.037565388
000190 64 8d 0b be 4c 38 f7 bd d8 de 79 bd cb f2 ee 3d
       -0.13628155 -0.12071285 -0.061003536 0.11667403
0001a0 6f 97 8f 3d ac 24 2d bd 92 ca 6c bc 90 05 29 3d
       0.070113055 -0.0422713 -0.014452593 0.04126507
0001b0 78 6f 69 bd a9 ee b3 bd 06 f1 f3 3d 27 9c f2 bd
       -0.05699107 -0.08785755 0.11911206 -0.1184619
0001c0 c4 23 dd 3d 9a f5 f0 3d 1f d2 be 3c d3 ee 4d 3d
       0.107978374 0.11765595 0.023293553 0.05027659
0001d0 d6 ff fe 3d 7e c0 10 3e 77 82 8a 3d 79 cb 05 be
       0.124511406 0.1413593 0.067631654 -0.130659
0001e0 a8 70 5e 3d 85 db 72 3c 94 3d d2 3a 1e 43 8a bd
       0.054306656 0.014822845 0.001604008 -0.06751083
0001f0 43 cc a7 bd 42 6a 25 bd 55 b3 0f 3e 75 53 f9 bc
       -0.08193257 -0.04038454 0.14033253 -0.030435303
000200 0c 1e 88 3c 10 c9 d4 bd 4b 6a e9 bd 11 79 4c bc
       0.01661589 -0.10389912 -0.11397227 -0.012480036
000210 3a e1 a6 3d 91 24 04 be b3 0f ab 3d e7 c6 c0 3d
       0.08148427 -0.12904574 0.08352604 0.094129376
000220 6c 3d fa bd d5 ba 30 bd 4e 27 da 3d 54 3f b0 3d
       -0.122187465 -0.043146927 0.10652028 0.08605829
000230 95 de 9f 3d 90 2f c0 bd 18 09 7c bd 52 73 38 bd
       0.07806126 -0.09384072 -0.06153211 -0.045031853
000240 8b 97 78 bc 79 7e 4e 3d ce 20 e0 3d 81 a1 96 bb
       -0.015172849 0.050413582 0.10943757 -0.0045968895
000250 c3 fb 0f 3d 08 68 70 3b ec a6 0e be 7e c5 46 3d
       0.035152208 0.0036683101 -0.13930863 0.048528187
000260 66 50 f8 3d ab af f1 3d 7a 92 d9 3d 62 e6 ae 3d
       0.1212471 0.11801084 0.10623641 0.08540036
000270 c0 cb bb bd c2 1b be bc 4d 51 08 3e be 9c 76 bd
       -0.091697216 -0.023206595 0.13312264 -0.060208075
000280 5a af ef 3d 2d 9d 54 bd ee 3c 04 be a4 38 e0 bd
       0.117033675 -0.051907707 -0.12913868 -0.10948303
000290 2d b2 0e be a6 75 1d bd 84 c3 98 3d 27 b1 01 be
       -0.13935156 -0.038442276 0.07459167 -0.12665235
0002a0 59 7c 1d bd bb ba e3 3d 35 b8 d2 3d 1b 28 7f 3d
       -0.038448665 0.111196004 0.10289041 0.062294107
0002b0 67 a4 a3 bd fb b3 bd 3d 87 52 e6 3b f8 3f b4 bd
       -0.07990342 0.09262844 0.007028881 -0.088012636
0002c0 51 2d 01 be 2b f2 00 bd 44 ff 18 bd ac ef 46 bc
       -0.12614943 -0.03148095 -0.037352815 -0.012142103
0002d0 ce b7 09 3e a9 fc 8c 3d 32 5f 2e bd 95 58 cd bd
       0.13449022 0.068841286 -0.042571254 -0.10026661
0002e0 db b8 02 bd 96 79 e5 bc 66 36 88 3d a2 6e 05 bc
       -0.031914573 -0.028012078 0.06651001 -0.008144053
0002f0 6e 57 fd bd 7f 59 f4 3b 03 68 11 3d f8 b9 70 bd
       -0.123701915 0.007456958 0.035499584 -0.058771104
000300 52 50 cd bd 9d db 33 3c 6b 23 76 3b d6 85 72 bd
       -0.100250855 0.010977653 0.0037557732 -0.059209667
000310 01 de b0 bd 39 8f db bd e1 7c b5 3c aa d4 00 bd
       -0.08636094 -0.10720677 0.022154273 -0.031452812
000320 7a b9 f5 3d df 9e e3 bd 64 90 d7 3d 75 2f eb 3b
       0.119982675 -0.11114287 0.10525587 0.007177288
000330 00 40 1b 3d cc 19 10 3d ca ef ac bd 61 f4 f7 bc
       0.037902832 0.03518085 -0.08444174 -0.030267896
000340 0b a8 46 3d 01 27 98 bd 60 73 78 3d 07 b0 95 3d
       0.048500102 -0.074293144 0.060656905 0.07308965
000350 4e a2 af bc cd 62 ad bd 44 9b a9 bd 85 4a 4e 3d
       -0.021439698 -0.084661104 -0.08281568 0.050364036
000360 7b c8 9c 3d 89 7a 2b bd 6b d9 ec bd f8 0c b5 3d
       0.07655426 -0.041864906 -0.11564907 0.08840364
000370 6f 2d 2c bc 71 72 91 bc f1 df e4 bd 4e 9f 09 be
       -0.010508879 -0.017754765 -0.11175526 -0.13439676
000380 b5 5a d4 3d 2c 8d 09 3e 0c 63 d1 bd c0 b9 c1 3c
       0.103688635 0.13432759 -0.1022397 0.023648143
000390 00 82 7d bd 53 4b 0c 3e 00 01 e4 3d a4 86 ef bc
       -0.061891556 0.13700609 0.11133003 -0.029239006
0003a0 6e ec e2 3c d4 36 04 3e aa da fa 3c 01 61 d0 bd
       0.02770063 0.1291154 0.030621845 -0.10174752
0003b0 76 d5 b4 3d 52 9b f2 3d 9c 60 10 3e 7e 98 86 3d
       0.08829777 0.11846031 0.14099354 0.06572054
0003c0 d7 4d 87 3d 08 22 d6 bc 3d af 0f be 1b 74 3b bd
       0.06606644 -0.026139274 -0.14031692 -0.045765024
0003d0 8f 48 81 3a b0 e8 91 bd b7 3e a7 bd 1a d5 07 be
       0.0009863543 -0.0712446 -0.08166259 -0.13264886
0003e0 a5 b0 cc 3d 5d 4e 51 bd dd de c0 3c 28 1e 90 bd
       0.0999463 -0.051100124 0.02354377 -0.07037002
0003f0 7f 6f 88 bd f0 0a fd 3d 03 fa 11 3d 00 c1 c0 bd
       -0.06661891 0.12355602 0.03563882 -0.09411812

bias f4 [50]
000000 16 78 0b 3b 5e 7c 06 3e 58 4e a7 3d 78 22 c7 3d
       0.0021281294 0.1313338 0.0816924 0.09723371
000010 d9 56 b2 3c 7d 2d f5 3d d3 20 8f 3d a7 d4 a3 bd
       0.021769928 0.11971567 0.069886826 -0.079995446
000020 ca ea 55 3d 99 e8 f3 bd 79 35 ae bd 60 e7 0a be
       0.052225865 -0.11909599 -0.08506293 -0.13564825
000030 0f 60 90 3d 54 62 d4 bd ce ed 00 3e 3a c7 10 3e
       0.07049572 -0.10370317 0.12590715 0.14138499
000040 c5 07 36 bd cf 5f 04 3e ea 42 d2 bc f4 49 ae bd
       -0.044441003 0.12927173 -0.025666673 -0.08510199
000050 c3 06 ce 3d 90 e2 73 3d d7 bf 6c bd c7 91 c7 3c
       0.100598834 0.05954224 -0.05780014 0.024361504
000060 6e 47 20 3b 99 d9 95 3d 3d 84 83 3d 45 a3 0f 3d
       0.0024456638 0.07316894 0.06421707 0.035067815
000070 4e 25 92 3c 08 51 f2 bd 6c 54 17 3d db 02 e4 bd
       0.017840054 -0.11831862 0.036945745 -0.11133357
000080 73 1f ec 3b 54 76 60 3a 82 dc f2 3b c4 1c 14 bc
       0.0072058975 0.0008562554 0.0074115405 -0.009040061
000090 49 b3 46 3b 5c 6e 86 bc 71 b5 d0 bd bf 97 61 bc
       0.0030319265 -0.016410045 -0.10190857 -0.013769089
0000a0 20 c1 08 3e 06 aa 0d 3d 02 ba a0 3d 95 74 1c 3c
       0.13354921 0.034585975 0.07847978 0.00954928
0000b0 8d f5 da 3d 75 3e ee 3d 11 01 c8 bd 81 0e e6 bc
       0.10691366 0.116330065 -0.097658284 -0.028083088
0000c0 31 2a f3 bd dd 37 35 bd
       -0.11873282 -0.04424273

weight f4 [50, 50]
000000 d6 8a 3f bd 1a de c2 bc 02 7b 5d bc 97 76 7c bd
       -0.046763264 -0.023787547 -0.013518097 -0.061636534
000010 bf f3 0e 3d cf 56 c2 3d 1f 9b 70 3d 1e b7 bd bd
       0.034900423 0.09489214 0.058741685 -0.092634425
000020 61 f2 2e bc a1 7c 97 bd a2 df 43 3c df dd 5a 3d
       -0.010677905 -0.07396818 0.011955174 0.05343425
000030 22 73 f0 3c 7e 28 8b 3d 93 12 0a 3c 49 7b cb bc
       0.029351775 0.06794833 0.00842728 -0.02483906
000040 32 5a ea 3c d3 98 37 3c 09 18 81 bd 3a d5 05 3e
       0.028607462 0.01120587 -0.063034125 0.1306962
000050 56 54 93 3c f3 76 34 bd e8 96 d7 bd 07 55 fc bd
       0.01798455 -0.04405875 -0.1052683 -0.12320905
000060 6d 2f af bd 19 23 3a 3d 62 b8 fe 3d 18 89 c0 3c
       -0.085539676 0.045443628 0.12437512 0.023502871
000070 11 27 cf bc 99 81 df 3d 35 f8 ff 3d 41 59 db 3d
       -0.025287183 0.10913391 0.124985136 0.10710383
000080 f7 d1 4e bc 74 2f 7e 3d 6e ee 29 bd cc 6d 4b 3d
       -0.012623302 0.062056974 -0.04148715 0.049665257
000090 38 3f 9e 3d 10 33 ce 3d d0 1c 25 bd ba d6 b1 3d
       0.07726902 0.10068333 -0.04031068 0.08683534
0000a0 79 a3 08 3e ba 4e 7a 3d 3d a1 8d bd 62 7c 08 3e
       0.1334361 0.061110236 -0.069155194 0.13328698
0000b0 6b 16 e1 bd 6a b6 7d 3d 81 df bc bd 64 df 46 3d
       -0.10990604 0.06194154 -0.092223175 0.048552886
0000c0 92 11 bb 3d fc 31 d9 3d 63 36 3f bd 3a cf 00 3e
       0.09134211 0.10605237 -0.046682727 0.1257905
0000d0 ad 89 ac 3d 54 8b ce bb 4e 30 0b 3e 50 c4 10 3e
       0.08424697 -0.0063032303 0.13592646 0.14137387
0000e0 ba 3c e9 3d 30 00 29 bc f6 7b 0e be 09 30 71 3d
       0.11388536 -0.010314986 -0.13914475 0.0588837
0000f0 7d 41 02 3e ee 82 b8 3d 3a 28 ca bc 08 e4 b8 b9
       0.12720294 0.09009348 -0.024677385 -0.0003526511
000100 51 26 a0 bd 51 0a f7 3d 1c ec 06 be 34 a9 00 be
       -0.07819808 0.120625146 -0.13176006 -0.12564546
000110 5f be c1 bd 36 c0 02 be 48 ce 00 bd ef 1b 12 bd
       -0.094601385 -0.12768635 -0.031446725 -0.03567117
000120 ca 2f 64 3b 31 9a 5b 3d c5 4f d9 3b 10 bf 42 3c
       0.0034818524 0.053613845 0.0066318237 0.011886373
000130 2a c1 98 bd 4e 76 c7 3c b8 14 02 bd b4 23 a8 bd
       -0.07458718 0.024348404 -0.03175804 -0.08209935
000140 a4 2b b2 bb e2 d7 ea 3d a0 3e d5 3d ea 9f 9e 3d
       -0.0054373313 0.11466958 0.104123354 0.07745345
000150 46 07 fc 3d b7 60 cd 3c 4e 11 e6 bd 4e 43 87 3d
       0.12306075 0.025070531 -0.11233769 0.06604634
000160 0b ce 60 3d 3e db c0 bd d7 a3 bd 3d 81 da ee 3d
       0.054883998 -0.09416817 0.092597656 0.1166277
000170 11 c4 0c 3e 9c ee 06 bd 63 c0 58 bd f0 81 9b bd
       0.13746668 -0.0329424 -0.05291785 -0.07593143
000180 d9 5c 71 bd c7 3c 0d 3c 12 77 09 3e 5e 0b 77 3d
       -0.058926437 0.0086204475 0.13424328 0.060313575
000190 4c eb b0 3d 4d 98 d1 3d fa d1 d8 bc 29 2a dc bd
       0.08638629 0.10234127 -0.026467312 -0.10750229
0001a0 32 37 f3 3c e5 15 8a bc 2a 9f e0 3c 42 b4 e7 bd
       0.029689405 -0.016856143 0.027419645 -0.11313678
0001b0 16 4d f8 bb c2 b6 c7 3d 92 3c 8e bd 24 9d 1d bd
       -0.0075775487 0.09751655 -0.069451466 -0.03847994
0001c0 2a d4 46 3d 7d dd 3c 3d 2d bf 97 bb 10 e9 e4 3d
       0.04854218 0.046109665 -0.004630944 0.11177266
0001d0 a0 95 21 3d d8 bb e2 3d 03 2c 9f bd 22 b4 07 3e
       0.039449334 0.110709846 -0.077720664 0.13252309
0001e0 75 68 8d bd 2b a8 00 bd 0d 9a 7a 3d b0 d1 72 bc
       -0.06904689 -0.031410377 0.06118207 -0.014820501
0001f0 08 01 92 bc fb 83 5a bd 66 57 23 bd 8a 17 f9 bd
       -0.017822757 -0.053348523 -0.03987827 -0.12162693
000200 31 a9 d8 bd 69 85 86 bd ec 4a ca bd 97 ef f2 bd
       -0.10579146 -0.06568415 -0.098775715 -0.118621044
000210 07 b2 0b 3e 79 a0 48 3d 32 3a e2 bd 9a 0e 00 bc
       0.13642131 0.048981164 -0.11046256 -0.007815981
000220 5e 2c b1 bd 7b 77 48 3c 7f 68 a7 3d 56 29 24 3d
       -0.086510405 0.012235518 0.08174228 0.040078484
000230 21 12 8d bd dc d4 9d bd 88 d9 98 bd 9e d1 b4 bb
       -0.068882234 -0.07706615 -0.07463366 -0.0055181524
000240 bb c1 40 bd b8 57 1f 3d a2 9f 49 3d a0 bd f4 bd
       -0.047059756 0.038902014 0.049224503 -0.119502306
000250 75 0e de bd cb 60 01 bd 93 36 8b 3c d8 90 f8 3d
       -0.10842601 -0.03158645 0.016993796 0.12137002
000260 f9 80 0f bd c0 17 09 be eb 85 10 3e 68 7e a9 bc
       -0.035035107 -0.13387966 0.14113586 -0.020690158
000270 e3 2b e3 bd 43 92 a7 bc 55 01 a7 3d 0d 39 47 3d
       -0.11092355 -0.020455485 0.08154551 0.048638392
000280 85 a7 e5 bd a1 a7 f7 bd e3 2a a3 3d fd 52 17 3b
       -0.112135924 -0.120925196 0.07967164 0.0023090236
000290 5e 82 fe 3d dd cb bf 3d 23 64 e3 3d 76 4f 2c 3d
       0.12427209 0.09365056 0.11103084 0.042067967
0002a0 a1 b2 a8 bd 49 61 c8 3d 59 f4 71 bd 56 0c 0b be
       -0.08237196 0.09784181 -0.05907092 -0.13578925
0002b0 14 2d cc 3d 8e 6d 7c 3d 4d 15 e4 bd f2 38 bd 3d
       0.099695355 0.061627917 -0.11136875 0.09239377
0002c0 45 99 a7 3d 0b 0b 53 3d 06 84 ce bd 10 10 ca 3d
       0.08183531 0.051524203 -0.10083775 0.09866345
0002d0 41 ec e0 3d 7e f4 e2 bc 2c ea 1e 3d de df c4 bd
       0.10982562 -0.027704474 0.038797542 -0.09613012
0002e0 07 63 d2 3d 60 32 5e 3d 98 26 7e 3b be 94 4d bd
       0.10272794 0.05424726 0.0038780328 -0.05019068
0002f0 0a 83 a0 3d 8f 80 fa bd 3d e0 70 3d 66 ca 08 3e
       0.07837494 -0.12231552 0.0588076 0.13358459
000300 6d ca 30 bd d2 e1 50 bc 36 db ed bd af c6 5f bb
       -0.0431618 -0.012749152 -0.11614077 -0.0034145524
000310 d5 d4 b5 3d df 13 9f 3d b4 56 0f be fe cf 88 3b
       0.08878485 0.07767462 -0.13997918 0.004175185
000320 e0 6f d5 3c da ef 06 be 96 ec 7e bd 20 8d 10 bd
       0.026054323 -0.13177434 -0.062237345 -0.035290837
000330 7e 7f 0b bd b2 38 f6 3d be 7c c4 3d 91 78 fe 3d
       -0.034057133 0.120225325 0.09594105 0.1242534
000340 13 f8 56 bc fb ff e3 bd 5a d3 f2 3d 50 b9 e8 bd
       -0.013120669 -0.11132809 0.11856718 -0.113634706
000350 38 a7 47 3d 69 bd f6 3d 48 5a 18 bd 39 a1 01 be
       0.048743457 0.12047846 -0.037195474 -0.12659158
000360 b1 19 99 bd 4c 5b 22 bd 4c 5b 7a 3d bb 44 58 bd
       -0.07475603 -0.03963785 0.061122224 -0.05279992
000370 da 11 bc bd 11 81 6a bd 47 1b ef bd cb df 96 3d
       -0.091830924 -0.057251994 -0.116751246 0.07366904
000380 2a f6 8b 3d 03 0a 07 3d 6b 8a d8 bd 92 fa 8f bd
       0.068340614 0.032968532 -0.10573276 -0.07030214
000390 36 92 8f 3d 0d c5 06 3e fe 60 0c 3e 21 bd a8 bd
       0.070103094 0.13161106 0.13708875 -0.082391985
0003a0 5b c2 c7 3c f5 a0 97 3d c5 84 95 bd bd ed 82 bd
       0.024384668 0.07403747 -0.073007144 -0.06393001
0003b0 6f 81 a4 3d fc 48 93 3c 40 34 d6 bd 45 16 ff 3d
       0.080325 0.017979138 -0.10459185 0.124554195
0003c0 2d 37 35 bd 1c 75 13 3d 91 40 19 bd ae 8b 6d bd
       -0.044242073 0.036000356 -0.03741509 -0.057994537
0003d0 b5 f2 f6 bc ca 7e a5 bd 7e 3a ba 3d c8 4a 68 bd
       -0.030145029 -0.08080824 0.09093188 -0.056711942
0003e0 e7 25 10 3e 11 f7 40 bd 19 18 92 3d fb ea a4 bd
       0.14076959 -0.04711062 0.071335025 -0.080526315
0003f0 13 92 f5 3c d0 0a 41 3d ba ca a4 bd 63 cd 8d 3d
       0.02997688 0.047129452 -0.080464795 0.0692394

bias f4 [50]
000000 da f7 cb 3d 24 04 0a be 6a 89 05 3e 85 8c 77 3d
       0.09959383 -0.13478142 0.130407 0.060436744
000010 91 a4 d2 3d 2d 9c 2b 3d 01 79 fa 3d 6c 39 90 bd
       0.10285295 0.041896988 0.12230111 -0.07042202
000020 ff 71 a0 3b 44 15 4d 3d 43 d7 23 3d 2f fb 0b 3c
       0.004896402 0.05006911 0.04000021 0.008543774
000030 2c 02 0a 3e 3e 68 00 be 3f 11 bf bd ad 78 a4 bc
       0.13477391 -0.12539765 -0.09329461 -0.020077074
000040 ff f8 fe 3d 5a 66 0f bd e0 92 8e bd e4 6a a9 3c
       0.12449836 -0.03500972 -0.06961608 0.020680852
000050 f1 f4 e2 3d 8c 54 a9 3d dc 08 92 bd 41 94 a1 3d
       0.11081875 0.08268079 -0.07130596 0.07889605
000060 3c dd f9 bd de 13 46 bd c6 bd e0 bd 34 8e 73 3c
       -0.122004 -0.04835879 -0.109736964 0.014865447
000070 97 ef bd 3d 5f 43 c2 3d 5f 9c 92 3d f3 2d 7e 3c
       0.09274214 0.09485506 0.07158732 0.015513885
000080 68 ba d5 3c 1a eb b1 3d ca 6e 89 bd 48 3a 44 bd
       0.026089862 0.0868742 -0.067105845 -0.047907144
000090 d1 51 33 3d 1c c9 0c be e0 a1 35 bd f0 09 b4 bd
       0.043779198 -0.13748592 -0.04434383 -0.08790958
0000a0 9d ac c2 3d 95 10 4d 3d 80 34 d0 bd 2c d4 06 be
       0.095055796 0.050064642 -0.101662636 -0.13166875
0000b0 00 4a ad bd 22 60 ac 3c 34 4a cc 3d 77 bc c0 3c
       -0.0846138 0.021041933 0.099750906 0.023527367
0000c0 de d8 7b bc e4 b2 00 3e
       -0.015371529 0.12568241

weight f4 [2, 50]
000000 a5 20 f5 bd 2c 96 e4 bd 9b 0f 74 bd 99 87 82 bd
       -0.11969117 -0.111614555 -0.059585195 -0.063735195
000010 a4 ee 81 3d 51 11 ca bd 56 35 1d bc 53 3f ca bd
       0.06344345 -0.09866584 -0.009595236 -0.098753594
000020 d0 81 85 bd d3 6d 97 bd bd d5 48 bd 75 19 23 3c
       -0.065189004 -0.07393994 -0.04903196 0.0099548
000030 e2 ca c6 bd 82 71 b7 bd a5 de ec bd 15 57 6c 3d
       -0.097066656 -0.08957197 -0.115659036 0.057700235
000040 44 8e b0 bb 43 74 5e 3d 8b 1e 32 3d 0f c4 72 bd
       -0.005388053 0.054310095 0.04348616 -0.059269007
000050 cd c4 27 bd 35 a7 ca 3d 56 5f 8c 3d 5d aa e8 3c
       -0.04095917 0.098951735 0.068541214 0.028401548
000060 ff 14 94 bd 83 2d 57 bd ad 78 3a bd 79 ce 11 bc
       -0.07230567 -0.052533638 -0.04552524 -0.008899325
000070 e2 a5 92 bd d4 03 76 bd 06 ca e1 3c b5 93 0a be
       -0.07160546 -0.060062245 0.027562153 -0.13532908
000080 a7 5e b1 3c e8 ac f9 bd 93 2e 05 3e a0 d7 81 bd
       0.021651579 -0.121911824 0.13006048 -0.06339955
000090 bb 39 bd 3c e2 e0 85 bd 0e 69 e9 bd f3 e7 0d be
       0.023098817 -0.065370336 -0.11396991 -0.13858013
0000a0 56 05 c6 ba 6a 37 69 3d ae 3a 3a bd 16 5d ff bc
       -0.0015107791 0.056937613 -0.045466118 -0.031172317
0000b0 d8 c5 d2 3d ad 16 07 be 2f 1b ea 3d 49 26 32 bd
       0.10291642 -0.13192244 0.11430966 -0.043493543
0000c0 be 43 c3 bd 52 92 77 3d 49 01 20 3b 40 b4 97 3d
       -0.09534405 0.060442276 0.0024414829 0.07407427
0000d0 a0 65 3f 3d 9b 65 87 bd 80 a1 7d bd 41 44 8b bc
       0.046727777 -0.066111766 -0.061921597 -0.01700032
0000e0 f0 0f b6 3d b4 26 3c 3b 30 3d 9b 3d a3 7b f1 3d
       0.088897586 0.0028709592 0.0758003 0.1179116
0000f0 eb fc 09 bd 92 79 95 bd 0a 00 7e 3d e7 ef e7 3d
       -0.033688467 -0.07298578 0.062011756 0.113250546
000100 93 90 7e bd 90 b9 ac 3d 43 f0 3c bd 21 9f c1 3c
       -0.062149595 0.08433831 -0.04612757 0.023635449
000110 98 b0 c0 3d c8 9c b1 bd 51 0f 24 bd 4e 63 22 bd
       0.094086826 -0.08672482 -0.04005367 -0.039645486
000120 99 bf 1b bd c1 55 8f bb a7 d9 1b 3d ec df d8 3d
       -0.03802452 -0.0043742363 0.038049366 0.10589585
000130 47 76 72 bd 9b 25 54 3d 3a 7e a4 bd 55 c7 e7 3d
       -0.05919483 0.051793676 -0.08031888 0.113173164
000140 f2 f0 1a 3c 69 12 07 be cb 72 15 bd d8 60 01 be
       0.00945686 -0.13190617 -0.03648643 -0.12634599
000150 2e 8b a0 3d 31 2d 97 bc a3 28 a6 3d f0 30 7c 3d
       0.078390464 -0.018454166 0.081132196 0.061570108
000160 fe 5f ca 3d 75 e3 d1 3c 2e 94 31 bd ae 9e b0 3d
       0.0988159 0.025621155 -0.043354206 0.08624016
000170 29 32 cd 3d c2 c6 8c 3c 25 1b d7 3c 4b 1c ac 3d
       0.10019333 0.017184619 0.02625806 0.08403834
000180 a1 a8 ec 3b 1f 0a ac bd f5 0b a6 bd 5c 41 e7 3d
       0.0072222506 -0.08400368 -0.081077494 0.11291763

bias f4 [2]
000000 80 5e bd 3d d9 2c da bc
       0.0924654 -0.026632713
