models/pytorch_model.pt (torch, 8049 bytes, 3 tensors)

weight f4 [16, 17]
0	0xbcfaeec6	-0.030631434
1	0x3d570457	0.052494373
2	0xbe272b4a	-0.16325107
3	0x3e77c155	0.24194844
4	0xbdcc3e22	-0.099727884
5	0xbdb2f8ad	-0.087388374
6	0x3d32f0c4	0.043686643
7	0xbd6b6586	-0.057469867
8	0x3e064959	0.13113917
9	0xbdfbb75a	-0.12290831
10	0x3e17e702	0.14834216
11	0xbe08c539	-0.13356484
12	0xbe0fa37c	-0.14027208
13	0x3de8096a	0.113299206
14	0x3e366c5b	0.17814772
15	0xbe668a0d	-0.225136
16	0xbe1a80c7	-0.15088187
17	0x3e165a1f	0.14682816
18	0x3dc73c64	0.097283155
19	0xbe52449b	-0.20533983
20	0xbe669968	-0.22519457
21	0x3e19da71	0.15024735
22	0xbe29d58d	-0.1658537
23	0x3ce6b59c	0.02816277
24	0xbe0154cc	-0.12630004
25	0xbe09e42a	-0.13465944
26	0x3df998e3	0.12187364
27	0xbd8064f9	-0.06269259
28	0xbe689d49	-0.2271625
29	0x3e22c682	0.15896037
30	0xbca93cfd	-0.020658964
31	0x3e5fce95	0.21856149
32	0xbe6c3eef	-0.23070882
33	0x3e0dc671	0.1384523
34	0x3d4f52dc	0.05061613
35	0xbd9ad453	-0.07560029
36	0xbcf2b981	-0.02962947
37	0x3d1b1624	0.03786291
38	0xbe5a49ce	-0.21317217
39	0xbe67e6e6	-0.22646675
40	0x3e2ec123	0.17065863
41	0x3e0f9548	0.1402179
42	0x3e27c997	0.16385494
43	0x3e279bf4	0.16368085
44	0xbbf19085	-0.0073719644
45	0x3e39eb0e	0.18156072
46	0x3d13f200	0.03611946
47	0x3dc1ed29	0.09469063
48	0x3e6d1a07	0.2315446
49	0x3d98f149	0.074678965
50	0x3e08357c	0.13301653
51	0x3d0a7685	0.033804435
52	0xbe43b8f3	-0.19113521
53	0xbe2e94c0	-0.17048931
54	0x3e006c21	0.12541248
55	0x3e0c9d44	0.13731867
56	0xbde2ea6f	-0.11079871
57	0xbd7d3548	-0.06181839
58	0x3da3d1ca	0.079989985
59	0x3e2bcf1a	0.16778222
60	0xbda5be55	-0.080929436
61	0x3bbbab27	0.00572719
62	0x3e782ad4	0.24235088
63	0xbe68abb2	-0.22721747
64	0x3e7762f4	0.24158841
65	0x3e1da796	0.1539596
66	0xbdbd9eb7	-0.09258788
67	0x3e4b5e7e	0.19860265
68	0x3e455a64	0.19272763
69	0x3e00437b	0.12525742
70	0xbe574f9c	-0.21026462
71	0x3d100782	0.03516341
72	0x3bc1858a	0.0059058117
73	0x3d83336d	0.06406293
74	0x3e68ac3f	0.22721957
75	0xbe581392	-0.21101215
76	0xbda70ec7	-0.081571154
77	0xbe2f16be	-0.17098519
78	0x3dbb7de8	0.09154874
79	0xbd2edff4	-0.042694047
80	0x3e61ae1d	0.22039075
81	0x3d2fd5ac	0.042928383
82	0x3e70426b	0.23462836
83	0xbe2bbc36	-0.16771016
84	0x3d701f4a	0.05862359
85	0x3e0981ac	0.13428372
86	0xbca33dbd	-0.0199269
87	0x3df92a0d	0.12166224
88	0xbe3e6cfe	-0.18596265
89	0x3e30842b	0.17237918
90	0x3e479cd5	0.1949342
91	0xbd6ab6d6	-0.057303272
92	0xbe56d3d7	-0.20979248
93	0xbda0fbce	-0.07860528
94	0xbe5e8e4f	-0.21733974
95	0x3dbf2c34	0.09334603
96	0x3d589e9e	0.052885644
97	0x3e68afc0	0.22723293
98	0xbd4c7ceb	-0.04992382
99	0xbd00d845	-0.03145625
100	0x3e168863	0.14700465
101	0xbdf01bed	-0.117240764
102	0x3e03c0f5	0.12866576
103	0xbbe7d37f	-0.007074773
104	0x3e63ad27	0.22234021
105	0x3e455907	0.19272242
106	0x3dc77b51	0.097403176
107	0x3e1400c1	0.14453413
108	0x3e4cb324	0.19990212
109	0x3d9937e0	0.074813604
110	0x3e50af7f	0.20379446
111	0x3e14f20a	0.14545456
112	0x3e2e4fd1	0.17022635
113	0x3e50fbdd	0.20408578
114	0x3e299b4a	0.16563144
115	0x3d1e31a8	0.038621575
116	0x3e6dca6d	0.2322175
117	0x3e299fe7	0.16564904
118	0xbde8d4f3	-0.11368742
119	0xbdcf3277	-0.10117047
120	0x3df38572	0.11890687
121	0xbe6966cc	-0.2279312
122	0x3dc854e6	0.09781818
123	0xbe28d85d	-0.16488786
124	0xbd736230	-0.05941981
125	0xbe68fbf7	-0.22752367
126	0xbe355ce0	-0.1771121
127	0x3c8f568c	0.017497323
128	0x3e33f717	0.17574726
129	0x3dbf454e	0.09339391
130	0x3dfe0d6d	0.124049045
131	0xbe3956bc	-0.18099493
132	0x3e4a2b41	0.19743063
133	0xbe1c813a	-0.15283671
134	0x3e065d50	0.13121533
135	0xbdcac63c	-0.099010915
136	0xbe31a28d	-0.17347164
137	0x3e142e85	0.14470871
138	0x3d9aea88	0.075642645
139	0x3e77f76b	0.24215476
140	0x3e0bf831	0.13668896
141	0x3e1d3f04	0.1535607
142	0xbc0a9ef7	-0.008460752
143	0x3e3714d4	0.17879039
144	0x3e5e54bc	0.21712011
145	0xbdbb7992	-0.09154047
146	0xbc5bdc26	-0.013419187
147	0x3b358366	0.0027696728
148	0x3e01bfaa	0.1267077
149	0xbe76d92e	-0.24106285
150	0x3db7a31b	0.08966657
151	0xbe13270f	-0.14370368
152	0x3cf72273	0.030167794
153	0xbd9c3b0c	-0.0762845
154	0xbd90e4cb	-0.07074889
155	0x3e094648	0.13405716
156	0xbda2dadc	-0.079519
157	0xbdcb3c04	-0.099235564
158	0xbce05558	-0.027384445
159	0xbdf80563	-0.121104024
160	0xbd6bbdfd	-0.057554234
161	0x3c70e779	0.014703625
162	0x3e68ef3f	0.22747515
163	0x3e1b00e0	0.15137053
164	0xbe41c7f1	-0.18923928
165	0xbe242a4b	-0.16031758
166	0xbe304c2e	-0.1721656
167	0x3b7bbb2b	0.0038411121
168	0xbe253c52	-0.16136292
169	0x3d497e2c	0.049192593
170	0x3c5caaca	0.013468454
171	0xbde74bdc	-0.11293766
172	0x3d06ecae	0.03294056
173	0x3e085a38	0.13315666
174	0xbd7dd60e	-0.061971717
175	0xbe633684	-0.22188765
176	0x3d2715cb	0.040792268
177	0xbda76683	-0.081738494
178	0xbde2f87c	-0.11082551
179	0x3e575b2c	0.21030873
180	0x3e1756da	0.14779225
181	0x3e633a4e	0.2219021
182	0x3e593422	0.21211293
183	0xbe337cd2	-0.17528084
184	0x3d4364ca	0.04770354
185	0xb9858fb4	-0.00025474804
186	0x3e56a24d	0.2096035
187	0xbe0a3cf7	-0.13499819
188	0xbe442207	-0.19153605
189	0x3e2ce3ca	0.1688377
190	0xbce7bc56	-0.028288048
191	0x3cd29617	0.025706334
192	0x3dbd73ed	0.09250627
193	0xbc7d8bfd	-0.01547527
194	0x3dec40e5	0.11535815
195	0x3ca2a710	0.019855052
196	0xbdc6cb0d	-0.097066976
197	0xbe4ce9c2	-0.20011047
198	0x3e568665	0.20949705
199	0xbe4cfe44	-0.2001887
200	0x3d02d133	0.03193779
201	0xbe0eee5f	-0.13958119
202	0xbddb8cfe	-0.107202515
203	0xbda7f427	-0.08200865
204	0xbd0e169d	-0.034689534
205	0xbd3c4a4a	-0.045969285
206	0x3c7a03d1	0.015259699
207	0x3e347b4b	0.17625158
208	0x3da1201c	0.078674525
209	0xbda7f605	-0.082012214
210	0xbd976cf8	-0.07393831
211	0xbd6234de	-0.0552262
212	0x3db72242	0.08942081
213	0x3ae0567f	0.0017115622
214	0xbe3ac541	-0.18239309
215	0x3d948b67	0.072531514
216	0xbdcb071c	-0.099134654
217	0xbdeb24eb	-0.11481651
218	0x3d1caba9	0.038249645
219	0xbe4addf3	-0.1981123
220	0xbd9c781b	-0.07640096
221	0x3e3e3326	0.18574199
222	0x3e6d7e6a	0.23192754
223	0xbe13a688	-0.14418995
224	0xbe4ab3b2	-0.19795111
225	0xbe558e21	-0.20854999
226	0x3dedff3d	0.116209485
227	0xbe6dab44	-0.23209864
228	0xbdd5f3d9	-0.10446901
229	0xbe77ccf7	-0.24199282
230	0x3e4e7366	0.20161209
231	0xbe74fada	-0.23923817
232	0x3cf65aa9	0.030072527
233	0xbd8743b1	-0.06604708
234	0x3da146d7	0.0787484
235	0x3d442555	0.047887165
236	0x3e3fe912	0.18741253
237	0xbe6401ce	-0.22266313
238	0x3e2be635	0.16787036
239	0xbe6ff9f2	-0.2343519
240	0xbc76c296	-0.015061041
241	0xbd8f81ad	-0.070071556
242	0xbe744dad	-0.23857756
243	0x3dbd6b49	0.09248979
244	0xbdea9856	-0.11454837
245	0x3e231f79	0.15929975
246	0xbe410e36	-0.18853077
247	0xbe5ec13e	-0.21753404
248	0xbe650648	-0.22365677
249	0xbdabe5b5	-0.083934225
250	0xbe577a78	-0.21042812
251	0xbe430021	-0.19043018
252	0x3e43c3ea	0.19117704
253	0x3d028839	0.031868193
254	0x3e298db5	0.16557963
255	0x3d062cce	0.032757573

bias f4 [16]
0	0x3dad4509	0.08460433
1	0x3e745360	0.2385993
2	0xbd50c4f0	-0.050969064
3	0xbdb8520c	-0.09000024
4	0x3e5d2769	0.21597065
5	0x3ddede6a	0.10882266
6	0xbdd71b61	-0.10503269
7	0x3c21ad6e	0.009868009
8	0x3dc388a0	0.095475435
9	0x3dcfbd3a	0.10143514
10	0xbe07ba94	-0.13254768
11	0xbe0fbf13	-0.14037733
12	0x3c1be0c0	0.009514034
13	0xbdb7edda	-0.089809135
14	0xbd8b7727	-0.06809836
15	0x3d4fa73b	0.050696593

weight f4 [1, 16]
0	0x3dbf8a98	0.093526065
1	0x3d789eb0	0.06069821
2	0xbe5eea0a	-0.21768966
3	0x3e75960c	0.2398302
4	0xbd20c9e8	-0.039255053
5	0x3bedfd00	0.007262826
6	0xbbf25280	-0.0073950887
7	0x3cee5070	0.02909109
8	0x3d7298f8	0.059227914
9	0x3d7f0890	0.062264025
10	0xbd364c58	-0.0445064
11	0xbe6c8cea	-0.2310063
12	0x3e2e6a70	0.1703279
13	0x3e330712	0.17483166
14	0x3e2ebf9a	0.17065278
15	0xbd98e298	-0.07465094
